Project_4/models/autoencoder.pth (torch, 24903 bytes, 12 tensors)

encoder.0.weight f4 [32, 52]
0	0x3e637535	0.2221268
1	0x3e047d57	0.12938438
2	0xbc20f992	-0.009825127
3	0x3c5defc3	0.013545933
4	0xbb277499	-0.0025551675
5	0x3ceb1f4f	0.028701453
6	0xbbaa0123	-0.005188124
7	0x3cffe964	0.031239219
8	0xbbff7512	-0.0077959383
9	0xb15b2820	-3.1891503e-09
10	0xbddde4b5	-0.10834638
11	0x3e3c0d02	0.18364337
12	0xbd8f4225	-0.06995038
13	0xbc5108e3	-0.012758466
14	0xbe58d5eb	-0.21175353
15	0x3da27397	0.07932203
16	0x3bc99c3f	0.006152659
17	0xbc473efe	-0.012161015
18	0x3d8ead1c	0.06966612
19	0x3dd27b90	0.10277474
20	0xbe5f7a9b	-0.21824114
21	0xbdf37d4c	-0.11889133
22	0xbb90d63c	-0.00442007
23	0x3be186c1	0.006882519
24	0xbe65d909	-0.22446074
25	0x3d9bc640	0.076061726
26	0xba29caac	-0.0006477039
27	0xbd239a02	-0.039941795
28	0xba189422	-0.00058204134
29	0xbce981d3	-0.028504288
30	0xbdee816f	-0.11645781
31	0x3e4e9105	0.20172508
32	0xba82fff9	-0.0009994499
33	0xbd2e7035	-0.042587478
34	0xadeed053	-2.7149982e-11
35	0x3d57734d	0.052600194
36	0x3d86c4aa	0.065804794
37	0x3e5e9d38	0.21739662
38	0x3e110bd2	0.14164665
39	0xbe5f5800	-0.21810913
40	0xbde202d3	-0.11035695
41	0x3cce68e4	0.0251965
42	0xbd99ef81	-0.07516385
43	0xae905a2a	-6.564378e-11
44	0x3e0a0fce	0.13482592
45	0x3e612bf9	0.2198943
46	0x3c7cd075	0.015430559
47	0xb9906d6e	-0.00027547352
48	0x3a26b461	0.0006359276
49	0xbda56080	-0.080750465
50	0xbe2d3388	-0.16914189
51	0xbcc2fa88	-0.023801103
52	0x3e157363	0.14594798
53	0x3cba8409	0.022768037
54	0x3b0c03b0	0.0021364503
55	0x3d984d0e	0.07436572
56	0x3d7d65da	0.06186471
57	0x3cd4c9e9	0.025975185
58	0x39c6d3ea	0.0003792339
59	0xba9cd911	-0.0011966546
60	0xbce311b6	-0.027718406
61	0x3145a178	2.8759057e-09
62	0x3d39469d	0.045233358
63	0xbe2225fb	-0.15834801
64	0x3e4e60d7	0.20154129
65	0x3ded58ed	0.11589227
66	0xbdb328b7	-0.08748
67	0x3e21f41a	0.15815774
68	0x3c51e120	0.012810022
69	0x3d3b8864	0.04578437
70	0x3e2134eb	0.15742843
71	0x3da1c7bd	0.07899425
72	0x3dec2c78	0.11531919
73	0x3c844c94	0.016149797
74	0xbe85ec04	-0.26156628
75	0xbd0b30fe	-0.03398227
76	0xbd61e556	-0.055150352
77	0x3d8dea50	0.06929457
78	0xbd6841f9	-0.05670354
79	0xbdddd04a	-0.108307436
80	0xba9f3210	-0.0012145657
81	0x3e425cff	0.18980788
82	0x3d336b81	0.043803696
83	0x3d11c262	0.03558577
84	0x3c18992e	0.009313865
85	0xbe0bb616	-0.13643679
86	0x30cc5df2	1.4869654e-09
87	0xbddd7678	-0.10813612
88	0x3e3cc67b	0.1843509
89	0xbdc62ed8	-0.096769035
90	0x3e25cf05	0.16192253
91	0xbe2e3818	-0.17013586
92	0xbe6b6baf	-0.22990297
93	0xbde3aead	-0.11117301
94	0xbdb49cc9	-0.08818967
95	0x3ce40654	0.027835049
96	0x3e69e9e6	0.22843131
97	0xbe6e1e79	-0.23253812
98	0xbe0fb72b	-0.14034717
99	0xbbf5665b	-0.0074890084
100	0xbccc22ba	-0.024918903
101	0xbe24bd24	-0.16087776
102	0x3dab916a	0.08377345
103	0xbd209bcc	-0.03921108
104	0xbc06f110	-0.008236185
105	0xbb875d0e	-0.004130966
106	0x3cb4954c	0.022043847
107	0x331b28f2	3.612599e-08
108	0x3d129c2a	0.03579346
109	0x3bd42563	0.0064741834
110	0x3d079af9	0.033106778
111	0x324c6254	1.189672e-08
112	0xb20a9768	-8.067083e-09
113	0xb2ac8be1	-2.0087045e-08
114	0xb20366de	-7.648593e-09
115	0xbbf5d56f	-0.00750225
116	0x3c9e072b	0.019290527
117	0xbd09a8b0	-0.03360814
118	0x3a90d218	0.0011048941
119	0xbdb89f27	-0.09014731
120	0xbd7c393d	-0.061578024
121	0x30ce35c7	1.5003757e-09
122	0xb9148595	-0.00014164143
123	0xbbbda637	-0.0057876366
124	0x3d867202	0.06564714
125	0xbcb6936d	-0.022287095
126	0x3d8686ac	0.06568655
127	0x33222e12	3.7760465e-08
128	0xbbc80dac	-0.0061051454
129	0xbab9f648	-0.0014187777
130	0x3cfb8a40	0.030705571
131	0xbc8cc93d	-0.017185802
132	0x3c2e5ce1	0.010642261
133	0xaf40cdc0	-1.7535395e-10
134	0xbd640384	-0.055667415
135	0xbd1ef6b7	-0.038809504
136	0xb2a58605	-1.9269473e-08
137	0x3db29bd1	0.08721126
138	0x3c7fa88e	0.015604151
139	0xb88f150c	-6.822692e-05
140	0xba602332	-0.00085501664
141	0x3c74ac44	0.014933649
142	0xbb148e37	-0.0022667774
143	0xbd216699	-0.039404485
144	0xbb9cab7c	-0.0047811847
145	0xbd0621c0	-0.03274703
146	0x3a2e1f80	0.0006642267
147	0xb8aa656c	-8.125123e-05
148	0xbda72e8b	-0.08163174
149	0x3da345c5	0.07972292
150	0x3219645a	8.928589e-09
151	0xb1362157	-2.6503437e-09
152	0x3c533138	0.012890153
153	0xbc3aedf2	-0.01140927
154	0x373d398e	1.1278678e-05
155	0xbc0883d8	-0.008332215
156	0xbc0eba05	-0.008711343
157	0x3e34ddfe	0.17662808
158	0x3d0fc02c	0.03509538
159	0xbd6ab3a8	-0.05730024
160	0xbda7c2cf	-0.08191454
161	0xbcb87db2	-0.022520874
162	0x3d65ebd9	0.056133125
163	0xaf17238b	-1.3745997e-10
164	0x3d62f6e5	0.05541124
165	0xaf615374	-2.0493279e-10
166	0x3e26f727	0.16305219
167	0x3d8a730d	0.067602254
168	0xbe21a236	-0.15784535
169	0xbe635597	-0.22200619
170	0xbe8bc310	-0.27297258
171	0x3d9275f9	0.07151408
172	0xbe4d18b3	-0.20028953
173	0xbc64c070	-0.013961896
174	0x3d42d060	0.047562003
175	0xbe3e901f	-0.18609665
176	0x3e4e3d81	0.2014065
177	0x3e30e473	0.17274646
178	0x3c91e756	0.017810505
179	0x3c0a83aa	0.008454243
180	0xbde9fcd6	-0.11425178
181	0x3bab490b	0.0052272133
182	0xbd200b7a	-0.039073445
183	0xbe33fbed	-0.17576571
184	0xbbd8feca	-0.00662217
185	0x3e20cce7	0.15703164
186	0x3e02042a	0.12696901
187	0x3ddf1e2a	0.10894425
188	0x2eee5831	1.0838653e-10
189	0x3e768b10	0.24076486
190	0xb44e7fa1	-1.9231676e-07
191	0x3b4403ee	0.002990957
192	0x3da5aceb	0.08089622
193	0xbe2d4f7f	-0.16924857
194	0xbe2bb674	-0.16768819
195	0xbd7ec51a	-0.06219969
196	0xbdbaa970	-0.09114349
197	0x3d828a42	0.06374027
198	0x3e979094	0.29602492
199	0x3cc9dd31	0.024641605
200	0xbe23d339	-0.15998544
201	0x3df1d88d	0.11808882
202	0xbd82bbaf	-0.06383454
203	0x2e2f91d4	3.9919915e-11
204	0xb149186f	-2.9263238e-09
205	0x3e7ca66d	0.24672861
206	0xbcbf888f	-0.023380546
207	0xbdcde0cb	-0.100526415
208	0x3d01ef90	0.031722605
209	0xbe683752	-0.22677353
210	0x3c934bc9	0.017980473
211	0xbdcc5466	-0.09977035
212	0x3d6c827a	0.05774162
213	0xbe063e2b	-0.13109653
214	0x3c539360	0.012913555
215	0xb03ba65c	-6.8266615e-10
216	0x3dcf9fe0	0.101379156
217	0x37c197a7	2.3078012e-05
218	0x3e850388	0.25979257
219	0xbe4086d0	-0.18801427
220	0x3d753d78	0.059873074
221	0xbe48212d	-0.19543906
222	0xbe85b41e	-0.2611398
223	0x3cdd2817	0.026996655
224	0xbdc66cce	-0.096887216
225	0xbd87e229	-0.066349335
226	0xbdfce0cb	-0.12347563
227	0xbe0cdd6e	-0.13756344
228	0x3de0f4c6	0.10984187
229	0x3d6abc36	0.0573084
230	0xbe1518f7	-0.14560305
231	0xbc69e9d4	-0.01427694
232	0xbcc45ea0	-0.023970902
233	0xbe5c180b	-0.21493547
234	0x3d1f6d94	0.03892286
235	0x3d62f89b	0.05541287
236	0xbc877893	-0.016536986
237	0x3de83fd3	0.113402985
238	0xbd314fcc	-0.04328899
239	0xbd1cbfee	-0.038268976
240	0xbce325ca	-0.02772798
241	0xbde5f107	-0.11227613
242	0xba3d1346	-0.000721265
243	0x3e1f03da	0.15528813
244	0xbe956b0d	-0.29183236
245	0x3cae7edd	0.021300728
246	0x3e3ffa32	0.18747786
247	0x3c998ba8	0.018743351
248	0xbd1c0e3e	-0.03809952
249	0x3e3b9e78	0.1832217
250	0xbdbe902f	-0.093048446
251	0xb2918b8f	-1.6943686e-08
252	0x3c593cb8	0.013259105
253	0x3dee7761	0.116438635
254	0x3e02ea4b	0.12784688
255	0x345e726a	2.0716985e-07

encoder.0.bias f4 [32]
0	0xbc5d26b4	-0.013497997
1	0xbc96375c	-0.018336944
2	0xbc007d5d	-0.007842389
3	0xbba572c3	-0.005049081
4	0xbd630b1a	-0.05543051
5	0xbcf720bb	-0.030166974
6	0xbd283897	-0.041069593
7	0xbc218aaa	-0.00985972
8	0xbd8c2e43	-0.06844761
9	0xbc74bda0	-0.014937788
10	0xbd14279b	-0.036170583
11	0xbda4cdba	-0.08047052
12	0xbb8cb12c	-0.0042935815
13	0xbc634d85	-0.013873463
14	0xbdb889c0	-0.09010649
15	0xbd0311f0	-0.03199953
16	0xbc06938a	-0.008213887
17	0x3a66ec6f	0.0008809035
18	0xbb430aaa	-0.0029760995
19	0xbc8d6441	-0.017259719
20	0xbc12d3f3	-0.008961665
21	0xbc430d15	-0.0119049745
22	0xba652f84	-0.0008742737
23	0xbd1c55bf	-0.03816771
24	0x3d30ef93	0.043197226
25	0xbc0b93bc	-0.008519109
26	0xbcf5d378	-0.030008063
27	0xbcc068c1	-0.02348745
28	0x3b4a3831	0.0030856247
29	0xbdae725d	-0.08517907
30	0xbc5eecd6	-0.013606271
31	0xbbd54074	-0.0065079276

encoder.3.weight f4 [16, 32]
0	0xbe0f8e59	-0.14019145
1	0xbe20e7d4	-0.15713435
2	0xbbc38f12	-0.005967983
3	0xbe916efd	-0.2840499
4	0x3e8a4958	0.27009082
5	0xbeb1711e	-0.34656614
6	0xbd5e6935	-0.054299552
7	0x3d8d3c94	0.0689632
8	0x3e9addbe	0.302473
9	0xbdb3afe1	-0.087737806
10	0x3e5065d7	0.20351349
11	0x3dd60b6c	0.10451397
12	0x3e94be2d	0.29051343
13	0xbe8a7643	-0.27043352
14	0xbd9729c1	-0.07381011
15	0x3de7243d	0.11286209
16	0x3b28a310	0.0025731958
17	0xbe8e80fe	-0.27832788
18	0xbd9d1472	-0.07669915
19	0xbe3d2a09	-0.18473066
20	0x3e567e6c	0.20946664
21	0x3d5ac8a1	0.05341399
22	0xbe895f4f	-0.26830527
23	0x3d483f19	0.0488883
24	0xbcfbf66c	-0.030757152
25	0xbe6d95a7	-0.23201619
26	0xbe2fb7e4	-0.17159992
27	0x3d8a6e10	0.06759274
28	0xbe742910	-0.23843789
29	0x3d8ba57e	0.068186745
30	0x3e84e7fa	0.25958234
31	0xbd866980	-0.06563091
32	0xbe12f88f	-0.1435263
33	0xbd8db54a	-0.06919344
34	0x3abfb1a8	0.0014625089
35	0x3e8ce80e	0.27520794
36	0x3e65ac2e	0.22428963
37	0xbd572749	-0.0525277
38	0xbe7b4563	-0.24538188
39	0xbe4a189f	-0.19735955
40	0xbe8f1e76	-0.27952927
41	0xbe0f52e8	-0.1399647
42	0xbe01b5f0	-0.1266706
43	0x3e0d0103	0.13769917
44	0x3ebaaae2	0.36458498
45	0xbe9f03b9	-0.31057528
46	0x3e3260e3	0.17419772
47	0xbea15d70	-0.315166
48	0xbc3a898d	-0.011385334
49	0xbdf05806	-0.11735539
50	0xbc2de6a8	-0.010614075
51	0x3d1e2798	0.03861198
52	0xbdc1ced1	-0.09463275
53	0xbba925a8	-0.0051619597
54	0x3e70cefa	0.23516455
55	0x3dda6662	0.10664059
56	0x3db05a21	0.08610941
57	0x3e84da06	0.2594759
58	0x3d7364dc	0.05942236
59	0xbe7aa98d	-0.24478741
60	0xbe8dbd62	-0.2768355
61	0x3cbac826	0.022800516
62	0x3e8c8c18	0.27450633
63	0xbe4cfe81	-0.2001896
64	0x3dced7b2	0.10099734
65	0x3dde32af	0.10849511
66	0xbc28b854	-0.0102978535
67	0x3eaeff8c	0.34179342
68	0x3e8e1223	0.27748212
69	0xbe97483b	-0.29547295
70	0x3c951607	0.01819898
71	0xbe41c751	-0.1892369
72	0xbe4d1e00	-0.20030975
73	0x3ce65aa1	0.028119387
74	0xbe83e885	-0.25763336
75	0x3d92b577	0.07163518
76	0x3e1e5736	0.15462956
77	0x3dc33cbe	0.0953307
78	0xbe85e53f	-0.26151463
79	0xbdae2b8e	-0.08504401
80	0x3b775a7a	0.0037743137
81	0x3e226c43	0.15861611
82	0xbdb44d3f	-0.08803796
83	0x3dcad8bb	0.09904619
84	0xbe61dedf	-0.22057675
85	0xbe74bb0a	-0.23899475
86	0xbe9aaf89	-0.30212048
87	0x3eab6d0c	0.33481634
88	0xbd660419	-0.05615625
89	0xbeba714d	-0.36414567
90	0xbec63967	-0.3871567
91	0xbe0696e3	-0.13143496
92	0xbe23513f	-0.15948962
93	0x3e508a5c	0.2036528
94	0x3e7647fe	0.240509
95	0xbe144be7	-0.1448208
96	0x3e624332	0.22095945
97	0xbec1dc89	-0.37863567
98	0xb22083fc	-9.3432355e-09
99	0x3ea71cce	0.32639164
100	0x3b65cdee	0.003506537
101	0xbea63422	-0.3246165
102	0x3dd5d4de	0.10440992
103	0xbe91561b	-0.28386006
104	0x3e8648e3	0.26227483
105	0x3ea49278	0.32142997
106	0x3e8ca1ad	0.274671
107	0xbe142a0a	-0.14469162
108	0x3d887c94	0.066643864
109	0xbe4f781d	-0.20260663
110	0x3e6c199c	0.23056644
111	0x3e444bf5	0.191696
112	0x3d94eb35	0.07271425
113	0x3e392b63	0.18082957
114	0xbdf8273f	-0.121168606
115	0xbe9efbc2	-0.3105145
116	0xbd385f29	-0.045012627
117	0x3e52ebe8	0.20597804
118	0xbde2ef68	-0.11080819
119	0x3d8a8387	0.06763368
120	0xbc768945	-0.015047376
121	0xbeb90bad	-0.3614172
122	0x3a61b192	0.0008609529
123	0xbeb3263d	-0.3499011
124	0x3ea91783	0.3302575
125	0xbe82ceda	-0.2554844
126	0xbe4c658d	-0.19960614
127	0x3deba5a4	0.11506203
128	0x3e1ca792	0.15298298
129	0xbe11a845	-0.14224346
130	0x3cceb3ee	0.025232282
131	0xbe9f5e83	-0.31126794
132	0xbddc679e	-0.10761951
133	0xbd38f941	-0.045159582
134	0x3e79cd24	0.24394661
135	0xbe3728ef	-0.17886709
136	0x3e820788	0.2539637
137	0x3e7d7835	0.24752887
138	0xbeb6608e	-0.3562054
139	0x3e85cf31	0.26134637
140	0xbe870999	-0.2637451
141	0xbe97fa12	-0.29682976
142	0x3e4cc44c	0.19996756
143	0x3e01c0b0	0.1267116
144	0x3b07dc9e	0.0020730863
145	0xbd1ab45f	-0.03776967
146	0xbe1323a4	-0.14369065
147	0xbdbd7e0f	-0.092525594
148	0xbe871435	-0.26382604
149	0x3e20215f	0.1563773
150	0xbeae977d	-0.3409995
151	0x3ccbbfe3	0.024871772
152	0x3cc6c364	0.024263091
153	0xbd910a76	-0.070820734
154	0x3e056fb1	0.13030888
155	0x3e4d8e6d	0.20073862
156	0x3d05a9c7	0.032632615
157	0xbe370be1	-0.17875625
158	0x3cc92e47	0.0245582
159	0x3e8608b1	0.26178506
160	0x3dff00ce	0.12451325
161	0xbe085353	-0.13313036
162	0x3d92f336	0.07175295
163	0x3d107b33	0.035273742
164	0x3d99d4ea	0.07511313
165	0xbe41001a	-0.18847695
166	0x3dbaefc1	0.09127761
167	0xbe8db025	-0.2767345
168	0xbd1f407f	-0.038879868
169	0x3e916f9f	0.28405473
170	0xbd9c9c13	-0.07646956
171	0x3e133033	0.14373855
172	0xbdef5ea2	-0.11687972
173	0x3ebd3aee	0.36959022
174	0xbe0a35f9	-0.13497151
175	0xbe3db7d2	-0.18527153
176	0x3d2adf47	0.04171684
177	0x3d101599	0.035176847
178	0x3de25c1e	0.11052726
179	0xbe96d3e7	-0.29458544
180	0x3e260b88	0.16215336
181	0x3dab03e0	0.083503485
182	0x3dbda2c2	0.09259559
183	0x3e2cdc25	0.16880853
184	0xbe00f3b0	-0.1259296
185	0xbe90e8f2	-0.28302723
186	0x3e29d76f	0.16586088
187	0xbe61ef77	-0.22064005
188	0x3e2ab8cb	0.16672055
189	0x3e15b9d7	0.14621674
190	0x3e59970f	0.2124903
191	0x3e90ecec	0.28305757
192	0x3d8b18af	0.067918174
193	0x3e15debd	0.14635749
194	0xb1c2b7df	-5.667047e-09
195	0xbe3fa6c1	-0.18715955
196	0x3e1aeb88	0.1512891
197	0xbe2d986c	-0.16952676
198	0xbe060643	-0.13088326
199	0x3e013c1a	0.12620583
200	0x3e1cfb09	0.15330137
201	0xbc9e5c5f	-0.019331155
202	0xbbcc9f34	-0.0062445644
203	0xbdaf4517	-0.085581
204	0xbe4f40b9	-0.20239533
205	0x3ec9cd41	0.3941441
206	0xbe24397c	-0.16037554
207	0xbd389d97	-0.045072164
208	0x3cac9a87	0.021069778
209	0x3e731b85	0.23740967
210	0x3dd4e99b	0.10396119
211	0x3d532bba	0.051555373
212	0xbe699d32	-0.22813872
213	0x3d4c4bca	0.049876966
214	0xbdcd6b20	-0.10030198
215	0xbe02f81a	-0.12789956
216	0x3daba7ba	0.08381601
217	0xbe4f7579	-0.20259656
218	0x3e475a3d	0.19468017
219	0xbdcb9673	-0.09940805
220	0xbc95d1c7	-0.018288506
221	0xbe78c296	-0.24292979
222	0xbe005e6e	-0.12536022
223	0xbd842abb	-0.06453463
224	0xbe0c1229	-0.13678803
225	0xbdffe307	-0.12494474
226	0x3d5ba375	0.05362268
227	0x3eada005	0.33911148
228	0xbd2c00f4	-0.041993096
229	0x3e7309cb	0.23734204
230	0xbea31f7f	-0.31859967
231	0xbc360e23	-0.011111769
232	0xbe41f037	-0.18939291
233	0xbd85664e	-0.06513654
234	0x3d017187	0.03160241
235	0xbde3064e	-0.11085187
236	0x3e0d6615	0.13808472
237	0xbdc592a1	-0.09647108
238	0xbe2002d2	-0.15626076
239	0x3dcf50df	0.10122847
240	0x32c563bd	2.2979174e-08
241	0x3e751f31	0.2393768
242	0x3e0f077b	0.13967697
243	0x3ddd5eec	0.108091205
244	0x3c45c51f	0.012070923
245	0x3def29ea	0.11677916
246	0x3e80c741	0.2515202
247	0xbd654702	-0.05597592
248	0xbe08a1f6	-0.13343033
249	0x3e3eba7a	0.18625823
250	0xbe4f6bc8	-0.20255959
251	0x3dcf79f0	0.101306796
252	0x3e76b663	0.24093013
253	0xbe90bac0	-0.2826748
254	0xbe4e8d46	-0.20171079
255	0x3db82d26	0.089929864

encoder.3.bias f4 [16]
0	0xbd1c1bdb	-0.038112503
1	0xbbd96464	-0.006634282
2	0x3d67b936	0.056573115
3	0xbd23be17	-0.039976206
4	0x3dcf5fde	0.10125707
5	0x3c4a46e5	0.012346004
6	0x3dafe3f7	0.08588403
7	0x3d19f1db	0.037584167
8	0xbd8a8354	-0.0676333
9	0x3d0da559	0.034581516
10	0xbd70c729	-0.058783684
11	0x3d1ffe6f	0.039061006
12	0x3da4cfe5	0.08047465
13	0xbd83f5a9	-0.0644334
14	0x3c8f5844	0.017498143
15	0xbcb0d603	-0.021586424

encoder.6.weight f4 [8, 16]
0	0x3dc78f1a	0.09744091
1	0x3ecbae21	0.39781287
2	0x3e5c2379	0.21497907
3	0x3e8874dc	0.26651657
4	0x3eb693aa	0.35659534
5	0x3e8738f2	0.26410633
6	0x3ee33f28	0.44384122
7	0xbd5f35d4	-0.054494694
8	0x3e3f4347	0.18678008
9	0xbe1a4600	-0.15065765
10	0xbebbbad2	-0.3666597
11	0xbdeb3170	-0.11484039
12	0x3e42ff72	0.19042757
13	0x3eda3110	0.42615557
14	0xbd92fbb0	-0.07176912
15	0xbeb8e012	-0.36108452
16	0x3e9b8dc5	0.303816
17	0xbeac97b3	-0.33709487
18	0x3e085378	0.13313091
19	0x3de6cdb3	0.11269703
20	0x3dcc485c	0.09974739
21	0x3e2d8d3f	0.16948412
22	0xbeb8bd10	-0.36081743
23	0x3f0730c0	0.5280876
24	0xbc266f1f	-0.010158329
25	0x3cca49a2	0.024693314
26	0x3d4fe3d1	0.050754372
27	0x3d8db1b6	0.06918661
28	0x3e5b2829	0.21402039
29	0x3ee16241	0.44020274
30	0xbd8ec490	-0.06971085
31	0xbd1c42cb	-0.038149636
32	0xbe7da8e3	-0.24771456
33	0xb9d6ba43	-0.00040956037
34	0x3e12eac0	0.14347363
35	0xbeb11bc7	-0.34591505
36	0x3ed6d7dd	0.41961566
37	0xbec34701	-0.3814011
38	0xbe8f58da	-0.27997476
39	0xbdcdfae3	-0.100576185
40	0x3c66dbdb	0.014090504
41	0xbdb6c70c	-0.08924684
42	0x3ed3b026	0.41345328
43	0x3eb09b92	0.3449369
44	0x3df2a88d	0.11848555
45	0x3d2498be	0.04018473
46	0xbe863708	-0.2621386
47	0xbe34c5ea	-0.17653623
48	0x3e4b91b0	0.19879794
49	0x3dbb81c7	0.091556124
50	0xbe6d7f20	-0.23193026
51	0xbec9573c	-0.39324367
52	0x3e49407b	0.19653504
53	0xbeac91a9	-0.3370488
54	0x3e5a265b	0.21303694
55	0x3e45ea68	0.193277
56	0x3e9930f1	0.29920152
57	0x3eb67998	0.35639644
58	0x3e28d0c5	0.1648589
59	0xbc682538	-0.01416903
60	0x3eb98c48	0.3623984
61	0xbea8a006	-0.32934588
62	0xbe356abd	-0.17716499
63	0x3e65d059	0.2244276
64	0x3e791693	0.24325018
65	0xbf036dab	-0.51339215
66	0x3ea5f2db	0.32411847
67	0x3daad127	0.08340674
68	0x3e9624fd	0.29325095
69	0x3e9612a1	0.29311088
70	0x3ec02e8d	0.37535515
71	0x3e0228a5	0.12710817
72	0xbe9347c8	-0.28765702
73	0x3e0542da	0.13013783
74	0x3df68e19	0.12038822
75	0x3e1ff8e3	0.15622286
76	0x3e83f021	0.2576914
77	0xbed0ad43	-0.40757188
78	0x3e5c9855	0.21542485
79	0x3e0882f1	0.133312
80	0x3eaa7a79	0.33296564
81	0x3eba0e26	0.3633892
82	0x3d5d31b1	0.054002468
83	0xbef90aae	-0.4864096
84	0xbedfbbc5	-0.43697944
85	0x3d303b2d	0.043025184
86	0x3e858069	0.26074532
87	0x3d815053	0.06314149
88	0xbe0d7c8d	-0.13817044
89	0x3e7fbf69	0.24975361
90	0xbe074582	-0.13210109
91	0x3eb1b461	0.3470793
92	0xbeaf8df7	-0.34287998
93	0xbe5602a9	-0.20899452
94	0xbda22b03	-0.0791836
95	0x3ea2ecdb	0.3182133
96	0x3dc2eba5	0.09517602
97	0xbeffa885	-0.49933258
98	0xbe56c66a	-0.20974126
99	0x3db7b1df	0.08969473
100	0x3e9f0e3a	0.31065542
101	0x3ddabebb	0.1068091
102	0xbcba2564	-0.022722907
103	0xbe1d7180	-0.15375328
104	0x3e4cc45d	0.19996782
105	0x3e742be2	0.23844865
106	0xbece562d	-0.40300122
107	0x3eb1bbd2	0.34713608
108	0x3e94886d	0.29010335
109	0x3e4d1c0b	0.20030229
110	0x3d0fffad	0.03515594
111	0x3e837fef	0.25683543
112	0x3e962d39	0.29331377
113	0xbe2c4fad	-0.16827269
114	0xbbbd5dd6	-0.0057790084
115	0xbed7bacf	-0.4213471
116	0x3efec40b	0.49758944
117	0xbdcbde23	-0.099544786
118	0x3f00bc91	0.5028773
119	0xbe30485f	-0.17215107
120	0x3e326421	0.17421009
121	0x3e01eefe	0.12688825
122	0xbea56af7	-0.3230817
123	0x3e26a862	0.1627517
124	0x3dd9e7c3	0.10639908
125	0xbe2bb9cf	-0.16770099
126	0xbe0abde3	-0.13548999
127	0xbe7f82ff	-0.24952315

encoder.6.bias f4 [8]
0	0x3d0f596a	0.03499738
1	0x3cc65832	0.024211977
2	0x3c911f68	0.017715171
3	0x3e256807	0.16152965
4	0x3d8fc16a	0.07019313
5	0x3dca1253	0.09866776
6	0x3d8c0758	0.06837338
7	0xbbd8924a	-0.006609236

decoder.0.weight f4 [16, 8]
0	0x3ca9390b	0.020657083
1	0x3e869baf	0.26290652
2	0x3ceb1f2e	0.028701391
3	0xbcc91b83	-0.024549251
4	0x3ec4988f	0.38397643
5	0xbdfa9f57	-0.12237423
6	0xbed16fb3	-0.40905532
7	0xbe8a3894	-0.2699629
8	0x3e386152	0.18005875
9	0xbdf6efc0	-0.120574474
10	0xbe7877a2	-0.24264386
11	0xbedeea42	-0.435381
12	0x3ea2c0f3	0.31787834
13	0x3e9a0e4b	0.3008903
14	0x3ed2cf9f	0.41174027
15	0x3d2639df	0.040582534
16	0x3d909717	0.07060068
17	0x3d04a8b4	0.03238745
18	0x3d78a7c0	0.060706854
19	0x3ddbd902	0.1073475
20	0xbea7a4db	-0.32742962
21	0x3e529b48	0.20567048
22	0xbda5e6b7	-0.08100646
23	0xbe716fe9	-0.23577847
24	0x3e17fee8	0.14843333
25	0x3d77c0be	0.060486548
26	0xbe82cdef	-0.2554774
27	0x3ede2455	0.43387094
28	0xbef35dd8	-0.47532535
29	0x3de3b6d1	0.11118854
30	0xbe9a6066	-0.3015167
31	0xbe31cf75	-0.17364295
32	0xbc9432b9	-0.018090593
33	0x3ef74fd9	0.48303106
34	0xbe6f9b06	-0.2339898
35	0xbefc4194	-0.49268782
36	0x3dff8779	0.12477011
37	0x3e91ef51	0.28502896
38	0xbe84e77f	-0.25957868
39	0xbe8207e4	-0.25396645
40	0x3e8b2a38	0.27180648
41	0x3e98d2cb	0.29848322
42	0xbe6798a3	-0.2261682
43	0xbd91bd83	-0.071162246
44	0x3e59fca1	0.21287777
45	0x3efd3072	0.49451023
46	0xbf0be47a	-0.546455
47	0xbd63e5e3	-0.05563916
48	0x3e3694ac	0.17830151
49	0xbec55e1f	-0.3854837
50	0x3ea68f91	0.32531407
51	0x3e9b3bde	0.30319113
52	0xbe520b6d	-0.20512171
53	0xbd3ba17e	-0.045808308
54	0x3e53a518	0.20668447
55	0x3e7e84e6	0.24855384
56	0x3e9fc027	0.31201288
57	0xbeacd62e	-0.33757156
58	0xbe97bda2	-0.29636866
59	0x3ebe1fe9	0.3713372
60	0x3cc79e00	0.024367332
61	0xbdd60bb8	-0.10451454
62	0xbe638158	-0.2221731
63	0x3d910245	0.07080511
64	0xbee64d84	-0.44981015
65	0x3eb9409c	0.36182106
66	0x3f04c119	0.51857144
67	0x3c95a0ea	0.018265206
68	0xbecaf433	-0.39639434
69	0x3e4509fe	0.19242093
70	0x3ef8d595	0.4860045
71	0x3c91ad0e	0.017782714
72	0xbeb0ebf9	-0.34555033
73	0xbdd99d26	-0.10625677
74	0x3e4cccec	0.20000046
75	0xbd3e7d5e	-0.04650628
76	0x3eba55cc	0.36393583
77	0x3e0c019a	0.13672486
78	0x3dc390a5	0.09549073
79	0xbec8f00c	-0.3924564
80	0x3d4fc068	0.050720602
81	0xbe57b200	-0.21063995
82	0x3d8c9062	0.06863476
83	0x3e599674	0.212488
84	0x3ec44e90	0.38341188
85	0xbe57cdd7	-0.21074615
86	0xbd4a3f21	-0.04937661
87	0x3d2718cd	0.040795136
88	0x3e7d97c9	0.24764933
89	0xbe7cafa6	-0.2467638
90	0x3e345247	0.17609511
91	0x3ca55e41	0.020186545
92	0xbe5d7544	-0.21626765
93	0x3e019fdd	0.12658639
94	0xbe847654	-0.25871527
95	0xbea26095	-0.3171431
96	0x3dd41900	0.10356331
97	0x3ec78381	0.38967517
98	0xbebe00af	-0.37109897
99	0x3e8a0c57	0.2696254
100	0xbf04c8df	-0.51869005
101	0x3ea6ddff	0.32591245
102	0xbb03dfe6	-0.0020122468
103	0xbf0bea5e	-0.5465449
104	0xbe3900d6	-0.18066725
105	0xbda333ef	-0.0796889
106	0x3e54247d	0.20717044
107	0xbe85651c	-0.26053703
108	0xbe4918ea	-0.1963841
109	0x3d9222ca	0.07135542
110	0x3eb16387	0.34646246
111	0x3de7c37b	0.11316582
112	0xbe8051d1	-0.2506242
113	0x3db52752	0.088453904
114	0x3e843173	0.25818977
115	0xbdd9afbb	-0.10629221
116	0xbe14905b	-0.14508192
117	0x3ecab7b8	0.3959329
118	0x3eb7ec91	0.35922673
119	0x3e56154b	0.2090656
120	0xbea1a742	-0.3157292
121	0x3e25e8dd	0.16202112
122	0x3de5ff89	0.1123038
123	0xbd7943c4	-0.060855642
124	0xbddddc84	-0.10833076
125	0x3e9bbd8d	0.30418053
126	0xbd7afed8	-0.061278194
127	0x3e72b63f	0.23702334

decoder.0.bias f4 [16]
0	0x3daa5d11	0.08318532
1	0xbb9159e9	-0.004435767
2	0x3df86330	0.121282935
3	0x3d597a7c	0.053095326
4	0x3dd16136	0.1022362
5	0x3ca4104d	0.020027304
6	0x3d21216a	0.039338507
7	0x3d806a81	0.06270314
8	0x3d936e6e	0.07198797
9	0x3d70dd4a	0.058804788
10	0x3cf4ff76	0.02990697
11	0x3d6e93ee	0.058246545
12	0x3d3d7f23	0.046263825
13	0x3e4c7707	0.1996728
14	0x3d101843	0.035179388
15	0x3dd9f789	0.10642917

decoder.3.weight f4 [32, 16]
0	0x3e52be86	0.20580491
1	0x3ea95738	0.33074355
2	0xbe246ca2	-0.16057065
3	0xbed2955a	-0.4112957
4	0x3d1e7008	0.03868106
5	0xbe733e6e	-0.23754284
6	0x3e67b50b	0.22627656
7	0x3e82a77e	0.2551841
8	0x3be6ec7f	0.0070472355
9	0x3de5f58d	0.11228476
10	0xbc5a3996	-0.013319394
11	0x3b8eb47d	0.004355012
12	0xbe9de36b	-0.3083757
13	0x3da2b6e9	0.079450436
14	0x3d0e0fb3	0.03468294
15	0xbe8231d0	-0.2542863
16	0xbe52031d	-0.20509
17	0x3d7f0933	0.062264632
18	0x3e868a23	0.26277265
19	0xbdd8a90f	-0.1057912
20	0xbdf61805	-0.120163
21	0x3de9ead5	0.11421744
22	0x3e10e12d	0.14148398
23	0x3e793a93	0.2433875
24	0x3ebf8d1a	0.3741234
25	0x3e9bbd4f	0.30417868
26	0xbdf567e0	-0.11982703
27	0x3e1ecf52	0.15508774
28	0xbe60bd5a	-0.21947232
29	0x3e70cea7	0.23516332
30	0xbe405d7d	-0.18785663
31	0x3e0ac42a	0.13551393
32	0x3e274d5b	0.16338103
33	0xbe177d89	-0.14793982
34	0xbde44a30	-0.11146963
35	0xba59b0c4	-0.0008304233
36	0xbe0dd73e	-0.1385164
37	0xbe74ffc4	-0.23925692
38	0x3d03a827	0.032142784
39	0xbd03fa1c	-0.032220945
40	0xbc0e55a0	-0.008687407
41	0xbda271e7	-0.079318814
42	0x3d88b35b	0.06674834
43	0xb3165cb4	-3.500891e-08
44	0xbe5f9a71	-0.21836258
45	0xbc4a91fb	-0.012363906
46	0xbe1619bf	-0.14658259
47	0xbdfcde22	-0.12347056
48	0x3de7924e	0.11307202
49	0x3dc4eaf6	0.09615128
50	0xbe0ac2b9	-0.13550843
51	0xbdc768b9	-0.09736771
52	0x3bea77b3	0.0071553825
53	0xbe3de3c1	-0.18543912
54	0x3e9de42c	0.30838144
55	0xbc8a6d8a	-0.016897935
56	0x3eda2364	0.42605126
57	0x3e67fad1	0.22654273
58	0x3e46cf94	0.19415122
59	0x3ddcd931	0.107836135
60	0x3dc4177e	0.09574793
61	0x3dde9275	0.10867778
62	0x3ec68a52	0.38777405
63	0x3e7212c4	0.23639971
64	0xbeac31d6	-0.33631772
65	0x3e70e2d8	0.23524034
66	0xbd6a8a8a	-0.057261027
67	0x3dad5425	0.08463315
68	0xbe6ddccd	-0.2322876
69	0xbec2b412	-0.38028008
70	0x3e77fe8c	0.24218196
71	0xbdab871a	-0.08375378
72	0xbc96182a	-0.01832207
73	0x3e768566	0.24074325
74	0x3e464813	0.19363432
75	0x3df2c4df	0.118539564
76	0xbe98bd7f	-0.29832074
77	0xbd6ac5fb	-0.057317715
78	0x3e9cb602	0.3060761
79	0xbdd01c0c	-0.101615995
80	0x3e3375c4	0.17525393
81	0x3e32c993	0.17459707
82	0x3d2d93e0	0.042377353
83	0xbe1572b3	-0.14594536
84	0x3e531ace	0.20615694
85	0xbe3d67ff	-0.18496703
86	0x3e663af1	0.22483422
87	0x3dd05a39	0.101734586
88	0x3cc29f48	0.023757592
89	0x3dedcf82	0.116118446
90	0x3e5ba981	0.2145138
91	0x3e5c1e34	0.21495897
92	0xbd905cfd	-0.07048986
93	0xbd6e96a6	-0.05824914
94	0x3dfb4d7e	0.1227064
95	0xbd6379e8	-0.05553618
96	0xbca98a0e	-0.020695712
97	0x3e93eaac	0.28889978
98	0xbee8f20b	-0.45497164
99	0xbe6cf179	-0.2313899
100	0xbdc71a43	-0.09721806
101	0x3ddbd56f	0.107340686
102	0x3d2450c0	0.04011607
103	0x3e7e5e2a	0.24840608
104	0x3e6fdef5	0.23424895
105	0xbe3f941e	-0.18708846
106	0xbdf53c9c	-0.11974451
107	0xbdefa07c	-0.11700532
108	0x3d2c8702	0.04212094
109	0x3dca977a	0.09892173
110	0x3e2e1d66	0.17003402
111	0x3daa178c	0.083052725
112	0x3e03a842	0.12857154
113	0x3ea2d098	0.3179977
114	0xbebba360	-0.36648083
115	0xbe0c405a	-0.13696423
116	0x3d1a6927	0.037697937
117	0x3e8926ff	0.26787564
118	0xbdca1840	-0.098679066
119	0x3e3a3823	0.18185477
120	0xbea86a39	-0.3289354
121	0x3e791be4	0.24327046
122	0xbd9ff6cb	-0.07810744
123	0xbe55fe2e	-0.20897743
124	0xbd911e84	-0.070858985
125	0xbdba4998	-0.09096068
126	0xbea81fce	-0.32836765
127	0xbe5fd6c6	-0.21859273
128	0xbde7bca1	-0.11315275
129	0x3cd93717	0.026515527
130	0x3d781918	0.060570806
131	0xbc382fa0	-0.011241823
132	0x3e9a1768	0.30095983
133	0x3ec75bb9	0.38937166
134	0xbe2c891d	-0.1684918
135	0xbc0bd453	-0.008534509
136	0xbd4bd20a	-0.049760856
137	0x3e215721	0.15755893
138	0xbc65c8c1	-0.014024914
139	0xbdf1c90b	-0.11805924
140	0x3e630677	0.22170435
141	0xbe3c7a39	-0.18405999
142	0x3caeeb33	0.021352386
143	0x3e263eea	0.16234937
144	0x3e991796	0.29900807
145	0x3e774ab4	0.2414959
146	0x3e415a5c	0.18882126
147	0x3dc153d0	0.09439814
148	0xbdf670d9	-0.12033243
149	0x3e7e1cd3	0.24815683
150	0x3dc24f80	0.0948782
151	0x3e4497d4	0.19198543
152	0xbe4a7c9e	-0.197741
153	0x3e14e0a6	0.14538822
154	0xbe6c9737	-0.23104559
155	0x3e5fcfc8	0.21856606
156	0xbd08a087	-0.033356216
157	0xbb06dd0f	-0.0020578539
158	0xbe76dd8f	-0.24107955
159	0xbe2479c4	-0.16062075
160	0x3d91abdd	0.071128584
161	0xbe825a4d	-0.2545952
162	0xbed4418a	-0.41456252
163	0xbe2fa07e	-0.17151067
164	0x3dfe4fbd	0.124175526
165	0x3e1cd6ce	0.15316316
166	0x3d94ff43	0.0727525
167	0x3eb26e27	0.34849665
168	0xbd9d49cf	-0.076800935
169	0xbdbd6113	-0.09247031
170	0x3e8f4545	0.27982536
171	0xbe92ef3c	-0.28698146
172	0xbec8e1fa	-0.39234906
173	0xbd8b25b4	-0.06794301
174	0xbe6e6b18	-0.2328304
175	0xbeb75a50	-0.3581109
176	0xbe677370	-0.2260263
177	0xbe187e9a	-0.14892045
178	0x3e58597c	0.21127886
179	0x3e6db78b	0.23214547
180	0xbdf922a9	-0.12164814
181	0xbcc70266	-0.024293136
182	0x3b8739ae	0.004126749
183	0xbea80ec8	-0.32823777
184	0x3df3bbe9	0.119010754
185	0x3d2455c4	0.040120855
186	0x3e8a3cc5	0.26999488
187	0xbe1e882b	-0.15481631
188	0xbe15ae61	-0.14617302
189	0x3de2f3b7	0.11081641
190	0xbea3fc39	-0.32028368
191	0x3d6d656e	0.05795806
192	0xbe6fc2c5	-0.23414142
193	0xbdf35c4b	-0.11882838
194	0xbd949ef9	-0.07256884
195	0x3d4b6436	0.049656115
196	0xbe3c54ed	-0.18391772
197	0xbdf4c49c	-0.11951563
198	0x3e516475	0.20448478
199	0xbea147b6	-0.31500024
200	0x3b4f9c38	0.0031678807
201	0x3e2d7ec8	0.16942894
202	0xbea1d4e5	-0.31607738
203	0x3e39ff98	0.18163908
204	0x3de111a1	0.109896906
205	0xbdd6c385	-0.10486511
206	0xbe209fb1	-0.15685917
207	0xbe130570	-0.14357543
208	0xbdf5c208	-0.11999899
209	0xbcf1e50b	-0.029528162
210	0x3d09c84d	0.033638287
211	0xbea998fd	-0.33124533
212	0x3e26bc31	0.16282727
213	0x3be089b2	0.006852352
214	0xbd8bbc63	-0.06823041
215	0x3e758b8e	0.23979017
216	0x3d6011bc	0.054704413
217	0x3e839b62	0.25704485
218	0x3eb26e8e	0.34849972
219	0xbe241ec5	-0.16027363
220	0xbdcff052	-0.10153259
221	0x3e482032	0.19543532
222	0x3de45a65	0.11150054
223	0x3dbad7b0	0.091231704
224	0xbc52dfe1	-0.01287076
225	0xbd6e51b9	-0.058183406
226	0xbe01557f	-0.1263027
227	0x3e2fcf44	0.1716891
228	0xbd36295f	-0.04447305
229	0x3e3eb038	0.1862191
230	0xbe5e467f	-0.2170658
231	0x3e9ebf81	0.3100548
232	0x3d686820	0.056739926
233	0xbe8b5b9e	-0.27218336
234	0xbe20f2ee	-0.1571767
235	0x3d221a60	0.039575934
236	0x3eafa97a	0.34308988
237	0xbcba7832	-0.022762392
238	0x3ea25d60	0.31711864
239	0x3ea7067c	0.32622135
240	0xbd209060	-0.039200187
241	0xbcc68a77	-0.024235947
242	0x3eb4d42a	0.35318118
243	0xbe0fd9cd	-0.14047928
244	0x3e0c1d0e	0.13682958
245	0xbe863981	-0.26215747
246	0x3dc7523b	0.09732481
247	0x3e8044a1	0.2505236
248	0xbde80c17	-0.11330431
249	0x3b23f8a1	0.002502002
250	0xbe7b85eb	-0.24562804
251	0xbe0c52a8	-0.13703406
252	0xbe88ac07	-0.26693746
253	0xbe23bc1c	-0.15989727
254	0x3ea1d553	0.31608066
255	0x3ca675ce	0.020319846

decoder.3.bias f4 [32]
0	0x3e243c51	0.16038634
1	0x3df8981e	0.12138389
2	0xbd766d01	-0.060162548
3	0x3e132cde	0.14372584
4	0x3e094a2a	0.13407198
5	0x3deae3ac	0.11469206
6	0x3c97195f	0.018444715
7	0x3d7dd772	0.061973043
8	0x3db1e3ec	0.08686051
9	0x3e388002	0.18017581
10	0x3def2366	0.116766736
11	0xbd0240da	-0.03180013
12	0xbd1e95d8	-0.03871712
13	0x3e2459af	0.16049837
14	0x3dcea5c3	0.1009021
15	0x3c00447c	0.007828828
16	0x3e2b7905	0.16745384
17	0xbd436668	-0.047705084
18	0xbd058dc8	-0.032605916
19	0x3dc78289	0.097416945
20	0xbd90bac9	-0.070668764
21	0x3e1e128f	0.15436767
22	0x3d9771ae	0.073947296
23	0x3e016a40	0.12638187
24	0x3dae9b4c	0.08525714
25	0x3d0d7621	0.034536485
26	0x3df01875	0.11723415
27	0x3e9285f7	0.28617832
28	0xbd1e7244	-0.03868319
29	0x3da026e3	0.07819917
30	0xbcf3cc0d	-0.029760385
31	0xba827311	-0.0009952505

decoder.6.weight f4 [52, 32]
0	0x3d125918	0.035729498
1	0x3c65ae51	0.014018611
2	0xba2feeec	-0.00067113223
3	0x3dc79c87	0.09746652
4	0x3de9b034	0.11410561
5	0xbcc7b713	-0.024379289
6	0x3dfd1b67	0.12358742
7	0xba96c6c5	-0.001150333
8	0xbd3a9db1	-0.045560542
9	0x3e247337	0.16059576
10	0x3e50a031	0.20373608
11	0x3dfad644	0.12247899
12	0xbc0bb7fc	-0.008527752
13	0x3ddc5a85	0.10759453
14	0x3bd0fdac	0.0063778963
15	0xbd1c3df5	-0.038145024
16	0x3d459718	0.048239797
17	0xbd41aab2	-0.04728193
18	0x3e751211	0.23932673
19	0xbcd5bbd8	-0.026090547
20	0x3caa2480	0.020769358
21	0x3e065925	0.13119943
22	0x3e8966d6	0.2683627
23	0xbe4815a9	-0.19539513
24	0x3e3b6a66	0.18302307
25	0x3e00f96f	0.12595151
26	0x3d8be07f	0.068299286
27	0x3e5c3d57	0.21507774
28	0x3ba0c0a5	0.0049057775
29	0x3c4827df	0.012216537
30	0xbe4a367d	-0.19747348
31	0xbd16d6e5	-0.036826033
32	0x3d6406c6	0.055670522
33	0x3d7b8aab	0.06141154
34	0xbd477b5b	-0.048701625
35	0x3d440fed	0.04786675
36	0x3e429ce8	0.19005167
37	0x3e477b28	0.19480574
38	0xbe254254	-0.16138583
39	0xbd77f2a3	-0.06053413
40	0x3ba88f93	0.0051440685
41	0x3db76fb6	0.08956854
42	0x3e802363	0.25026998
43	0xbe0a3dd0	-0.13500142
44	0xbd8de370	-0.06928146
45	0x3e3ccd69	0.18437733
46	0x3e41b2b7	0.1891583
47	0x3e61b7a3	0.22042708
48	0x3d6e93f6	0.058246575
49	0x3dfafc99	0.122552104
50	0x3d23f9ed	0.04003327
51	0x3df3ed87	0.11910539
52	0x3e3d665c	0.18496078
53	0x3e0fe6f3	0.14052944
54	0xbe104c2a	-0.14091554
55	0x3e2773cf	0.16352771
56	0xbd71bc29	-0.059017334
57	0xbdc744a9	-0.09729893
58	0x3d3ffc57	0.04687151
59	0x3d7698f4	0.06020446
60	0xbcbc8f86	-0.023017656
61	0x3db5d585	0.08878616
62	0x3e445985	0.19174774
63	0xbc23ac0c	-0.00998975
64	0x3c87056d	0.01648208
65	0x3d8b6377	0.06806081
66	0x3b18109c	0.002320326
67	0xbb245751	-0.0025076459
68	0xbce5f454	-0.028070606
69	0xb9802a83	-0.00024445736
70	0xbd9337a0	-0.07188344
71	0x3d9035dd	0.070415236
72	0x3d0d874b	0.034552854
73	0xbd19e83e	-0.037575
74	0xbc245609	-0.010030278
75	0xbd613972	-0.054986425
76	0x3c0c777b	0.008573408
77	0x3c286fd8	0.010280572
78	0x3b07c736	0.0020718104
79	0x3d9a956b	0.075480305
80	0xbb478e4a	-0.00304498
81	0xbc9c91d0	-0.019112498
82	0xbc9925e0	-0.018694818
83	0x3c7970c9	0.015224644
84	0xbdb24c1e	-0.087059245
85	0xbd8bfe26	-0.06835584
86	0xbdac08fb	-0.084001504
87	0x3c87a40b	0.016557714
88	0xbc3c10fd	-0.01147866
89	0xbcce6a6e	-0.025197234
90	0x3d15a0ca	0.036530294
91	0x3b9b97fc	0.0047483426
92	0x3d46dd46	0.048550867
93	0x3cfbaafe	0.030721184
94	0x3cb4ef1a	0.022086669
95	0xbcf8e39b	-0.030381968
96	0xbce24d23	-0.027624672
97	0xbc445559	-0.011983239
98	0x3b810dc2	0.0039384076
99	0xbb864b97	-0.0040983665
100	0xbc5a5497	-0.013325832
101	0xbc87bb7f	-0.016568897
102	0x3db16ed7	0.08663719
103	0x3d65ad32	0.056073375
104	0xbd49ddad	-0.049283672
105	0x3bb97213	0.0056593507
106	0x3c02317e	0.00794637
107	0x3d677809	0.05651096
108	0x3cb50c72	0.022100661
109	0x3c89181b	0.016735127
110	0xbc600adc	-0.013674464
111	0xbcba3c5f	-0.022733865
112	0xbc30c218	-0.010788463
113	0xbba00013	-0.0048828213
114	0x3a797e97	0.00095174595
115	0xbb0f6ec2	-0.0021886085
116	0xbc605490	-0.013692036
117	0xbb37170d	-0.0027937323
118	0x3c8aee80	0.016959429
119	0xbc845d75	-0.016157845
120	0x3c55717b	0.013027544
121	0xbc145111	-0.009052531
122	0xbc00959c	-0.00784817
123	0xbad1d74e	-0.00160096
124	0x3d002257	0.03128275
125	0xbcdd037d	-0.026979202
126	0xbdedc95b	-0.11610671
127	0x3cdb3c86	0.026762258
128	0x3ce5ca7a	0.02805065
129	0x3bd677e7	0.006545055
130	0x3a9daa3f	0.0012028887
131	0xba8931fa	-0.0010467165
132	0xbc96afa2	-0.018394295
133	0x3cb0895d	0.021549875
134	0xbcac8869	-0.02106114
135	0x3cc895c8	0.024485484
136	0x3d876ab1	0.06612147
137	0xbbef4bd2	-0.0073027397
138	0xbc008e53	-0.007846433
139	0xbd0bd2d7	-0.03413662
140	0x3d624d51	0.055249516
141	0xbb8e62ef	-0.00434529
142	0xbd2ad4ff	-0.041707035
143	0xbc6c7bd6	-0.014433822
144	0xbc0b95da	-0.008519614
145	0x3b4002c4	0.0029298523
146	0xbd0f08e4	-0.034920588
147	0x3d3ce177	0.046113458
148	0xbd354ba7	-0.0442616
149	0xbd579840	-0.05263543
150	0x3c91c01c	0.0177918
151	0xbd0fbca6	-0.03509202
152	0xbbd26b4e	-0.006421483
153	0xbcf33c8a	-0.029691953
154	0x3be85fbd	0.007091491
155	0x3bd838f5	0.0065985867
156	0xbd268a9d	-0.040659536
157	0x3cacfb6e	0.021115985
158	0x3de18dc3	0.11013367
159	0xbd0f43b7	-0.034976687
160	0x3d2ed6a1	0.042685155
161	0xbcfe022a	-0.031006891
162	0xba8fc40b	-0.001096846
163	0xbc8d09ed	-0.017216647
164	0xbd9f11d1	-0.0776707
165	0x3d189f69	0.0372614
166	0xbe1b9ccc	-0.15196532
167	0xbe17db5e	-0.14829776
168	0xbc42f78a	-0.011899838
169	0xbd6440b6	-0.055725776
170	0xbe0859fb	-0.13315575
171	0xbdd0c508	-0.10193831
172	0xbd66cec2	-0.056349523
173	0x3cdab79c	0.02669888
174	0x3d6efb43	0.05834509
175	0xbcc960a8	-0.024582222
176	0xbd2899b3	-0.041162204
177	0x3b2b1d93	0.0026110157
178	0xbdb903b8	-0.090339124
179	0x3de77481	0.11301518
180	0x3dab6662	0.08369137
181	0x3e2ee1b6	0.1707829
182	0xbc795220	-0.015217334
183	0xbdf397be	-0.11894177
184	0xbcfa1dce	-0.03053179
185	0xbc235f8c	-0.009971511
186	0xbcc3ee89	-0.023917453
187	0xba4fffa5	-0.00079345173
188	0x3dae79d4	0.085193306
189	0x3d08ccc0	0.03339839
190	0xbdb58ddf	-0.088649504
191	0x3c84949d	0.016184146
192	0x3bc2c01c	0.0059433114
193	0xbd307eb7	-0.043089595
194	0xbc2dd926	-0.010610854
195	0x3c4004eb	0.011719923
196	0x3d7556f3	0.059897374
197	0xbc00ccbc	-0.0078613125
198	0x3d3b4399	0.045718763
199	0xbd821e5a	-0.06353445
200	0xbda74dca	-0.08169134
201	0xbca39e7c	-0.019973032
202	0xbda105f9	-0.07862467
203	0xbc00b34b	-0.007855247
204	0x3e0b1a41	0.13584234
205	0x3d4b141b	0.04957972
206	0xbdac1310	-0.084020734
207	0xbc5e9f42	-0.013587775
208	0xbd07bd4d	-0.033139516
209	0xbbdb95c5	-0.0067012035
210	0x3cc4576a	0.023967464
211	0xbc8cc695	-0.017184535
212	0x3cb4afb6	0.022056442
213	0x3d12d8e6	0.03585138
214	0xbe09846e	-0.13429424
215	0x3d89453f	0.06702661
216	0x3d97610b	0.07391556
217	0x3b81d692	0.0039623464
218	0xbce67694	-0.028132714
219	0x3cc7bfed	0.02438351
220	0x3df3a999	0.118975826
221	0x3d1bfbbd	0.038081873
222	0x3e586993	0.21134023
223	0xbc8a3695	-0.01687173
224	0x3b970583	0.0046088113
225	0x3b2ba13e	0.0026188637
226	0xbd48ac01	-0.04899216
227	0x3d11403a	0.03546164
228	0xbcf50d3f	-0.029913543
229	0x3d18fba2	0.03734935
230	0xbd66a388	-0.0563083
231	0xbc857506	-0.016291153
232	0xbd0c425e	-0.03424298
233	0x3d00a981	0.03141165
234	0xbc265fe0	-0.010154694
235	0x3d0d2a53	0.03446419
236	0x3d464e4f	0.048414525
237	0x3c6c8045	0.014434879
238	0x3da46ce6	0.08028583
239	0x3d259a99	0.04043064
240	0x3b946e22	0.0045297304
241	0xba281d57	-0.00064130634
242	0xbc14bc14	-0.009078044
243	0xbcd517ff	-0.026012419
244	0xbcb50849	-0.022098677
245	0xbc1742e1	-0.009232254
246	0xbbded150	-0.0067998543
247	0x3cd5c6fe	0.026095863
248	0xbc2451ab	-0.010029237
249	0xbba303a4	-0.004974799
250	0xbc008a8c	-0.007845532
251	0x3b5e6f91	0.003394101
252	0x3cfea1cf	0.031083016
253	0x3cf37d4c	0.029722832
254	0x3d0d3fad	0.034484554
255	0xbbbe1c32	-0.005801701

decoder.6.bias f4 [52]
0	0x3daa0547	0.08301788
1	0x3d94c88f	0.07264816
2	0x39cfaf14	0.0003961256
3	0x3c760862	0.015016647
4	0xbbbfd693	-0.0058544367
5	0x3d99b520	0.0750525
6	0x3ca2fdf7	0.01989649
7	0xbcd7acfa	-0.026327599
8	0x3b5fd6fb	0.0034155238
9	0xbcea2633	-0.028582668
10	0x3c89b5da	0.016810346
11	0x3d87b18f	0.066256635
12	0xbb8af363	-0.0042404397
13	0xbbc671ca	-0.006056045
14	0x3d89dddc	0.067317694
15	0x3dd1c481	0.10242558
16	0x3d95a347	0.07306533
17	0x3c176abc	0.009241756
18	0x3c1aeced	0.009455902
19	0x3d8adbf3	0.06780233
20	0x3d59cd38	0.053174227
21	0xbc225b41	-0.009909452
22	0x3d958b2c	0.073019356
23	0x3d20aa86	0.039225124
24	0x3de1e416	0.11029832
25	0x3cd9f0da	0.026604105
26	0xbc9f497c	-0.01944422
27	0xbc885ed5	-0.016646782
28	0xbd11a786	-0.035560153
29	0x3d9d4b72	0.07680406
30	0x3c8a581e	0.01688772
31	0xbcb88f1c	-0.022529177
32	0xbc21342e	-0.009839101
33	0xbc41ad42	-0.011821093
34	0xbd3cf295	-0.04612978
35	0x3dc3b04e	0.09555112
36	0x3e048a59	0.129434
37	0x3dc0451d	0.09388182
38	0x3dbc941f	0.09207939
39	0x3dee549f	0.11637234
40	0x3daddd8e	0.08489524
41	0x3e126cdc	0.14299339
42	0x3b8314a0	0.0040002614
43	0x3a9aaa89	0.0011800091
44	0x3e0a3f2d	0.13500662
45	0xbc14fcc8	-0.009093471
46	0x3d53b142	0.051682718
47	0x3c3aa780	0.011392474
48	0x3bed772e	0.0072468733
49	0x3df4ed4b	0.119593225
50	0xbcdb4a87	-0.026768936
51	0x3d06cb2d	0.032908607
