Project_2/training_results_1/models/griffin_model_20250915_204943.pth (torch, 73336 bytes, 10 tensors)

gate.gate_network.0.weight f4 [10, 40]
00000000: 3d87 2e3e cde3 30bd c908 e7bc 0712 41bd
00000010: 0a92 b03b 6ea4 b03b 043d ccbc 248f 2fbd
00000020: d6e6 c63b 7d1a 0f3d 0a03 a1bd d265 a03c
00000030: ce14 82bb 2da4 47bc a55a dbbc fade 2ebd
00000040: c2e8 803c 656c 55bd bc7e e1bb 0770 ee3b
00000050: d706 63bd 5775 913d fc25 95bc d601 fc3c
00000060: f41a 25bb 1a29 25bb dc78 34bc ef20 9a3b
00000070: 3853 2cbb cde5 efbc e072 e7bc ba23 da3b
00000080: 25b3 13bb 6f57 49bb db61 27bd 2d25 e9bc
00000090: 3624 8cbc 0099 b53c 08ca 82b9 da82 1f3f
000000a0: 48f0 8ab8 db49 d137 e5a0 4fb6 484c 08b6
000000b0: 1ef7 8131 1ef7 8131 0e36 9631 c78a 0636
000000c0: 00da e7b2 0459 8335 0981 96b6 c416 b9ad
000000d0: 1423 2ab2 f0c2 92b7 b25a e3b1 001e 772c
000000e0: b6df 14b6 c43a c237 8cda 3934 8414 2cb8
000000f0: 1738 85b5 1a79 7b31 9d27 81b7 98c9 a130
00000100: 29b0 06b8 29b0 06b8 0af9 54b1 d62f c234
00000110: b01f a3b7 fd80 09b5 72f0 1f31 7420 48b8
00000120: d449 5f35 c0b0 4c2b a2cb 5735 2e78 d832
00000130: 6eb4 d4b0 b0d9 1db5 f9c1 f8b1 35cc 13b9
00000140: 5885 42b7 2dd1 0335 acee fab4 7419 d433
00000150: 2bbc 38b7 2bbc 38b7 0090 cbb4 5490 0536
00000160: 4eac 82b8 3e9e 9835 ff2b e1ac 90f5 bdb2
00000170: a038 73b2 a038 8aab 40e4 4735 e2b7 392d
00000180: 7ab8 f4b7 737e 0eae baf8 b1b6 0077 6433
00000190: f0cb 0e34 2c22 a633 1047 11b7 1eea 93b4
000001a0: 4925 8031 4925 8031 5695 9538 4be5 61b7
000001b0: 9464 2e36 1cd8 f5b6 8881 0235 c02c 692e
000001c0: 978f 3238 60a6 4634 e0db ceab 3029 d5b5
000001d0: dedc ca30 6ac1 f1b3 86d8 5bae 0085 1834
000001e0: 802d 24b8 836e 5db5 98c9 e6b7 7c6f 00b4
000001f0: f0a7 0db6 f0a7 0db6 b8b1 d3b5 58cb 5137
00000200: b88d a633 bc53 cab3 46fb 87b2 40c7 e5b1
00000210: 4ecb d836 a281 dbac 9eac bbb3 fa35 d5b7
00000220: d457 93a5 78ef b332 c29b 3cb3 5a44 4cb4
00000230: 768c 8436 2a10 dab7 e7c2 08b2 ccb8 0cb4
00000240: 8080 7c2e 8080 7c2e d002 6034 8010 9db6
00000250: 043e 7db2 ce9d e930 d336 29b7 822c 0bb8
00000260: 68c6 c737 eb49 e5b5 c094 8133 1816 7435
00000270: 6e74 0ab8 d0f2 a2b2 bcd5 acb1 04f5 2e34
00000280: c0bc 4135 d821 4f31 c283 0e36 228c 3435
00000290: 0500 0080 0600 0080 3a44 cab5 9e26 07b2
000002a0: f2c7 99b6 ff2c 0335 0c4b 5db4 e04a 3335
000002b0: b031 9531 78e7 46b0 b557 062e c152 b738
000002c0: bc2d 39b3 0488 1db0 bce1 1a31 0058 43b2
000002d0: 6b0b c2b4 0100 0080 d0fa bb34 2059 bf32
000002e0: 30a9 1b34 30a9 1b34 5758 89b5 7728 8eab
000002f0: 71d3 2436 3046 8835 c49f dcb5 2c7f 0e34
00000300: 27e7 8432 9691 7db5 046f c235 a65d 6435
00000310: f0fb 98ae 246a 4fab 6803 71b6 0300 0000
00000320: a489 8c36 4b88 c3b6 2d41 8b2e 2c62 20b3
00000330: e537 38af bf42 bdad 760f 2433 0000 0000
00000340: e136 23b6 f677 49b5 0a44 e6b3 1969 a2b7
00000350: 9138 a7b6 40cf 5eac 3e9b 83b3 0a17 ba2f
00000360: 5909 dab5 39ae 7735 f232 ac2b c0da 8933
00000370: c07d d7b2 e4aa 4ab4 1da6 5832 c0d9 4433
00000380: ecde f130 07de b82c f3a7 4bac 4078 17b4
00000390: f17f 01af 8023 e72f 8c9b 52ad fb7e 7bb3
000003a0: 4946 c233 a847 bbb6 e855 81b6 1218 a838
000003b0: 5c47 82b3 df75 7daf 17f7 cab3 cacb 372b
000003c0: ea6a 3cb8 1e54 6b30 b323 e534 0dfc 0332
000003d0: 76ce f935 76ce f935 d694 0832 0cb2 7b38
000003e0: 4d81 85b1 82b4 45b8 295a 4838 589d 7738
000003f0: 5212 7f34 b959 34b6 e11f 7d31 9c0f cd36
0.17043777 -0.043185998 -0.028202431 -0.047136333 0.005388503 0.0053906953 -0.024931438 -0.04286112
0.0060699983 0.03493737 -0.07861908 0.019579802 -0.0039697653 -0.012185139 -0.026776621 -0.042693116
0.015735988 -0.052105326 -0.006881563 0.0072765383 -0.055426445 0.07102459 -0.018206589 0.030762594
-0.0025193067 -0.00252015 -0.011015143 0.004703633 -0.002629472 -0.029284382 -0.028253019 0.006657091
-0.0022537198 -0.003072228 -0.040864807 -0.02846011 -0.01710711 0.022167683 -0.00024946057 0.6230904
-6.625109e-05 2.4949133e-05 -3.0939057e-06 -2.030998e-06 3.782488e-09 3.782488e-09 4.37172e-09 2.0048335e-06
-2.6991074e-08 9.786168e-07 -4.48537e-06 -2.1042175e-11 -9.903278e-09 -1.7495331e-05 -6.6168804e-09 3.5117464e-12
-2.2183935e-06 2.3153967e-05 1.7308975e-07 -4.1027102e-05 -9.925596e-07 3.6594145e-09 -1.5396445e-05 1.1771588e-09
-3.211215e-05 -3.211215e-05 -3.0991623e-09 3.617012e-07 -1.944587e-05 -5.122418e-07 2.3274223e-09 -4.771394e-05
8.318141e-07 7.272065e-13 8.0390066e-07 2.5200361e-08 -1.5476311e-09 -5.8803835e-07 -7.239802e-09 -0.00014095085
-1.1594348e-05 4.9105694e-07 -4.6739785e-07 9.876649e-08 -1.1011066e-05 -1.1011066e-05 -3.791647e-07 1.9902554e-06
-6.230977e-05 1.1370937e-06 -6.399769e-12 -2.2114165e-08 -1.4157337e-08 -9.821206e-13 7.4465424e-07 1.0556863e-11
-2.917297e-05 -3.239937e-11 -5.3039666e-06 5.3193617e-08 1.3298973e-07 7.736193e-08 -8.659219e-06 -2.7551226e-07
3.729529e-09 3.729529e-09 7.13269e-05 -1.34644315e-05 2.5986565e-06 -7.3267274e-06 4.8617267e-07 5.3017812e-11
4.2572236e-05 1.8500714e-07 -1.4698208e-12 -1.5881724e-06 1.4760209e-09 -1.1257619e-07 -4.9987146e-11 1.4204488e-07
-3.9143022e-05 -8.248973e-07 -2.7512011e-05 -1.1961487e-07 -2.110839e-06 -2.110839e-06 -1.5772448e-06 1.2504715e-05
7.755756e-08 -9.421589e-08 -1.5830334e-08 -6.6874293e-09 6.4609694e-06 -6.2387465e-12 -8.739265e-08 -2.5416713e-05
-2.555995e-16 2.094724e-08 -4.3913822e-08 -1.9023847e-07 3.9502584e-06 -2.5995152e-05 -7.9605575e-09 -1.3105745e-07
5.7412297e-11 5.7412297e-11 2.0862649e-07 -4.6808855e-06 -1.4740639e-08 1.6997832e-09 -1.008595e-05 -3.3181634e-05
2.3815039e-05 -1.7083343e-06 6.034088e-08 9.0929234e-07 -3.3010198e-05 -1.89697e-08 -5.0301576e-09 1.6294149e-07
7.217277e-07 3.0141702e-09 2.1236342e-06 6.7259145e-07 -7e-45 -8e-45 -1.5070029e-06 -7.866815e-09
-4.583032e-06 4.886678e-07 -2.0609531e-07 6.6791654e-07 4.3421196e-09 -7.236092e-10 3.0545972e-11 8.741534e-05
-4.3115264e-08 -5.7309557e-10 2.2538265e-09 -1.1370503e-08 -3.6143624e-07 -1e-45 3.5013954e-07 2.2275856e-08
1.449705e-07 1.449705e-07 -1.0233006e-06 -1.0100938e-12 2.456098e-06 1.0153217e-06 -1.6437775e-06 1.3271045e-07
1.5471938e-08 -9.44617e-07 1.4486436e-06 8.5072895e-07 -6.956913e-11 -7.3688473e-13 -3.5913781e-06 4e-45
4.1883486e-06 -5.8273195e-06 6.332566e-11 -3.734219e-08 -1.675456e-10 -2.1516454e-11 3.8198287e-08 0.0
-2.4320836e-06 -7.50529e-07 -1.0722586e-07 -1.9360845e-05 -4.983573e-06 -3.1663144e-12 -6.128401e-08 3.3849573e-10
-1.6244986e-06 9.22682e-07 1.2235475e-12 6.41935e-08 -2.5086479e-08 -1.8874886e-07 1.26106245e-08 4.583285e-08
1.7598416e-09 5.2542445e-12 -2.8941266e-12 -1.4106718e-07 -1.1777936e-10 4.204388e-10 -1.1971656e-11 -5.855598e-08
9.046614e-08 -5.581376e-06 -3.8545004e-06 8.015348e-05 -6.066577e-08 -2.3052092e-10 -9.4513034e-08 6.5297474e-13
-4.4922264e-05 8.561204e-10 4.2680549e-07 7.682513e-09 1.8612034e-06 1.8612034e-06 7.950083e-09 6.0008882e-05
-3.8855092e-09 -4.713657e-05 4.7767684e-05 5.9035927e-05 2.375539e-07 -2.6874316e-06 3.6834467e-09 6.1112933e-06

gate.gate_network.0.bias f4 [10]
00000000: 8f50 d4be a370 38bd 9fde 8bbc 7337 53bd
00000010: e65a 10be 5191 3fbe e492 2dbd 5cf2 5fbd
00000020: 8c8b efbc b9ad 36bd
-0.4146771 -0.045029294 -0.017073927 -0.051566552 -0.14097175 -0.18707778 -0.042376414 -0.05467449
-0.029241346 -0.04459927

gate.gate_network.2.weight f4 [5, 10]
00000000: 5eac 42bd 6c54 d2a9 1cbe ac13 b8d8 2b91
00000010: c611 0000 505e bd91 729e 9112 3350 8c93
00000020: e45a 002a f408 0000 acae 33bc 9ef3 0000
00000030: 7d05 0080 0807 0180 b849 0680 8605 0080
00000040: c3c8 0380 e735 0380 a204 0000 9300 0080
00000050: f30d 1ebc a66d db90 aedb 6210 3a98 f491
00000060: 036f a290 6fa2 068c 9b30 e291 d4fd 7310
00000070: 90c7 7194 099f 940e 54f2 8b36 9529 6c34
00000080: 3cef 0eb8 004f 4f33 182f 4a30 7ff8 c8b5
00000090: d574 85b8 3ba3 9d2d 068b 0e37 3c97 37b7
000000a0: 60f8 6b3e 6742 f0ab bf36 edb2 fc04 0000
000000b0: e208 0000 4711 0000 4bfd 6db2 d820 0080
000000c0: 8b75 3c38 d0e5 33b4
-0.047527663 -9.340518e-14 4.3606367e-27 -1.3556303e-28 6.376e-42 -2.9877067e-28 9.189846e-28 -3.542005e-27
1.1400218e-13 3.212e-42 -0.010966938 8.7393e-41 -1.969e-42 -9.4358e-41 -5.77458e-40 -1.981e-42
-3.47526e-40 -2.94843e-40 1.662e-42 -2.06e-43 -0.00964688 -8.654921e-29 4.4739876e-29 -3.859023e-28
-6.4068774e-29 -1.0371865e-31 -3.5686468e-28 4.8118842e-29 -1.2206747e-26 3.6637962e-30 4.1707335e-06 2.199434e-07
-3.4078243e-05 4.8267793e-08 7.3554096e-10 -1.4973483e-06 -6.363696e-05 1.7921322e-11 8.4962285e-06 -1.0942862e-05
0.23043966 -1.7071456e-12 -2.7615327e-08 1.788e-42 3.187e-42 6.198e-42 -1.3852808e-08 -1.1782e-41
4.4932163e-05 -1.675428e-07

gate.gate_network.2.bias f4 [5]
00000000: 73fa b5bf 4c08 80bf 2dca 88bf 2b4a 07c1
00000010: d698 65bd
-1.4217056 -1.0002532 -1.0686699 -8.455607 -0.05605396

backbone.layers.0.weight f4 [128, 40]
00000000: a4e6 b43d f578 5c3e d6cf a2be 514d 8b3b
00000010: b047 553c 6a49 553c 6370 ecbd a2b3 da3c
00000020: 468a a239 2e54 41bc a69b cdbd 99f0 213c
00000030: 8ddb 97bd 1b61 9a3d 2680 42bd 3b3a 9e3c
00000040: 821b 503d f149 3ebc 6cb0 bebc 9a05 87bb
00000050: ecd4 1f3d 9012 d83d 46d7 8f3b 2d22 dd3d
00000060: 1f56 bab8 1f56 bab8 47d4 513b 8d1e 87bb
00000070: 6f61 913b f811 563a c0f1 bb3b 2cba c3ba
00000080: 5a28 abbc 2757 893c 1b38 43bd 6c60 353d
00000090: 8b96 c9bc 904a 203c ed31 c13c 5cf8 0ebf
000000a0: f696 8e3c d0ba c53d 71df 003e 9370 0c3e
000000b0: 129b aa3b 129b aa3b 91ff 90bb 42bf 0b3d
000000c0: 78ff 803b 81b6 7b3d 52be 183d 1031 9fbc
000000d0: 4f57 21bd 93f8 c83d c0ce bd3d 0699 e03d
000000e0: 063f 4e3c 7d78 433d 27f1 c83b 5fa7 183c
000000f0: 178d 20bd 8cf1 003d a274 193d d2b9 ce3a
00000100: 9721 323b 9721 323b 2a44 e4b8 9a9a e1b9
00000110: 57a9 553a a4b8 2f39 a830 953a 39c6 8539
00000120: 8816 25bf 15cc 28bf 0727 e33c ee71 a13c
00000130: fb0b 173d 1845 6cbd 56ad 3bbf f595 72be
00000140: c998 6fbd 5873 93bd f9fc 84be 6efb 4dbd
00000150: 93b6 a73c 1421 a83c 137f a23d da40 babd
00000160: 4b28 383c d086 5d3e 59db 10bf f2bd 623d
00000170: 5b7f dfbe 09e1 f2bc 0309 4cbd 03a7 cdbd
00000180: 16be b0bd dedd ffbc 9b8c 403c 43cb 9d3b
00000190: 4b4b 903e 6e89 96be 0ec9 dfbc 918e aabc
000001a0: 13db da3a 13db da3a 84b4 80b9 7030 3b38
000001b0: f1d7 35ba 8c5b 91b9 9cb3 07ba 09ba 8fb9
000001c0: 58d8 483c ca00 813c a1e1 1a3d 9e93 093e
000001d0: 008d 99bb 34bb 67be a023 7d3c 8917 9fbd
000001e0: 1784 9cbd 702e a63d 906b 65be 3a2f 1c3d
000001f0: ace9 63ba dfb9 5cba 308c 0f3d 1662 4a3d
00000200: 3e6e e0bc 8e9d 42bd 0e3f 8cbc 32a9 5bbb
00000210: b896 71bd ec65 963d b157 803d 3f7c 303d
00000220: 850c 593b 9acc 533d f840 d5bc 1117 123c
00000230: 3e11 a63d 607b f63c 509e 863a 4d90 dd3c
00000240: 69ec ffba 69ec ffba c77d c53a 510e 223b
00000250: 323d 8a3b 0d56 b73a e6d7 a4b7 ca0d 2d3b
00000260: 67f8 83bd 1f37 1a3b df12 12bd bcde fa3c
00000270: 4d31 f43c 3bf3 403d 6481 623d f13c b63e
00000280: 659c 3b3e c650 aabc 43ec 45bd cf85 97bd
00000290: a8bb fbbc acbb fbbc 75ef 4e3e 2343 1b3f
000002a0: fedb 5f3e a69a 61bc 756a 0abd 2928 8b3b
000002b0: d800 40bd f1bd e7ba 5367 7ebd b8d5 babb
000002c0: 5b3c 403d eaef 20bc 197f 6cbc b280 38bb
000002d0: cd51 b8bc 3185 9ebc 3014 75bc fc5f 8e3e
000002e0: 3430 4c39 3430 4c39 34b3 6d3a a898 0a3c
000002f0: b93b 9b38 be09 a13b a267 1dbb f4b5 973b
00000300: 0c47 d83b ba4f 5cbc f44d 7e3c 2bff cf3c
00000310: b82b 363c 45eb 82bd d11e 6f3c 80ec d8bf
00000320: 1c23 b33c eefe 58bd ff6b 3abb b509 033d
00000330: 291e 8e3c 291e 8e3c 8cce a4bb 878a a7bc
00000340: d21c debb 3f03 383c 4f8c d73c b626 eb3c
00000350: 6731 263d 4d38 2d3d 4de0 bbbd bd55 a9bc
00000360: 506d 053d b85f fb3c 4c22 e5bb 635f b1bb
00000370: 56a1 bfbc 0026 043c f5c8 f63b 3690 043e
00000380: d2a5 1db8 d2a5 1db8 8d4e faba 8e1e 5aba
00000390: ed8c deba a41f dfba 705a e7ba 410f b3ba
000003a0: af48 143c 1be9 8cba a34e 26bd dded f4bc
000003b0: 7a26 e23c fe55 30bc dd0d 0dbc 8ee4 cbbf
000003c0: 0642 10be 5219 a93d aa68 4b3e f835 95bd
000003d0: bbef 19bd 0abd 19bd 375f a63c 00a2 873b
000003e0: e76a adbb e159 28bd c475 adbc b58d 12bd
000003f0: 7d28 23bd 98b3 143d 0557 1d3b d523 803c
0.08833054 0.21530516 -0.3179919 0.00425116 0.01301758 0.013017992 -0.115448736 0.026696984
0.0003100207 -0.011799855 -0.10039453 0.009884023 -0.07414923 0.07538053 -0.047485493 0.019314876
0.050807483 -0.011614309 -0.023277484 -0.004120541 0.039021417 0.105504155 0.0043896763 0.10797534
-8.8852124e-05 -8.8852124e-05 0.0032017396 -0.004123515 0.004436664 0.00081661297 0.005735606 -0.0014932803
-0.020893265 0.01676519 -0.04766093 0.04428141 -0.024607917 0.009783402 0.023583377 -0.55847716
0.017405968 0.09654772 0.12585236 0.13714819 0.005206474 0.005206474 -0.004424997 0.034117945
0.0039367042 0.061453346 0.03729088 -0.019432575 -0.039389905 0.09813037 0.0926795 0.10966687
0.012588268 0.04772233 0.006132263 0.009317248 -0.039197054 0.031480357 0.037464745 0.0015771932
0.0027180666 0.0027180666 -0.00010884584 -0.0004303053 0.0008150539 0.00016758085 0.0011382299 0.00025515424
-0.64487505 -0.65936404 0.02772857 0.019707646 0.03687666 -0.05768308 -0.73311365 -0.23690017
-0.058495317 -0.071997344 -0.25974253 -0.05028861 0.0204728 0.020523585 0.07934394 -0.09094401
0.011240075 0.21633458 -0.565847 0.055356927 -0.43651852 -0.02964832 -0.04981328 -0.100416206
-0.08630006 -0.031233724 0.011752273 0.0048154905 0.28182444 -0.29401726 -0.02731755 -0.020819934
0.0016697369 0.0016697369 -0.00024548557 4.4629385e-05 -0.000693678 -0.00027724763 -0.0005176605 -0.00027413692
0.012258612 0.015747447 0.037812833 0.13435218 -0.004685998 -0.22630006 0.015450388 -0.07768161
-0.07642382 0.08114326 -0.22404313 0.038130976 -0.00086941826 -0.0008420031 0.035045803 0.04940995
-0.027396318 -0.047513537 -0.01711991 -0.0033517596 -0.058981627 0.07343659 0.06266726 0.04308724
0.0033119034 0.051708795 -0.026031956 0.008916632 0.081087574 0.030088127 0.001027057 0.027046347
-0.0019525412 -0.0019525412 0.0015067392 0.0024727772 0.004218721 0.0013987437 -1.9650859e-05 0.0026405924
-0.06443863 0.002353139 -0.035662528 0.030623786 0.029808665 0.047106963 0.055299178 0.3559337
0.18321379 -0.020790469 -0.04832102 -0.07398569 -0.03072913 -0.030729137 0.20208533 0.6064932
0.21861264 -0.013769781 -0.03379293 0.004246731 -0.046875805 -0.0017680508 -0.062110256 -0.005701747
0.04693256 -0.009822825 -0.014434599 -0.002815288 -0.022499943 -0.01935062 -0.014958426 0.27807605
0.00019472913 0.00019472913 0.0009067536 0.008459248 7.4021e-05 0.0049144914 -0.0024018069 0.004629845
0.0066002663 -0.013446743 0.015521515 0.025390228 0.011118822 -0.0639253 0.01459475 -1.6947174
0.021867327 -0.052977495 -0.0028445718 0.03199168 0.017348366 0.017348366 -0.005029505 -0.020451797
-0.006778338 0.011231243 0.026312022 0.028704982 0.040574457 0.04229002 -0.09173641 -0.020670766
0.03257495 0.03068529 -0.006992614 -0.0054129823 -0.02339236 0.0080657005 0.00753128 0.12945637
-3.758615e-05 -3.758615e-05 -0.0019096896 -0.0008320593 -0.0016979255 -0.001702298 -0.0017650854 -0.0013661162
0.009050532 -0.0010750623 -0.040602338 -0.029898578 0.027606238 -0.01076269 -0.008609262 -1.5929124
-0.14087686 0.082567826 0.19864145 -0.07285684 -0.03758214 -0.037533797 0.020309074 0.004139185
-0.005292285 -0.04110134 -0.02117432 -0.035779674 -0.039833535 0.036304086 0.0024008167 0.015642086

backbone.layers.0.bias f4 [128]
00000000: 46c3 c83f d215 d63d a8fa 52be 758d fbbf
00000010: ed88 ec3d 1dc1 8d3e e6e7 eebf f3ec 763f
00000020: 7a58 9fbe da64 d7bf 62b3 08bd 6953 dbbe
00000030: 0720 23bf f24c eabe eaaf 93bd 678b 623e
00000040: 5a87 e5bd f264 6cbd 8ea6 2abf a557 943f
00000050: 2871 b6bf f6e7 823e 61b9 0d3e e7de 2dbe
00000060: 4872 ffbd 1380 25bd 45e6 823d c28d 2cbf
00000070: 0ebf d5be 435c b03e acc4 923e 3f1c a53d
00000080: 1444 afbf 391f aebe 5331 07c0 ddac f8be
00000090: 31df ba3f 96f6 d6bf 13aa c43d 63f3 893f
000000a0: 341d ebbf 6b8e b53f 5a95 ebbe 6fd2 9a3f
000000b0: e116 b03d 689c 973e f7cd 0f3d 9aa7 e73d
000000c0: 9273 00c0 e13d c3be 2688 bc3c f861 903f
000000d0: dad5 f0be 3d4f 35bf 06ae f6be f4ad f93d
000000e0: ebb7 a93f 802f 923e 56a4 d6bf 69bc c9bc
000000f0: ff67 e43b 4ff8 693f 9af8 61bd 212d 113f
00000100: d2b4 16be 196b 003e 9b29 9fbf e347 11c0
00000110: de37 8e3e d5ac a63f 8663 b13f 9df8 fabf
00000120: d672 983f a73d ecbf 097e bd3d a080 fa3c
00000130: d31c f9bf a1c1 d03d 0303 31bc 295a 603c
00000140: 94d4 e63d b94a ce3e 0aac 37bd 1122 0ac0
00000150: d94e cabf bc17 09c0 9e1e bf3e f777 953e
00000160: 29fb d7bf 4dcf 3abc d188 ac3f d3ca e5bf
00000170: cee1 6f3e 4cdc 013f f609 a43f 51a0 d6bf
00000180: d918 cf3d 1c09 df3d dbdb f2bf 330f a83b
00000190: be26 7ebe 993a 2dbf d940 503e c402 f13d
000001a0: 203f 9d3e 9c84 c13f 140b 59be ffae 80bf
000001b0: 1887 87bf 19cf 2abf e41a acbe b9e7 0dc0
000001c0: f994 eabf 4834 063d 69a1 01c0 efad b23f
000001d0: 9200 8fbf fac7 33bd e920 12c0 c76d 0ec0
000001e0: 0331 2fbe 11a2 0f3f 1483 0fc0 e617 973d
000001f0: c35b 2fbe 9894 94bb 1422 adbc 6f28 df3d
1.5684593 0.10453381 -0.2060343 -1.9652544 0.11549554 0.27686396 -1.866452 0.96455306
-0.3112219 -1.6827652 -0.033374198 -0.42837074 -0.63720745 -0.4576183 -0.07211287 0.2212349
-0.11207457 -0.057713456 -0.6666039 1.1589247 -1.4253283 0.25567597 0.13840248 -0.16979562
-0.12472969 -0.040405344 0.06391577 -0.67403805 -0.41747326 0.3444539 0.28665674 0.08062028
-1.3692651 -0.34008196 -2.1123855 -0.48569384 1.4599363 -1.6794002 0.096027516 1.0777401
-1.8368287 1.4184088 -0.46012384 1.2095469 0.08598114 0.29611516 0.035108533 0.11311264
-2.0070539 -0.38133147 0.02301414 1.1279898 -0.47038156 -0.70824033 -0.48179644 0.12191382
1.3259252 0.28551865 -1.6768901 -0.024625974 0.006970405 0.91394514 -0.055168726 0.56709486
-0.14717415 0.12540855 -1.2434572 -2.2700126 0.27776998 1.3021494 1.3858497 -1.9607121
1.1910045 -1.8456315 0.09252555 0.030578911 -1.9461921 0.10193182 -0.010803941 0.013693371
0.11271015 0.40291384 -0.044841804 -2.1583292 -1.5805312 -2.1420736 0.37328047 0.29193088
-1.6873523 -0.011401963 1.3479253 -1.7952522 0.23425981 0.5072677 1.281554 -1.6767675
0.10112161 0.10890409 -1.8973345 0.005128765 -0.24819466 -0.6766754 0.20337237 0.117681056
0.30712223 1.5118594 -0.21195632 -1.0053405 -1.0588102 -0.66722256 -0.33614266 -2.2172682
-1.8326713 0.032764703 -2.0254767 1.395933 -1.1172049 -0.043891884 -2.2832587 -2.2254503
-0.1710854 0.5610667 -2.2423754 0.07377605 -0.17124848 -0.0045343153 -0.021134414 0.10896384

backbone.layers.1.weight f4 [64, 128]
00000000: 7be5 9cbd 4973 3cbd f61e 1abd 7d53 4d3b
00000010: fd5b 89bd c005 553d b427 66be d235 cc3d
00000020: 9099 543d 4f96 ae3d 5cd5 b03d 0ec2 9c3e
00000030: 1a16 213d cc50 a93d fb7d 60bd 8e52 b53c
00000040: 3714 84bd 299a 263d 3959 49bd 1ab9 b23d
00000050: 46b1 e2bb 5bf0 083d d6d1 ebbd c577 a43e
00000060: 72cd 153d 6608 1dbd 804b acbc 739d 313e
00000070: 4187 aebc 6adb 7e3e 2184 8e3d c522 d4bd
00000080: 248b 50bc 6d28 023d ddd9 0abe fb40 d3bc
00000090: f69d 9b3c 9a49 61be 1e40 dabc 3cde c43d
000000a0: c0e9 923c e702 0fbc 8d64 d53e 0043 cd3d
000000b0: 80fe 9abd dac6 a93d ee80 56bc 082b 4cbb
000000c0: 22e0 6fbe a0b1 793d 2279 ab3c c963 04bd
000000d0: 8564 113e 86a1 5fbd abbe 9e3d 238b c8bb
000000e0: f4b0 cebc 9053 463d e130 47bc 38f1 2c3e
000000f0: 44ef 4538 79b8 283e d401 a8bd c994 08bd
00000100: a43e 983e 0cc6 59bd c1ff 3f3d f457 bc3c
00000110: 1d32 b83d 39ce 1a3d 9b37 d9bd a064 96be
00000120: 02bd 123d a056 86be 7ac8 fdbb dae9 0bbd
00000130: a60c 0b3d 7861 39bd f9ee 333e 9a2c 573c
00000140: e3df 6abd 4fa5 be3d e906 ae3c 2894 5fbe
00000150: 0ce5 ebba d950 903c dc6c a83e 9115 ef3c
00000160: 4a7f 4e3a 6862 be3d 6af6 bebd 8754 4cbe
00000170: 985f 80bd a267 073d f327 7dbd b70f c03d
00000180: 162e 86be c12c 563d 0f92 a0be c69b e6bc
00000190: 3c93 933d 8e94 f73d baf6 133d b64b ea3c
000001a0: 1d20 de3d b947 ad3c 9ab9 e03d 0ac5 933c
000001b0: 20e9 8f3e 1612 86bc d708 2fbd 561e 22be
000001c0: ec92 47be 6dc5 083c 15f4 a93c 1218 c93c
000001d0: 020f 8e3c 4941 8e3d 298a 6bbe 75fe 293a
000001e0: 845d c83d f465 29bc aa85 23bd 3d9a 3d3d
000001f0: a077 4bbe 5ce8 ce3c 75ab f6bd 2871 603d
00000200: c38c 003e 2363 973b 16e3 e83c b191 f33e
00000210: d2ef ad3d 7113 c03c b35f df3e d283 a939
00000220: c2a2 0b3e 286d 833d f0f1 9ebd 9b31 98bd
00000230: ad0e 16bc 7efe c53c f1ef ebbc 7ac5 ae3d
00000240: 2f45 493d c61c 3b3d 089b 21bc a6d1 283c
00000250: 1a49 003d 2fb0 0a3d a5ce 1c3c 7722 c3bb
00000260: 7966 8ebd bf6f b63d 9020 e23d 8de6 48bd
00000270: 1ffa 7b3d d356 8cbd 3f87 2f3c 70e1 3bbd
00000280: 4af0 fe3c 094d aa3d 881c 273f ab5f 22bc
00000290: a7b3 513d 7782 0b3f 0af8 99bb 61a1 2d3d
000002a0: dcab 453d fcd9 353a 551e 2dbd d9c4 0ebd
000002b0: 2a34 bf3c 3840 753b 0e2a 123d ae74 97bc
000002c0: aafe d33e d112 1cbd e653 8a3d 584c f53d
000002d0: 75fe 3cbc 323e 4e3c 78a4 c23d b90f f53c
000002e0: fae7 d63c a891 63bc bb1d 8d3e 97c6 fcbc
000002f0: f219 4c3d 279d 593c aa30 11bc 7068 8bbd
00000300: ab2c 36bd 6833 c03b c1de 8e3d 9c7e 403e
00000310: 5689 4b3d 497a 80bd 89d0 243d 6b2c 1d3f
00000320: 2822 3bbd 2a4f b03e 55e4 143c 6fce a2bc
00000330: 7d6d fd3e b97e 69bd 0990 29bd 2ba2 cf3d
00000340: 4031 ef3c b03c 03bd 04fd 3e3d 5806 f63e
00000350: 9e7a 9f3d b37c 9d3e 431a 66bb 5ff3 6bbc
00000360: 316b 7f3d 03f6 bcbc f4ba 353d 90db 743e
00000370: 2fee 423b 8c10 563d 5e12 943d 4174 a23c
00000380: 86a6 d73d 95c7 3b3d 4573 113f 8d6e 833d
00000390: 64e6 cf3d b6ca db3d afc8 37bc 8f75 df3c
000003a0: 3244 0c3d 04b3 a43c ae4c dabc 782d f23d
000003b0: f35d 343d 6be6 d6ba 1199 a83d 0473 d13e
000003c0: cf18 053f 1a9f 8d3d 90bf 9b3e 560f ad3d
000003d0: be3e 2c3c 176b c73d ea66 f13e 1063 fc3e
000003e0: 9591 68bc e2a8 243d 150f 853e 02f6 be3a
000003f0: e2a8 433d ef5e 203d 6485 833d 2589 143d
-0.076609574 -0.046008382 -0.037627183 0.003133028 -0.067069985 0.052007437 -0.22476083 0.09971203
0.05190426 0.08524763 0.08634445 0.30616802 0.03932772 0.08267364 -0.054807644 0.022134092
-0.06449168 0.040674362 -0.049157355 0.087267116 -0.0069181053 0.033432346 -0.115146324 0.32122627
0.03657288 -0.038338087 -0.021032095 0.17345218 -0.021304728 0.24888387 0.06958795 -0.10358194
-0.012728486 0.031776834 -0.13559671 -0.025787821 0.01899622 -0.22000733 -0.026641902 0.096127
0.017933726 -0.008728719 0.41678277 0.10022545 -0.07568073 0.08289881 -0.013092263 -0.0031153578
-0.23425344 0.060960412 0.020931784 -0.032321725 0.14198501 -0.0545974 0.07751211 -0.006120102
-0.025230862 0.048419535 -0.01215765 0.16888893 4.7191294e-05 0.1647662 -0.08203474 -0.033345018
0.2973529 -0.053167388 0.046874765 0.022991158 0.08993933 0.037794326 -0.10606309 -0.29373646
0.035824783 -0.26237965 -0.007744846 -0.034158565 0.03394761 -0.04525897 0.1757163 0.013133192
-0.05734242 0.09308874 0.02124353 -0.21833861 -0.0017997338 0.017616676 0.32895553 0.029185088
0.0007877244 0.09296113 -0.093243435 -0.1995412 -0.06268233 0.033057816 -0.061805677 0.09377997
-0.26207036 0.052288774 -0.31361434 -0.02815045 0.07205817 0.120888814 0.03612397 0.028600555
0.10845969 0.021152364 0.10972901 0.018038291 0.28107548 -0.016366046 -0.04273304 -0.15831885
-0.1948964 0.008347851 0.02074627 0.02454761 0.01734114 0.06946046 -0.23001923 0.00064847554
0.09783462 -0.010339249 -0.039922394 0.04628967 -0.19869852 0.025257282 -0.120444216 0.054795414
0.12553696 0.0046199723 0.028428596 0.4757209 0.08493008 0.02344677 0.436277 0.00032332406
0.13636306 0.06417304 -0.0776099 -0.074313365 -0.009158772 0.024169203 -0.028800936 0.085337594
0.049138244 0.045681737 -0.0098636225 0.01030389 0.031319715 0.033859428 0.009570752 -0.0059550363
-0.06953139 0.089080326 0.11041367 -0.049047995 0.06151783 -0.06852498 0.0107133975 -0.04586929
0.031120438 0.083154745 0.6527791 -0.009910504 0.05119672 0.5449595 -0.004698758 0.04239023
0.0482596 0.0006937084 -0.042265255 -0.034855697 0.023340303 0.003742231 0.035684638 -0.018488254
0.4140523 -0.038103882 0.067542836 0.11977452 -0.011535277 0.012588071 0.09504026 0.029914724
0.026233662 -0.013889708 0.27561745 -0.030856414 0.04982943 0.013282097 -0.0088617 -0.06807029
-0.044476192 0.005865503 0.06976081 0.18798298 0.04969152 -0.06273324 0.040237937 0.613959
-0.04568687 0.34435397 0.009087642 -0.019873826 0.49497595 -0.057005618 -0.04139713 0.10138353
0.029198289 -0.032040298 0.046628013 0.48051715 0.07787059 0.307592 -0.0035110868 -0.014401286
0.062358085 -0.023066526 0.044367746 0.23911881 0.002974402 0.052261874 0.07230066 0.019830825
0.10529809 0.045844633 0.5681651 0.0641757 0.101513654 0.107320234 -0.01121728 0.027277736
0.034244724 0.020104893 -0.026647892 0.11825079 0.04403491 -0.0016395574 0.0823232 0.40908062
0.5199098 0.06915112 0.30419588 0.08450191 0.010513006 0.09737223 0.4714883 0.4929433
-0.014194866 0.04020012 0.2598807 0.0014569166 0.04776848 0.039153036 0.064219266 0.036263604

backbone.layers.1.bias f4 [64]
00000000: bde8 253d fae8 84bf b5f9 663f 1f52 223f
00000010: 508b 52bf 5d67 9c3e 788f c73e c0ee a03e
00000020: 42eb 083f 6b3b 2c3e 9817 b13e da2c 9a3e
00000030: aa2c c0bf 6041 9a3f 638c 093f 52fc 033f
00000040: 5688 fe3d cf51 443e f3b4 573f 2b3d c93e
00000050: 2853 a2bf 40c9 04bf 2e8b 983d 9dd5 8dbe
00000060: 6038 80bf ed6f 66be a27a 223f 352d b9be
00000070: 2030 16c0 3432 08bb fa36 08be e50a e43e
00000080: 1f6b 653f c2c5 15bf fcf0 9c3f d6d0 3cba
00000090: b4a2 a9bf b902 a4bf 2b82 ec3e 8ce9 593e
000000a0: fc06 58be f181 803f cd4e 13bd 42e7 18bf
000000b0: a4ed df3e 664a 813e 55cf 1a3e c3d1 2abf
000000c0: 3b4f 463e 9fb3 8a3e f4a1 babf ec56 36bf
000000d0: 09d8 7a3f 50cf 863f 8027 c03e 4a98 d13e
000000e0: 553f 8ebf c6e3 1c3f 5333 d93e 0a27 f73e
000000f0: 3300 99bf f8cf fc3c 3026 703f 2409 cdbe
0.04050516 -1.0383599 0.9022477 0.63406557 -0.82243824 0.3054761 0.38976645 0.31432152
0.53483975 0.16819541 0.34588313 0.30112344 -1.501363 1.2051201 0.5372984 0.51556885
0.12428348 0.19171833 0.8426048 0.3930448 -1.2681627 -0.51869583 0.074484214 -0.27702036
-1.0017204 -0.22503634 0.6346837 -0.36167303 -2.3466873 -0.0020781877 -0.13302222 0.44539562
0.8961658 -0.5850488 1.2261043 -0.000720275 -1.3252778 -1.2813331 0.4619306 0.21280497
-0.21096414 1.0039655 -0.035963822 -0.5972787 0.43735993 0.25252074 0.15118153 -0.6672632
0.19366162 0.27090165 -1.4580674 -0.7122638 0.97985893 1.0532017 0.37530136 0.409365
-1.1113077 0.61285055 0.4242197 0.48271972 -1.1953186 0.030860886 0.9380827 -0.40046036

backbone.output_layer.weight f4 [34, 64]
00000000: 52e7 c7be bd84 3a3b 1023 cbbd 688a 40be
00000010: dbd8 663d c80d fabe f38b 28be af28 2bbf
00000020: e302 75bf 44a5 d5be dcca 27bf c408 97be
00000030: 1129 103e 2e66 b3be c1ca 7bbe ed2a 6abe
00000040: 37f2 013e e469 14bf 5b6e b3bd ed0c 16be
00000050: 5d7c 70bc 93f1 dcbd bc9c 0b3e 4a72 5ebe
00000060: 6f0b 0a3e 6b71 88bd 707f 28bf 89f1 0cbd
00000070: 1be3 ed3e bd1b ac3d 727a f6bd 581f c9be
00000080: 3895 55bd 5003 473d 4318 cebe 2a65 023e
00000090: ca9f 883e 511f e73e b84f 88be 2e58 1fbf
000000a0: d322 8cbe c114 45be 54a4 06bf 14ad a7be
000000b0: 5206 babe f882 2ebe 9e2c 503e 36db 88bd
000000c0: 8c9b d7be e5cf 9abe 57f4 053f 173b b63d
000000d0: c227 4abd cc3a 0fbe 7cf2 f2bd a50f 0cbf
000000e0: 7204 823e 22f2 9fbd 2761 2bbd 9909 8b3d
000000f0: 4523 bc3d 2897 8ebe 7a3c f6bd c5be 04bf
00000100: d5f8 bdbd c081 04be 9c6f 0ebf 67a2 89be
00000110: b40b 6abe 67c8 b6be fd1e 64be 4537 dfbe
00000120: 7542 92be a930 76be 4676 d3ba 6360 96be
00000130: c01c 063e fbfe c8be 45a6 5dbe 34f5 8dbe
00000140: 3cf3 063e 0aea 723b a488 d7bd 64e6 00bf
00000150: f83b a0bb 4cd4 2bbe e1e4 fa3d 29d1 3cbe
00000160: 06fe ed3d adab b4bd 054a bcbe 308a eebc
00000170: a798 393e 881d b53d a330 19be 375c 21be
00000180: 1f23 f2bd 0f18 02be 5ce5 8ebe 0176 e83d
00000190: 529b 203e 40e4 af3e ef51 43be 30df 48be
000001a0: b70b 14be f6af 30be e324 68be 0eca 9bbd
000001b0: 7383 a1be 5538 71be de86 0b3e 8531 7ebd
000001c0: 0159 b0be 236e 45be dd11 833e a004 d13d
000001d0: f9e2 dfbd 7ee8 8dbe 75b3 04bd 8c5e 85bf
000001e0: a51b 353e 3820 03be bebb 9dbd 4bfd 6f3b
000001f0: b117 c83d 1bb1 a4be 31b2 5fbe cf67 f1be
00000200: 0239 46be e943 f4bd 6495 a0bf c34f b0be
00000210: fe5a dabe 55c8 88be 314f 99be 6bfc 5cbe
00000220: 308f 35be aa6e f63d 45cd 683d 8c00 cdbe
00000230: 15d9 e23d 6005 2ebf a06b 0fbf cea6 b9be
00000240: 5168 b23d 9f29 8abe e7f2 90be 0095 57bf
00000250: 0c78 98bb cd8a f5be b18e a83d 1efb 32be
00000260: 185d e93d 63d9 8bbd 316a 44be a636 02bd
00000270: c0d1 84bf 69dd c33d 5e2c 4abe 45b9 84be
00000280: 4d45 2ebe 3ee7 9ebe d865 90be 7593 033e
00000290: 9f71 03be 22d2 a63d b702 96be 17de 1ebd
000002a0: 1258 81bd 5747 96be 0357 5cbd 9393 47be
000002b0: 3242 ccbe a2e3 8dbe b12a e9bd cdd5 aabd
000002c0: bd64 d4be d6a1 73be e94f 93bf 5007 913d
000002d0: 83a6 1abe 9428 cabe 3908 93be 7203 21be
000002e0: bc7d bbbd 503a 8ebe 1849 1cbe cc56 09bb
000002f0: 31e6 a33d d8e4 d0be 93f4 05bf c2e2 f13c
00000300: 9f01 dfbe 4b0a a4bd eaac 2dbd 5a63 abbe
00000310: a6b3 9abe 424a 50bd b8ad 8abe e768 79bc
00000320: 4e85 343d 279c 5e3e 6fe2 db3d 1198 edbe
00000330: fd15 203e 6501 2fbf f304 1cbf 79e6 09bf
00000340: 2a08 ae3d bb43 dabe fcd0 9cbe 72f0 023d
00000350: 6cc7 cfb9 3e70 14bf 9e59 b63d 4871 23be
00000360: 476f fc3d 373e b4bd d990 2dbd 776d 01bd
00000370: b983 55be fcb6 d23d 3d6e 0cbe 4840 81be
00000380: 7d1b 58be c079 69be 87a7 03bf 1bc7 0c3e
00000390: eb90 89bf 12d3 87bf 6355 bdbe 160b ad3d
000003a0: 11c2 653d f64d dcbe 70fc 833d 9a57 85be
000003b0: 3a4f 0cbf 165a 7fbe 6e07 96bf d078 88bd
000003c0: b789 edbe a09b 48be df42 81be 8f6f 513d
000003d0: 996b 4abe 33b0 f4be 5f0a 9ebe 64cd 853d
000003e0: b233 95bf 4345 84be f62d 45be 1c57 cd3a
000003f0: f614 ec3d e1dd f3be 3e5b 1dbf 253b b53e
-0.3904367 0.0028460466 -0.09918797 -0.18802798 0.056359153 -0.4883864 -0.16459636 -0.66858953
-0.9570753 -0.4172765 -0.65543914 -0.29498875 0.14078166 -0.35038894 -0.24589063 -0.22867937
0.12690054 -0.57974076 -0.08761283 -0.14653368 -0.014678088 -0.10788264 0.13634008 -0.21723285
0.13480924 -0.06662258 -0.65819454 -0.034410033 0.4646233 0.08403728 -0.12035073 -0.39281726
-0.05214426 0.048587143 -0.40252885 0.12733904 0.2668441 0.4514108 -0.2662332 -0.62243927
-0.2737032 -0.19246198 -0.52594495 -0.32749236 -0.36332947 -0.17042148 0.2032952 -0.06682436
-0.4211086 -0.30236736 0.5232596 0.08897989 -0.049354322 -0.13987273 -0.118626565 -0.5471137
0.25394017 -0.07809855 -0.0418407 0.0678894 0.09186415 -0.27849698 -0.12023254 -0.5185359
-0.092759766 -0.1294012 -0.5563905 -0.26881716 -0.22856027 -0.3569977 -0.22277446 -0.43596855
-0.28566328 -0.24042 -0.0016133271 -0.29370412 0.13096905 -0.39257035 -0.21645458 -0.27726138
0.13178724 0.0037065768 -0.10524109 -0.5035155 -0.0048899613 -0.16780204 0.122506864 -0.18439163
0.11620717 -0.08821807 -0.36775222 -0.029118627 0.18124638 0.08843523 -0.1495996 -0.15757833
-0.11823105 -0.1270449 -0.27909362 0.113506325 0.1568425 0.34353828 -0.19074224 -0.1961639
-0.14457594 -0.17254624 -0.22670321 -0.07606898 -0.315456 -0.23556645 0.13625666 -0.062058944
-0.34442905 -0.19280295 0.25599566 0.1020596 -0.109319635 -0.2771644 -0.032397706 -1.0419478
0.17686327 -0.12805259 -0.077018246 0.003661948 0.09770144 -0.3216637 -0.21845318 -0.47149512
-0.19357684 -0.11927015 -1.254559 -0.34435853 -0.42647547 -0.2671534 -0.2994323 -0.21580665
-0.17730403 0.12032826 0.056836385 -0.4003948 0.11076561 -0.6797695 -0.560236 -0.36260074
0.08711303 -0.2698488 -0.2831032 -0.8421173 -0.0046529826 -0.4795746 0.08230341 -0.17478606
0.11394709 -0.068285726 -0.19181134 -0.031790398 -1.0376511 0.09563715 -0.19743487 -0.259226
-0.17018624 -0.310358 -0.282027 0.12849219 -0.12836312 0.081455484 -0.29298946 -0.03878602
-0.06315626 -0.29351303 -0.05379392 -0.19489889 -0.39894253 -0.27712733 -0.11385096 -0.083415605
-0.41483107 -0.23792204 -1.1508762 0.07081473 -0.15102582 -0.39484084 -0.2871721 -0.1572397
-0.09154841 -0.27778864 -0.15262258 -0.0020956276 0.0800289 -0.40799594 -0.52326316 0.029527072
-0.43555924 -0.08009776 -0.04240123 -0.33474237 -0.30215186 -0.050852068 -0.27085662 -0.015222765
0.04407244 0.21739255 0.10736548 -0.4640508 0.15633388 -0.683615 -0.6094505 -0.538673
0.08497651 -0.426298 -0.30628192 0.031967588 -0.00039630698 -0.5798377 0.08903812 -0.15961182
0.12325912 -0.08800929 -0.042374466 -0.031598534 -0.2085103 0.10288808 -0.13713928 -0.25244355
-0.21104236 -0.2280035 -0.514275 0.13747828 -1.074735 -1.0611289 -0.36979207 0.0844938
0.05609328 -0.4302823 0.06444633 -0.26043397 -0.5480839 -0.24936709 -1.1721017 -0.06663668
-0.4639413 -0.19590616 -0.2524633 0.05113178 -0.19767608 -0.4779068 -0.30867288 0.06533316
-1.1656401 -0.25834092 -0.19255814 0.0015666219 0.115274355 -0.47630218 -0.6146735 0.35396686

backbone.output_layer.bias f4 [34]
00000000: 8eb9 0ec0 347e cebf d535 28be dea1 b3bf
00000010: 4c21 22bf 52f7 28bf 09a3 86c0 b34a a7be
00000020: 81db 05c0 3738 77c0 c258 a0be 230d ba3e
00000030: 1186 81bf 7320 c2bf 5b7f ecbf 7a37 b0bd
00000040: adab 67bf 7870 1dbf 963d 713e 9762 24bd
00000050: 979b f4bf 576b 81bf e23e 5fbf f8d9 79bd
00000060: aec3 193e f134 89be 7f42 fcbd 923c 5d3e
00000070: d416 273f cbb0 7d3e 2647 fa3e 1767 c8be
00000080: 0298 ddbf 1851 3ec0
-2.2300754 -1.6132264 -0.16426785 -1.4033773 -0.63332057 -0.6600238 -4.2074018 -0.32674178
-2.0915225 -3.862806 -0.31317717 0.36338148 -1.0119039 -1.5166153 -1.8476366 -0.08604331
-0.9049633 -0.6149974 0.2355865 -0.040133085 -1.9109982 -1.0110883 -0.87205327 -0.060998887
0.15016052 -0.26798204 -0.123173706 0.21605137 0.6526921 0.24774472 0.48882407 -0.3914115
-1.7312014 -2.9736996
