Project_2/training_results_1/models/griffin_model_20250916_144801.pth (torch, 65016 bytes, 10 tensors)

gate.gate_network.0.weight f4 [10, 40]
000000 d8 44 a9 b7 ec 4d aa 34 90 e7 8a b6 cc 70 e6 34
       -2.0178428e-05 3.1721663e-07 -4.139678e-06 4.292291e-07
000010 b0 ff b9 ae 24 c8 96 b8 99 0a 10 32 e8 38 5b 30
       -8.458245e-11 -7.1898365e-05 8.384313e-09 7.9752605e-10
000020 29 32 96 35 35 77 70 36 68 a6 98 36 a0 8c 3b af
       1.1190469e-06 3.5832174e-06 4.5493252e-06 -1.7057511e-10
000030 ff 92 ce b2 e6 e0 da 2b 13 f3 25 b7 10 0d 75 b7
       -2.4048402e-08 1.5552253e-12 -9.8913615e-06 -1.4606179e-05
000040 68 39 49 a6 c8 c1 97 ae e4 59 98 b6 38 55 dd b4
       -6.9813684e-16 -6.9011075e-11 -4.5404176e-06 -4.1226463e-07
000050 24 e5 1a ae da 39 14 33 30 28 2d b4 b2 7b d8 30
       -3.5219064e-11 3.451155e-08 -1.61265e-07 1.5751225e-09
000060 af 11 02 b3 7c 3b 16 aa eb f6 d1 ae bb ff d8 b5
       -3.0284067e-08 -1.3343314e-13 -9.548081e-11 -1.6167681e-06
000070 54 ef bd 34 66 f9 3c 32 34 e9 6e b5 08 60 6e af
       3.5378127e-07 1.0999747e-08 -8.9001264e-07 -2.1680091e-10
000080 42 c7 6a b4 8c 71 01 ae 1c b2 93 ad 27 25 d7 b7
       -2.1865438e-07 -2.9432054e-11 -1.6791062e-11 -2.5647298e-05
000090 b7 84 8d 37 58 49 f1 36 ea 8e 17 2e e4 57 42 b6
       1.687031e-05 7.190898e-06 3.4460358e-11 -2.8959412e-06
0000a0 0c 2d a6 b7 80 1c 67 b0 5e c2 63 b3 60 ec 93 35
       -1.9809719e-05 -8.407781e-10 -5.3029332e-08 1.1021148e-06
0000b0 40 bc 5d 36 63 a7 57 b8 df 2b 6c b4 c0 85 75 35
       3.3041142e-06 -5.1415886e-05 -2.1995173e-07 9.1464244e-07
0000c0 07 f9 14 31 66 80 9d b1 ba 65 d3 33 40 00 a1 af
       2.167839e-09 -4.5838986e-09 9.843957e-08 -2.9285907e-10
0000d0 b4 73 49 b1 46 a7 9c 31 b7 b0 45 b0 cc b1 93 37
       -2.931512e-09 4.5592143e-09 -7.191931e-10 1.7606559e-05
0000e0 e0 0d 12 a7 1e 75 04 b4 00 ce 76 b6 c0 eb f3 35
       -2.0269092e-15 -1.2336065e-07 -3.6776764e-06 1.8173523e-06
0000f0 50 5c a9 2b c2 80 e6 35 02 00 00 80 12 f0 9c 36
       1.2033794e-12 1.7173809e-06 -3e-45 4.67711e-06
000100 83 a1 19 36 24 bc 2b 35 74 d2 dd 36 f1 31 9d af
       2.2892789e-06 6.3976245e-07 6.610813e-06 -2.859362e-10
000110 40 a8 f8 30 10 b6 b8 36 a5 69 11 37 dc 20 9d b4
       1.8092194e-09 5.504822e-06 8.667271e-06 -2.9267437e-07
000120 cf 93 91 38 e8 3c 7e 2e 86 aa b0 37 58 a3 43 37
       6.94167e-05 5.780701e-11 2.1060241e-05 1.1660937e-05
000130 50 3f 2f af c2 81 f0 36 6f cc 02 32 17 94 40 b5
       -1.593865e-10 7.167663e-06 7.613479e-09 -7.174107e-07
000140 80 ea 9a 34 e8 53 47 b6 98 ef 0e b6 c3 7e 0d b7
       2.8855357e-07 -2.970215e-06 -2.129911e-06 -8.433769e-06
000150 96 03 00 b5 f0 7b f4 32 eb b3 53 b4 80 e4 b4 b4
       -4.7688934e-07 2.8461699e-08 -1.971636e-07 -3.3693868e-07
000160 25 71 21 b3 ae 66 05 b8 ee 8f 0b 37 b6 d2 ba b6
       -3.7588638e-08 -3.18053e-05 8.318557e-06 -5.567762e-06
000170 6f b3 b7 b6 b2 96 bf 33 ee 73 c0 33 e8 b8 01 36
       -5.474714e-06 8.921542e-08 8.961784e-08 1.9330128e-06
000180 84 f6 41 37 bc 9c ee b7 c8 e3 ec b4 60 bf a0 b4
       1.1561093e-05 -2.8444796e-05 -4.4124158e-07 -2.9941566e-07
000190 00 49 ee b4 c7 b9 16 37 bd d7 c1 34 e5 05 1a b5
       -4.438407e-07 8.983951e-06 3.6106022e-07 -5.737805e-07
0001a0 60 87 29 b3 3d 54 36 b5 ac 3b 3c 37 82 a9 27 38
       -3.94715e-08 -6.7922866e-07 1.1219567e-05 3.997377e-05
0001b0 9c 0b ea b5 6e fe 8b 35 1e 73 0e b8 88 a3 58 36
       -1.7437737e-06 1.0430356e-06 -3.396265e-05 3.2281696e-06
0001c0 2c 1b ff 34 80 50 55 34 1a 1f 20 37 d0 d3 17 b4
       4.7517221e-07 1.9866457e-07 9.543985e-06 -1.4140028e-07
0001d0 20 85 d7 b4 03 8e b9 b5 50 cb a3 b6 70 10 d7 b3
       -4.0143732e-07 -1.3824905e-06 -4.8814472e-06 -1.00147076e-07
0001e0 3f f3 1c 2e 21 34 2b af 46 94 ad b1 c2 48 ce b5
       3.568634e-11 -1.557088e-10 -5.0518194e-09 -1.5369371e-06
0001f0 e6 3f e8 b4 3e be 2b b8 92 65 2b 36 b0 25 b7 26
       -4.325986e-07 -4.0946754e-05 2.5540107e-06 1.2708391e-15
000200 8c d7 5d 36 70 97 17 36 4e 00 76 34 44 b8 46 b6
       3.305703e-06 2.2588902e-06 2.2910646e-07 -2.9611556e-06
000210 3a 67 87 34 16 da d9 b6 fc 22 8a b1 50 53 92 33
       2.5220817e-07 -6.4924925e-06 -4.020306e-09 6.813809e-08
000220 f4 32 1c 36 82 88 56 36 03 0e d9 b0 74 31 2a b5
       2.327547e-06 3.1967943e-06 -1.579281e-09 -6.34019e-07
000230 24 13 25 b5 56 c8 0d b2 14 c9 8e b6 08 4a 35 24
       -6.1495143e-07 -8.252831e-09 -4.2553384e-06 3.9310826e-17
000240 ec 51 51 36 38 0d 0d 39 80 bf ac af a2 d0 09 32
       3.1191112e-06 0.00013451732 -3.1422687e-10 8.021887e-09
000250 66 2f ba b1 b9 e2 e9 b8 c6 f2 70 34 58 0c 58 b0
       -5.418701e-09 -0.00011152536 2.2440062e-07 -7.8597884e-10
000260 2a 06 f9 b0 e0 de db 35 d6 9d aa b1 a0 bd 6f 32
       -1.8118886e-09 1.6381637e-06 -4.965595e-09 1.3954747e-08
000270 08 19 33 ad 2b b4 bb b1 39 43 84 b7 30 da 94 b0
       -1.018053e-11 -5.462899e-09 -1.576693e-05 -1.083043e-09
000280 6d 7b 24 38 00 2c f1 b8 6e 29 d8 33 e0 94 85 a9
       3.9215596e-05 -0.00011499971 1.006582e-07 -5.932212e-14
000290 c1 22 39 31 b8 63 01 b2 58 4a 6b b2 dd 0c a7 b3
       2.6940798e-09 -7.531462e-09 -1.3695704e-08 -7.778883e-08
0002a0 92 d2 06 35 d4 47 50 ab e9 eb 8e b6 5e 28 c9 37
       5.022531e-07 -7.3996126e-13 -4.2593933e-06 2.3979865e-05
0002b0 7b ec 19 aa d1 85 98 ac f0 ab b8 31 fc 8a 37 b7
       -1.3671175e-13 -4.3349564e-12 5.374652e-09 -1.094001e-05
0002c0 26 2a 61 35 98 c1 5d ad 04 00 00 00 4c d2 14 34
       8.3880366e-07 -1.2605382e-11 6e-45 1.386008e-07
0002d0 5b 76 39 b3 3a 27 6c b8 c4 6a b1 b0 0c d5 53 37
       -4.3181313e-08 -5.6303317e-05 -1.290879e-09 1.2626184e-05
0002e0 77 2b 44 b7 ba c6 9e b0 12 15 f5 33 a0 f5 c7 33
       -1.169263e-05 -1.1552495e-09 1.1412534e-07 9.3113385e-08
0002f0 ae 8d 20 b3 2e bc 35 b5 06 07 25 b7 72 b2 81 b5
       -3.738176e-08 -6.770159e-07 -9.836402e-06 -9.663183e-07
000300 a8 b9 86 b1 32 1c a2 b8 6a 8e 69 37 14 c5 51 2d
       -3.92102e-09 -7.730014e-05 1.3921041e-05 1.1924035e-11
000310 56 cd c6 34 68 91 69 2d ce 1a f5 35 e9 2e 51 34
       3.7029776e-07 1.3276803e-11 1.8261724e-06 1.9481708e-07
000320 94 20 9a b0 70 08 4f b4 3a 47 6e b6 f6 51 94 36
       -1.1214234e-09 -1.9281447e-07 -3.5506223e-06 4.420285e-06
000330 48 f1 4e b2 98 68 9b 36 b4 f4 89 2f f9 b3 cb 36
       -1.2045639e-08 4.6315363e-06 2.5094027e-10 6.070823e-06
000340 b4 32 a7 b1 d2 b0 9f b8 bb 62 15 35 92 6b 57 32
       -4.866104e-09 -7.614646e-05 5.56505e-07 1.2539106e-08
000350 9f a0 3c b5 a1 3b 1f b4 e8 f0 ac b2 88 ff 92 30
       -7.026919e-07 -1.4829722e-07 -2.0132987e-08 1.0695524e-09
000360 46 48 9d 34 20 08 d6 34 4e 11 df b3 f0 f7 56 b8
       2.9296115e-07 3.9866518e-07 -1.03873944e-07 -5.1252486e-05
000370 00 86 1c 2f 6a ae 7e 2f ea 18 e1 37 ac b0 3a 33
       1.4235724e-10 2.316313e-10 2.6833692e-05 4.3467182e-08
000380 2e 21 3c 36 15 fd b7 30 e0 94 4d 37 a0 d2 34 b4
       2.8033496e-06 1.3386933e-09 1.2253615e-05 -1.6840431e-07
000390 71 b7 92 b5 78 b7 1e 32 ec cf 13 b6 9a 70 cb 32
       -1.0931236e-06 9.238526e-09 -2.2025733e-06 2.3683516e-08
0003a0 60 03 b6 2c 73 a4 90 b7 03 08 8b ad f0 93 eb b6
       5.173126e-12 -1.7242715e-05 -1.5806028e-11 -7.020768e-06
0003b0 78 d2 4f b5 bc fa 3b 36 c8 a8 e3 b3 82 f3 39 b7
       -7.741978e-07 2.8011118e-06 -1.0601212e-07 -1.1083555e-05
0003c0 1c f7 aa 36 45 90 3b b4 42 97 0d 38 e0 cb b9 37
       5.095162e-06 -1.7468217e-07 3.375789e-05 2.2148655e-05
0003d0 c8 ca 37 34 0c c2 97 33 e2 4f c7 33 e3 ca 8e 36
       1.7116975e-07 7.0667824e-08 9.28119e-08 4.255549e-06
0003e0 0d 29 bc 34 1e 69 1f b5 dd e5 10 38 8c 0c 1b b5
       3.5047597e-07 -5.938508e-07 3.4546352e-05 -5.776026e-07
0003f0 ec 34 2b 33 62 78 48 35 c4 1b 46 34 e5 84 43 b6
       3.9862172e-08 7.4680986e-07 1.8450288e-07 -2.913462e-06

gate.gate_network.0.bias f4 [10]
000000 47 ce 19 bd a0 e5 86 bd 56 56 0e 3e 49 7d e0 bc
       -0.037550237 -0.06586766 0.13900122 -0.02740349
000010 f7 1c 4c bd f7 a2 00 be 3c b6 0b 3e 37 e5 07 3e
       -0.04983231 -0.12562166 0.13643736 0.13271032
000020 98 3b 0f 3e 98 66 0e 3e
       0.13987577 0.13906324

gate.gate_network.2.weight f4 [5, 10]
000000 9a 94 56 b3 78 bb 21 b7 a8 9f 92 b5 60 e3 60 34
       -4.996091e-08 -9.639996e-06 -1.0924314e-06 2.0944344e-07
000010 da e4 8e 24 b0 9f 62 38 54 4d 94 37 06 14 d1 b6
       6.197037e-17 5.403132e-05 1.7678984e-05 -6.2310164e-06
000020 7c 57 a4 36 06 e1 97 b6 81 6c a7 b7 ed 6e bb a8
       4.8977654e-06 -4.526347e-06 -1.9958477e-05 -2.0809277e-14
000030 14 e0 87 37 8a a3 01 b3 c0 1d a5 32 98 a6 2a 32
       1.6197599e-05 -3.018389e-08 1.9222057e-08 9.933181e-09
000040 63 03 a5 37 0c 91 57 37 b0 12 0b b4 c6 ee 39 38
       1.967111e-05 1.284877e-05 -1.2952182e-07 4.4329812e-05
000050 b4 51 11 b5 5f 2f 60 b7 df a3 f7 b7 c0 af 2e a6
       -5.4135603e-07 -1.336247e-05 -2.9521003e-05 -6.060656e-16
000060 38 08 6c 32 53 96 41 2c 6c 87 60 b8 83 0d bc b7
       1.3738877e-08 2.7510396e-12 -5.3531883e-05 -2.2417638e-05
000070 9e c5 ce b6 96 c2 47 37 f3 64 51 38 07 a3 1e 2c
       -6.162284e-06 1.190663e-05 4.99235e-05 2.2543649e-12
000080 2a 77 5a 34 e4 26 85 33 9a b6 45 b3 1b 28 23 a7
       2.0346184e-07 6.200369e-08 -4.6033712e-08 -2.2642535e-15
000090 fa 1b 0c b5 c6 1c 49 b5 34 1c 0f 35 4e df 81 35
       -5.2194775e-07 -7.4920206e-07 5.331269e-07 9.676239e-07
0000a0 44 79 4a 38 56 2a 20 39 dc 55 79 b8 74 c9 12 2d
       4.827349e-05 0.0001527456 -5.944619e-05 8.343871e-12
0000b0 c4 cd 2d b7 e4 17 1d b7 02 12 64 b8 bb b5 d8 b8
       -1.0359512e-05 -9.363492e-06 -5.4376207e-05 -0.000103335326
0000c0 f0 d9 61 b8 43 07 7a b8
       -5.384715e-05 -5.9611408e-05

gate.gate_network.2.bias f4 [5]
000000 62 dc 58 3e 5f e3 7d bf 17 ab 90 bf 99 74 3c c0
       0.2117782 -0.99175066 -1.1302212 -2.9446166
000010 ab 66 a3 3f
       1.2765707

backbone.layers.0.weight f4 [128, 40]
000000 a7 ec 1b be c6 9e 66 3d 51 67 8c 3c 45 19 33 3d
       -0.15226994 0.056303762 0.017139109 0.04372527
000010 6e 2a ad b9 90 ec c4 b9 9a ce cb bb 8a 35 cc bb
       -0.00033028744 -0.00037560286 -0.006219697 -0.0062319683
000020 c8 f4 36 bb 7d 7c 65 bb e7 83 88 3c 64 75 9c 3c
       -0.0027916897 -0.0035016828 0.016664458 0.019098945
000030 54 83 0a bd 94 66 ce 3b a0 d7 0c 3e 0a 9a d9 3d
       -0.03381665 0.0062988494 0.1375413 0.10625084
000040 0f af fd bc ce 8b 2c 3d 37 c6 b7 3c 9c 8d 48 3b
       -0.030967264 0.042125516 0.022433383 0.0030601984
000050 93 aa d0 3b a0 54 7f 3c 7a 08 ee bb 5e 56 2c bb
       0.0063679903 0.015584141 -0.007264194 -0.0026296596
000060 e8 a5 46 39 e8 a5 46 39 86 33 d3 bb 86 3c 5c bb
       0.00018944556 0.00018944556 -0.006445351 -0.003360541
000070 3a 7a 7d b7 61 00 8b 3a 8e 62 81 3b fb 78 6c 3c
       -1.5108433e-05 0.0010604971 0.003948516 0.014433141
000080 1c ec de bc fc a0 90 3c 16 35 dd bd 9b a8 84 bc
       -0.027212195 0.017654888 -0.10801141 -0.016193679
000090 c0 03 6d 3d b7 7d c8 3c 0f b2 b5 3b e2 1e 8b bd
       0.057864904 0.024474008 0.005544908 -0.06793
0000a0 8c aa 37 3b e9 e2 f5 3c 78 da 2a bc a0 47 42 3a
       0.0028025238 0.030015426 -0.010428064 0.00074111857
0000b0 5a 42 00 3c 63 2b c7 3c e8 3a 47 bc 9b a2 7b bc
       0.007828319 0.02431268 -0.01216004 -0.015358592
0000c0 98 a4 13 bc d7 25 51 bb e8 de 4d ba 04 47 96 bb
       -0.00901141 -0.0031913423 -0.0007853345 -0.0045861024
0000d0 fc 36 7e ba 91 26 db bb 77 42 fb 39 72 be 99 bd
       -0.00096975244 -0.006687947 0.0004792397 -0.07507028
0000e0 d7 26 76 3c 16 51 20 bc 98 ca 1d 3b 65 ef 41 bb
       0.015023909 -0.009784957 0.0024077054 -0.0029592153
0000f0 88 10 b9 3b 25 f0 de 3b d0 dc 0e 3a c1 fa d5 bb
       0.0056477226 0.00680353 0.0005449774 -0.0065301363
000100 99 af f7 ba 99 af f7 ba 22 38 69 bb b4 76 9d bb
       -0.0018896937 -0.0018896937 -0.0035586436 -0.0048054103
000110 ca 45 a5 bc 39 e9 24 bc 5a de fa bb 1e 6a c3 bb
       -0.02017488 -0.01006537 -0.007655901 -0.005963578
000120 d6 7c 34 bc 18 61 b8 3c c6 99 2c bc 2a 4c 9a bb
       -0.011016091 0.022507235 -0.010534709 -0.0047087865
000130 1c a2 1e 3b 22 6d ee b9 bb 53 38 bc 29 ab 0b 3f
       0.0024205511 -0.00045476208 -0.011250432 0.54558045
000140 0f 84 f8 bd ae 11 23 3d 54 bf a3 3c 02 ec 13 3c
       -0.12134563 0.039811783 0.019988693 0.009028437
000150 b7 0e 33 3c 3f 13 4f 3c 34 6a 45 3b ca 9c 40 3b
       0.010928801 0.012638866 0.0030123116 0.0029390329
000160 12 80 60 3b 73 92 79 bd 85 da 06 3c b1 68 57 bc
       0.0034256023 -0.06093068 0.00823081 -0.013147519
000170 2c 02 df bd 8a 03 ca 3c cf b9 e7 3d 77 28 dd 3d
       -0.10889086 0.02465989 0.11314737 0.10798734
000180 3c 91 ce 3c 24 45 b3 3d b8 2c c2 3b 97 8a 06 3b
       0.025215738 0.08753422 0.005925741 0.0020529383
000190 44 39 24 3c db 47 42 bc e2 14 a9 3b 2c b6 63 3b
       0.010023419 -0.011857952 0.00515996 0.0034746034
0001a0 f4 bd ac bb f4 bd ac bb 7b 15 00 bb 89 2b 90 bc
       -0.0052716676 -0.0052716676 -0.0019544053 -0.017598884
0001b0 5f 0d ec 3b a1 a4 b9 ba 66 dd 01 3c 87 2b 7d 3c
       0.0072037424 -0.0014163443 0.007926321 0.015452272
0001c0 87 32 c9 ba 6d 4a 5f bc cd 9b c6 bc c5 d2 49 3d
       -0.0015350141 -0.013628584 -0.024244213 0.04927327
0001d0 d6 12 43 3b ff fb 36 3d d1 13 4a bc 5c 4b 6c bd
       0.0029765866 0.044673916 -0.012333826 -0.057689056
0001e0 52 02 cd 3c e9 40 86 3b cd 2e e2 bb 68 bd 51 bb
       0.02502552 0.0040970934 -0.0069025517 -0.0032003764
0001f0 75 d1 d8 3c bf db d8 3c 19 db 92 3c d5 4a 96 3c
       0.026467064 0.02647197 0.01792674 0.01834623
000200 2c 7b 3e 3c b4 06 84 3b 28 77 19 3b de e9 77 b9
       0.011626046 0.0040291194 0.002341697 -0.00023642878
000210 78 73 14 bc db 55 50 3b 92 2b 8f bc a1 7c c4 3b
       -0.009060733 0.0031789455 -0.01747683 0.0059963022
000220 a2 85 16 3c 8d 82 fb 3b 97 d4 df bb 46 23 49 3b
       0.009187134 0.007675475 -0.0068307626 0.003069119
000230 d9 0a 07 bc f3 b6 39 ba 21 49 93 bb 3b 05 3e 3c
       -0.008242332 -0.00070844515 -0.0044948016 0.011597927
000240 56 40 b5 3b 56 40 b5 3b 80 e9 81 bb 92 8e 0f 3c
       0.005531351 0.005531351 -0.003964603 0.008762019
000250 e6 41 2f 3c 2b b4 b8 bb b0 60 47 3b 02 aa 20 bb
       0.010696864 -0.005636712 0.003042262 -0.0024515395
000260 c9 f6 94 bc 61 0f 1a 3d 0b af cb 3b 29 46 10 3b
       -0.018184083 0.037612323 0.006215935 0.0022014475
000270 c9 8d 19 b9 a2 a3 40 3a dd 19 c8 bc 78 3d 26 bf
       -0.00014644036 0.0007348602 -0.024426395 -0.64937544
000280 79 ab 0e 3e 98 08 e9 3c eb 50 1f bc 85 f0 7c bb
       0.13932599 0.02844648 -0.009723882 -0.003859551
000290 5c 69 b0 3b 41 dd c8 3b b0 82 84 bc 96 02 95 bc
       0.0053836536 0.006129891 -0.016175598 -0.01818971
0002a0 a0 b8 14 bc 88 70 98 3b 9c a3 db 3b 59 29 19 bc
       -0.009077221 0.0046520866 0.0067028534 -0.009348237
0002b0 9c cc 36 3c 7c cf 82 bc 56 26 0d 3c 3d be 37 bd
       0.011157181 -0.015968077 0.008615097 -0.04485916
0002c0 cc f6 69 bb 24 6f b0 bc db 10 8d bb 05 a9 86 bb
       -0.003570008 -0.021537371 -0.004304988 -0.004109504
0002d0 8c 3c 5a 3b 8b 98 05 3b 56 ac 99 bb 12 5b 2f bc
       0.003330025 0.0020385112 -0.0046897335 -0.010702865
0002e0 a3 40 01 bc 89 40 01 bc b1 8e a1 3c 10 83 12 bc
       -0.007888946 -0.007888922 0.01972136 -0.008942381
0002f0 bc 38 ba bc c0 5c 81 bc 90 ee 02 3b 99 d0 2e bc
       -0.022732131 -0.015791297 0.001997862 -0.010669851
000300 04 b9 90 3c ec 6a 11 bd 22 94 a1 3b 72 bb 17 3b
       0.017666347 -0.03550236 0.004930989 0.0023152498
000310 fd b8 3d bb f2 4d 85 b8 20 97 10 3c 30 f3 63 3f
       -0.0028949373 -6.356453e-05 0.0088250935 0.8904295
000320 6d f3 3d 3e b6 16 20 be 59 87 b8 bc 59 0c e8 ba
       0.18549891 -0.15633664 -0.022525476 -0.0017703875
000330 b8 73 26 bc 8a bc 2e bc 9a 47 8a 3b 39 eb 8b 3b
       -0.010159425 -0.010665068 0.0042199614 0.004269984
000340 d5 81 23 3b 5a 02 99 3c e5 63 54 bc 4f 36 8a bd
       0.0024949212 0.01867788 -0.01296327 -0.0674864
000350 8e fb 98 3d fe 7a e9 bc fb 29 13 be 2a 38 ef bd
       0.07469855 -0.02850103 -0.14371483 -0.11680634
000360 c8 d8 07 3d bd 2a 8c bc d3 2e c2 ba a6 82 23 3b
       0.033165723 -0.017110223 -0.001481498 0.0024949699
000370 d0 59 ed bc c8 a6 bb 3c 7e 9b ba bb aa 63 23 3b
       -0.02897349 0.022906676 -0.0056948056 0.002493123
000380 80 af 83 3b d8 b7 83 3b ae c3 6f bb 89 86 60 bc
       0.004018724 0.0040197186 -0.003658514 -0.013703951
000390 31 e4 11 3c 7b 82 90 bc 02 b0 d5 3b f1 2f bf bc
       0.008904503 -0.017640343 0.006521226 -0.02333829
0003a0 5a 66 aa 3c bf 73 ba bb c6 52 b9 bb 4d 48 92 bb
       0.020800758 -0.0056900675 -0.0056556193 -0.0044641853
0003b0 68 c5 3d 3c c8 66 3f 3d 3b 25 50 bb 96 ab 79 be
       0.01158271 0.04672888 -0.0031760472 -0.24381861
0003c0 e1 9f 1b 00 71 61 23 00 0c 10 0b 00 71 1d 08 80
       2.536912e-39 3.249198e-39 1.015947e-39 -7.45246e-40
0003d0 e0 37 11 00 e5 9e 0f 00 cd b2 12 00 10 85 10 00
       1.581248e-39 1.434533e-39 1.71718e-39 1.517102e-39
0003e0 6c 50 12 00 32 7a 06 80 09 9f 12 80 79 90 03 00
       1.681889e-39 -5.94848e-40 -1.71009e-39 3.27334e-40
0003f0 24 46 08 00 73 41 11 00 92 92 00 00 82 43 01 80
       7.59846e-40 1.584682e-39 5.258e-41 -1.16053e-40

backbone.layers.0.bias f4 [128]
000000 2f 22 42 bd 6a 58 f6 3e 07 cd 55 bd 25 20 ef be
       -0.04739588 0.4811433 -0.052197482 -0.46704212
000010 8b 29 39 3f ae 77 5a be 4b 9b 53 be 17 47 00 3f
       0.72329015 -0.21334717 -0.20664708 0.50108474
000020 54 4f 8d be ff e4 2f be 15 60 78 be 3d 66 dd be
       -0.27599585 -0.17177199 -0.24255402 -0.43242064
000030 e8 73 58 be fd a7 b4 bd 09 91 04 bf 4b 7e 37 be
       -0.21137965 -0.08821104 -0.51783806 -0.1791927
000040 70 30 ab bd 87 3d 20 be f1 fe b5 bc 24 95 c8 bc
       -0.08358848 -0.15648471 -0.022216292 -0.024485178
000050 60 f9 a6 bd 30 db 1f be bb 31 c2 bd d8 b5 6f be
       -0.08153033 -0.15610957 -0.094821416 -0.23409212
000060 95 63 ec 3e 6c 54 38 be 30 01 23 bd a0 ed 8e be
       0.46169725 -0.18000954 -0.039796054 -0.27915668
000070 aa 5d 01 3f c7 5b 05 bf 8a 87 f3 3d d6 47 44 bd
       0.50533545 -0.52093166 0.118910864 -0.04792007
000080 b2 7e 03 bf 2a 6b cc 3e cc 90 09 bf d1 9d 1a 3f
       -0.51365197 0.3992551 -0.5373657 0.6039706
000090 19 44 c4 bd a3 af 0a bd 49 f4 54 be 40 df 03 bf
       -0.09583301 -0.033858906 -0.20796312 -0.5151253
0000a0 ab c8 06 be bd b4 2f be 8c b9 0b 3f 92 3b 07 3d
       -0.13162486 -0.1715879 0.5458 0.033015795
0000b0 2d 3a f6 bd 36 72 2e 3f 0c 72 e3 be 65 28 21 be
       -0.12022815 0.6814302 -0.44422948 -0.15738066
0000c0 1a 72 f7 3e 64 d7 9d be 1a ad 6d bd 90 6f 06 be
       0.4832924 -0.30828393 -0.05802641 -0.13128495
0000d0 fa e8 55 be 41 6d 46 be 7f f7 03 be 33 2e d9 bd
       -0.20889655 -0.19377615 -0.12887381 -0.10604515
0000e0 85 bb 04 bf 85 8f 15 bd 7f 9f 0b 3f 9f 8b d0 bb
       -0.5184863 -0.036513824 0.54540247 -0.0063643004
0000f0 cb 31 e2 be f9 1c 41 be 68 d7 e3 3c 17 3b 57 bd
       -0.44178614 -0.18858708 0.027812675 -0.052546587
000100 16 86 ff bc 6e df f5 bd f6 61 11 bd 4f ab 4c be
       -0.031191867 -0.120055065 -0.035493813 -0.19987224
000110 d7 4a fc be dd c9 f8 bd 64 c2 34 bd fd a1 84 be
       -0.49275848 -0.12147877 -0.044130698 -0.25904837
000120 88 5d 41 be 2e 40 75 be c6 cd 59 be 80 30 f0 3e
       -0.18883336 -0.23950264 -0.21269903 0.46912003
000130 26 74 4a be 08 39 d5 3e ca a6 51 be d3 6d c0 bd
       -0.1977087 0.41645074 -0.20473781 -0.09395947
000140 02 e2 d0 bc b0 2b 1c bd f6 69 10 bf 59 7f 82 3e
       -0.025498394 -0.0381276 -0.56411684 0.25487784
000150 aa 27 10 be da f5 af 3d 6f 42 13 3f 8c 2f d8 be
       -0.1407763 0.08591814 0.57523245 -0.42223775
000160 a6 3b 8b be a6 ab 0d 3f 5d 1f 01 bf 2e 2b af 3c
       -0.27193946 0.5534004 -0.5043848 0.021382894
000170 a4 44 bd 3e a3 63 32 be 5f d1 ec be 05 58 73 be
       0.3696643 -0.17420821 -0.46253487 -0.23764046
000180 7e d6 0d be 58 f4 05 bf 42 da 8a be bf ed bc bd
       -0.13851354 -0.52325964 -0.27119642 -0.09225034
000190 f1 05 ea 3e 58 e7 fa be 27 f5 11 be 1f d4 0f be
       0.45707658 -0.49004626 -0.14253674 -0.14045762
0001a0 71 3d fc be b5 c7 da 3e 7f da f1 bc 9a 53 de bd
       -0.49265626 0.4273049 -0.029523132 -0.108557895
0001b0 d5 58 12 bf f4 ac 5a bd e9 76 cc be 19 d1 94 bd
       -0.57166797 -0.053387597 -0.3993447 -0.07266445
0001c0 74 cb 07 be 61 b3 c0 bd 15 e9 8e be 5d dd ff be
       -0.13261205 -0.09409214 -0.27912202 -0.49973574
0001d0 10 80 37 be 08 62 d4 be 01 66 bd bd 4c 27 79 3e
       -0.17919946 -0.41481042 -0.09247971 0.24331397
0001e0 5a 95 54 be c4 a3 ef be 79 4a 6f be ef 82 f5 3e
       -0.20760098 -0.4680463 -0.23368253 0.47951457
0001f0 3c e9 be bd 2a bd b0 3d f8 54 41 bd 2a 31 27 be
       -0.0932183 0.0862983 -0.047200173 -0.16327348

backbone.layers.1.weight f4 [64, 128]
000000 6d 3f 34 3d 19 86 4b 3c 83 9c 07 3d f5 88 55 bc
       0.0440058 0.012422108 0.033108246 -0.013033141
000010 0f 99 95 bd 24 21 77 bd c8 78 2a 00 18 c9 e5 3c
       -0.07304584 -0.06033434 3.900419e-39 0.02804999
000020 c9 e5 48 bd c0 cb 19 00 69 d5 20 80 9e 11 ff bb
       -0.049047265 2.368979e-39 -3.015293e-39 -0.0077840826
000030 34 95 3b 80 f8 6c 2b 3d 26 cd 51 bc 8f 6a 03 80
       -5.471818e-39 0.041851968 -0.012805259 -3.13733e-40
000040 ad 9e 12 00 ef bb 23 80 f0 5d 1d 80 32 11 04 80
       1.709961e-39 -3.28166e-39 -2.696928e-39 -3.7351e-40
000050 e7 d7 31 3d ff 3d 11 80 45 40 24 82 ac 06 08 80
       0.04341879 -1.583443e-39 -1.2067262e-37 -7.37077e-40
000060 fa df 13 3d 9e 83 19 80 15 5a 02 00 32 bc 43 00
       0.036102273 -2.343103e-39 2.15986e-40 6.22049e-39
000070 cf 4d d8 3c 68 5b a7 bc ab 53 86 bb 63 a6 0a 80
       0.02640429 -0.020429328 -0.0040993295 -9.78043e-40
000080 de 4e 4e bc 15 ef b5 3c 0d 29 1f bc 2e 5a ec 3c
       -0.012592046 0.02220873 -0.009714377 0.028851595
000090 58 24 0d 80 2b 0d 21 80 a0 5d 0d 00 46 7a 6d bc
       -1.206899e-39 -3.035295e-39 1.227448e-39 -0.014494484
0000a0 23 95 77 3c a5 09 4d 00 0c 9d e9 3c 31 d7 22 bd
       0.015111241 7.074793e-39 0.028517269 -0.039756004
0000b0 c4 29 0b 80 c2 0e 85 bd cd 21 22 bc 93 f2 0d 80
       -1.025173e-39 -0.064969555 -0.009895754 -1.28088e-39
0000c0 74 7b 02 3d 61 c6 44 80 d9 23 08 80 1f cf 0f 00
       0.031856015 -6.315979e-39 -7.47544e-40 1.451833e-39
0000d0 e4 d3 0a 80 f0 44 19 00 51 63 16 80 d5 74 35 80
       -9.94367e-40 2.320618e-39 -2.056009e-39 -4.909193e-39
0000e0 24 a9 3a bc 18 51 98 3c 44 7c d6 3c b1 71 04 bd
       -0.011392865 0.018593356 0.026182301 -0.032334987
0000f0 b6 e1 82 bc 88 88 13 00 86 be c7 bc 01 e5 4a 00
       -0.015976768 1.793853e-39 -0.02438284 6.877978e-39
000100 f8 09 25 80 5a 88 11 80 1a 47 08 80 3a 3c 08 00
       -3.40149e-39 -1.610117e-39 -7.6019e-40 7.56289e-40
000110 33 0e 93 bd 5c 34 11 00 f7 ca 26 80 d9 a8 19 80
       -0.07180443 1.579986e-39 -3.562559e-39 -2.356459e-39
000120 ea 7d 10 80 44 a2 05 00 da 8e 09 00 f1 7c c5 3c
       -1.514537e-39 5.17387e-40 8.77765e-40 0.024107428
000130 dc 6e 14 00 b0 05 cc 3c 5c f9 1b 80 ba f5 1a 00
       1.876479e-39 0.024905056 -2.569012e-39 2.475873e-39
000140 60 6c 10 00 fd 73 10 80 47 24 29 bc 4a 64 ad 3b
       1.508246e-39 -1.510977e-39 -0.010323591 0.0052914964
000150 94 82 0a 00 ee 39 02 bc 3f fb f9 3c c5 5b 8e bc
       9.65198e-40 -0.007948382 0.030515311 -0.017377743
000160 95 d4 0e 80 7d 52 2f 3d e4 c4 a9 bd c2 30 49 3d
       -1.361957e-39 0.042803276 -0.08289507 0.049118765
000170 5d 7c 55 3c 34 f0 2e 02 f1 25 9f bc 47 5c 1d 80
       0.013030139 1.2852436e-37 -0.019427272 -2.696332e-39
000180 93 55 0f 00 79 dc aa bd 34 48 01 00 aa 17 0f 80
       1.40823e-39 -0.08342833 1.17737e-40 -1.386022e-39
000190 cc 4a 6d 3d b1 2d 82 bc 49 0c 1c 80 4f c3 3c 00
       0.05793266 -0.015890928 -2.575801e-39 5.580193e-39
0001a0 65 e3 38 bc 00 fe 1e 3d 11 2d 17 00 33 d6 13 80
       -0.011284684 0.038816452 2.128383e-39 -1.821715e-39
0001b0 fe 26 88 bb 83 7e 0d 3d d9 36 04 00 b0 8a 01 00
       -0.004155039 0.03454448 3.87018e-40 1.41587e-40
0001c0 9f 63 11 80 1f 61 0e 80 f2 03 03 80 f4 d8 e7 bb
       -1.596941e-39 -1.320537e-39 -2.76922e-40 -0.0070754234
0001d0 a7 0f 21 02 f6 17 2b bc a7 ef 0a 80 35 62 80 3b
       1.1832904e-37 -0.010442724 -1.004326e-39 0.003917957
0001e0 c4 46 0e 00 3a 8e 50 bc e7 a1 07 00 67 2b 2c 3d
       1.311083e-39 -0.012729222 7.00928e-40 0.04203358
0001f0 53 44 10 80 82 ae f1 bc 24 f2 ec 3c 60 5a 77 00
       -1.493878e-39 -0.029502157 0.028924055 1.0960844e-38
000200 fc 42 14 3d 73 27 60 3c c6 b7 fe 3c 88 23 88 bc
       0.036196694 0.01368128 0.03109349 -0.016618505
000210 e0 f0 96 bd 35 49 72 bd b4 09 02 00 6d 6e cc 3c
       -0.07370162 -0.059151847 1.87152e-40 0.024954999
000220 e8 62 5d bd 50 58 09 00 3e 25 17 80 0a 22 91 bc
       -0.054049402 8.582e-40 -2.125576e-39 -0.017716426
000230 e4 e9 5b 00 d0 e4 13 3d a4 ec 52 bc 49 ec 02 00
       8.440934e-39 0.036106884 -0.012873802 2.68434e-40
000240 26 3f 08 00 6f 3f 0d 80 cb 99 24 80 71 85 1d 00
       7.57337e-40 -1.216617e-39 -3.361248e-39 2.711099e-39
000250 07 d2 22 3d 4d 87 00 80 e8 d1 66 00 29 16 41 00
       0.03975108 -4.8537e-41 9.442521e-39 5.977257e-39
000260 42 9c 14 3d 0b de 0c 00 ab a5 09 00 58 e6 37 00
       0.03628183 1.18168e-39 8.8595e-40 5.133584e-39
000270 9d 42 08 3d 93 99 bb bc 41 b5 81 bb be 3f 0b 80
       0.033266652 -0.022900378 -0.0039583747 -1.033057e-39
000280 37 1b ad bc be 73 ed 3c f5 b8 5a bc b9 92 21 3d
       -0.021131141 0.028985854 -0.013349761 0.039446566
000290 e6 72 0e 80 c0 d1 23 00 13 8e 16 00 77 b1 a6 bc
       -1.326915e-39 3.289486e-39 2.071348e-39 -0.020348294
0002a0 bd 59 c6 3c 4f ed 8e 00 a3 66 30 3d a4 b0 40 bd
       0.024212712 1.3125771e-38 0.043066632 -0.047043458
0002b0 c3 5d 42 01 63 12 88 bd 07 e1 3a bc 20 64 15 00
       3.5699443e-38 -0.06644132 -0.01140619 1.964464e-39
0002c0 d5 6b 09 3d 4c 7e 47 00 6d a7 19 80 0f 24 14 00
       0.033550102 6.565627e-39 -2.355948e-39 1.849645e-39
0002d0 a7 40 01 80 1a af 26 80 25 92 0b 80 42 22 4c 80
       -1.15028e-40 -3.552563e-39 -1.062617e-39 -6.991787e-39
0002e0 7d db a0 bc e9 b7 a2 3c c5 92 0c 3d d6 4c 1f bd
       -0.01963591 0.019863086 0.034319658 -0.038891636
0002f0 8a a7 e2 bc 27 60 11 80 78 f6 d8 bc 2c 85 12 80
       -0.02766778 -1.595696e-39 -0.026484713 -1.700812e-39
000300 45 32 24 00 5b 44 14 80 04 56 0b 80 94 9e 0b 00
       3.324111e-39 -1.861231e-39 -1.041047e-39 1.067078e-39
000310 8c 62 9f bd 36 c2 04 00 8b ec 13 80 65 b3 1c 00
       -0.07782468 4.37012e-40 -1.82973e-39 2.635749e-39
000320 79 8f 0f 80 50 98 07 00 f5 c5 04 00 7c b5 d6 3c
       -1.429001e-39 6.97488e-40 4.38356e-40 0.026209585
000330 20 84 0e 80 fd 23 9f 3c 14 65 0c 00 46 61 59 00
       -1.333094e-39 0.01942634 1.138286e-39 8.208254e-39
000340 a7 c4 1d 80 32 32 0d 80 be d9 81 bc 76 cc f5 3a
       -2.733775e-39 -1.211868e-39 -0.015850898 0.0018752951
000350 47 44 1d 80 e6 88 77 bb 6f 73 10 3d f1 e6 92 bc
       -2.687723e-39 -0.0037770807 0.035266336 -0.017932387
000360 85 ee 13 80 33 8a 48 3d b7 b9 d5 bd 59 af 1b 3d
       -1.830439e-39 0.048959922 -0.10435813 0.03800902
000370 73 d8 9b 3c 6a ed 63 00 fd 67 b8 bc 1d 60 0c 00
       0.01902411 9.176882e-39 -0.022510523 1.136505e-39
000380 4e 72 01 00 27 ea c4 bd b0 ae 00 80 71 85 13 00
       1.3284e-40 -0.096149735 -6.2666e-41 1.792744e-39
000390 ab f6 64 3d 35 cf 89 bc 3f 90 0e 80 59 20 41 00
       0.055899303 -0.016822437 -1.337443e-39 5.980911e-39
0003a0 78 04 53 bc a4 5c 44 3d 25 ee 18 00 da 18 0b 00
       -0.012879483 0.04793991 2.289482e-39 1.019106e-39
0003b0 82 ca 73 bc c7 5d 32 3d 49 98 26 00 38 85 24 00
       -0.014879825 0.043546464 3.544378e-39 3.353868e-39
0003c0 a6 f2 15 80 5d fa 0d 00 73 ec 0f 00 31 2e 38 bc
       -2.015591e-39 1.283675e-39 1.462354e-39 -0.011241482
0003d0 bc da 31 81 e4 3e df bc bb a6 0b 80 21 99 8c 3b
       -3.26667e-38 -0.027251668 -1.070002e-39 0.0042907153
0003e0 22 90 01 00 55 7d 82 bc 9c e8 0f 00 bd 1b 3b 3d
       1.4354e-40 -0.015928904 1.460977e-39 0.04568075
0003f0 23 c2 0f 80 b2 75 34 bd 64 5e 12 3d 72 cf 52 00
       -1.447176e-39 -0.044057555 0.03573455 7.604928e-39

backbone.layers.1.bias f4 [64]
000000 9c a1 eb 3d 59 a9 ea 3d 3e 64 6f b6 21 ab b4 bd
       0.11505434 0.11458082 -3.5672124e-06 -0.08821703
000010 12 62 20 3d 33 a1 1c 3d 77 76 31 3d 6c 54 b3 b2
       0.039156027 0.03823967 0.043325868 -2.0876733e-08
000020 44 c6 08 3d 58 e6 a3 bd ee b0 ef 3d f3 b1 19 3d
       0.033392206 -0.08002919 0.117036685 0.03752322
000030 e6 27 54 b9 74 87 14 3d 31 c3 cc 3d 4e 0b 16 3d
       -0.00020232759 0.03626199 0.09998167 0.036631875
000040 5f f3 1c 3d 57 37 51 bd 07 59 e4 b8 d2 6b fa 3d
       0.038318034 -0.051078167 -0.0001088847 0.12227596
000050 86 ed f3 3d 74 b6 b1 b9 43 4c 23 3d f6 71 b5 bd
       0.119105384 -0.0003389601 0.03986765 -0.08859627
000060 82 b8 e9 3d cd 06 3b bd 94 a3 0a bb 93 5c ea 3d
       0.11412145 -0.045660783 -0.002115463 0.114434384
000070 6e cf fb 3d 26 55 e2 bb 71 97 9a bc e3 5a 1b 3d
       0.122954234 -0.006907123 -0.018871041 0.037928473
000080 17 69 29 3d 91 99 17 3d 08 11 f0 3d bb 5c 0a 3e
       0.041359987 0.037011687 0.117219985 0.13511936
000090 c4 d7 ee 3d 3a 34 e9 3d c5 d9 0a 3d 1c 98 81 bd
       0.11662248 0.113869146 0.033899087 -0.06327841
0000a0 db 0c 17 3d 67 23 d4 ba 27 3c ec 3d 94 16 ff 3d
       0.036877494 -0.0016184867 0.11534911 0.12455478
0000b0 c2 89 d7 bc c6 68 1a 3d c0 a1 ea 3d d5 8f 93 b9
       -0.026310805 0.037697576 0.114566326 -0.00028145188
0000c0 a6 54 dd 3d 44 6a cf 3d e5 c7 02 3e 6e d7 cd 3d
       0.10807161 0.101276904 0.12771566 0.100508556
0000d0 17 e4 d5 3d 59 3f 1c 3d 73 8d ed b9 12 32 df 3d
       0.10443895 0.03814635 -0.0004530955 0.10898222
0000e0 85 23 a9 bd 9a 18 fc 3d 64 40 10 bd 3f 02 60 b8
       -0.08258728 0.1230938 -0.035217658 -5.3407854e-05
0000f0 de a1 f0 3d ea 1c 2d 3d e4 64 dd 3d a4 7d 22 3d
       0.11749624 0.042263903 0.10810259 0.0396706

backbone.output_layer.weight f4 [2, 64]
000000 f9 e3 3e be fc 0e 47 be a2 db 22 00 2a 64 89 3f
       -0.18641652 -0.1943931 3.201196e-39 1.0733693
000010 e7 20 10 3f 44 8a 09 3f 12 75 10 3f 6d cd 19 00
       0.56300205 0.537266 0.56428635 2.36958e-39
000020 22 95 09 3f 86 94 8a 3f 70 ad 58 be 89 17 04 3f
       0.53743184 1.0826576 -0.21159911 0.5159841
000030 9b de 21 00 d5 54 06 3f 15 38 44 be b8 46 09 3f
       3.110427e-39 0.52473193 -0.19162019 0.53623533
000040 8b 2d 09 3f 6c 98 12 00 e5 d5 18 00 44 df 50 be
       0.5358512 1.707718e-39 2.280783e-39 -0.20397669
000050 8a 22 51 be 3a e7 0f 80 56 b0 0e 3f 0e 77 09 00
       -0.20423332 -1.460481e-39 0.5573782 8.69228e-40
000060 19 41 43 be 07 d6 0b 00 c8 11 10 80 86 52 4e be
       -0.19067802 1.086969e-39 -1.475747e-39 -0.20148668
000070 e9 03 53 be 6d b1 0f 00 66 4d 0e 00 5b c7 07 3f
       -0.2060696 1.441181e-39 1.313462e-39 0.5303857
000080 3e 50 0a 3f 8d 8f 05 3f b8 7a 4b be 3c 13 56 be
       0.5402869 0.52172166 -0.19871032 -0.20905775
000090 90 92 39 be 1c a8 43 be 04 32 08 3f 50 5c 12 80
       -0.18122315 -0.19107097 0.5320132 -1.686154e-39
0000a0 12 17 09 3f 8f 5d 0d 00 cc b9 46 be f9 f5 51 be
       0.5355083 1.227424e-39 -0.19406813 -0.20503987
0000b0 ce fd 08 00 3d 38 0d 3f 00 52 59 be 8a b7 11 00
       8.25732e-40 0.5516394 -0.21222687 1.627045e-39
0000c0 20 fc 3b be e7 2b 3b be 74 86 61 be ec 12 43 be
       -0.18357897 -0.18278466 -0.22023946 -0.19050187
0000d0 be b1 2a be 67 e4 0b 3f a1 4d 1a 00 8c 1c 49 be
       -0.16669366 0.5464539 2.415571e-39 -0.19639796
0000e0 69 ed 87 3f 9c fd 58 be 35 38 11 00 d7 b9 23 00
       1.0619327 -0.21190494 1.581367e-39 3.280909e-39
0000f0 6a 2f 4f be df 33 04 3f 1a 0c 46 be e6 a2 08 3f
       -0.20232931 0.5164165 -0.19340554 0.53373563
000100 f9 e3 3e 3e f4 14 47 3e 89 4f 17 80 41 5e 89 bf
       0.18641652 0.19441587 -2.140748e-39 -1.0731889
000110 e6 20 10 bf 44 8a 09 bf 13 75 10 bf 54 fb 17 00
       -0.563002 -0.537266 -0.5642864 2.202376e-39
000120 22 95 09 bf 67 92 8a bf 8e ab 58 3e 89 17 04 bf
       -0.53743184 -1.0825928 0.21159193 -0.5159841
000130 7a ac 22 80 d6 54 06 bf 33 38 44 3e b8 46 09 bf
       -3.18428e-39 -0.524732 0.19162063 -0.53623533
000140 8a 2d 09 bf a9 8e 14 00 e1 4b 14 00 a2 e0 50 3e
       -0.5358511 1.887887e-39 1.86393e-39 0.2039819
000150 ba 21 51 3e 99 40 11 80 55 b0 0e bf 7c 81 05 00
       0.20423022 -1.584377e-39 -0.5573781 5.05628e-40
000160 0d 41 43 3e 06 3e 0d 00 b7 2f 10 00 71 51 4e 3e
       0.19067784 1.216111e-39 1.486485e-39 0.20148255
000170 da 03 53 3e 10 0a 0f 80 f3 92 18 80 5c c7 07 bf
       0.20606938 -1.381142e-39 -2.256767e-39 -0.53038573
000180 41 50 0a bf 8e 8f 05 bf 77 79 4b 3e 4b 14 56 3e
       -0.5402871 -0.5217217 0.19870554 0.20906179
000190 0a 93 39 3e f8 a6 43 3e 04 32 08 bf 4f 6d 13 80
       0.18122497 0.19106662 -0.5320132 -1.784087e-39
0001a0 12 17 09 bf 10 98 0d 00 de b9 46 3e 3a f6 51 3e
       -0.5355083 1.248411e-39 0.1940684 0.20504084
0001b0 80 42 09 00 3f 38 0d bf 8a 51 59 3e 20 e9 12 80
       8.50375e-40 -0.5516395 0.21222511 -1.736668e-39
0001c0 9b f9 3b 3e c0 2b 3b 3e b5 8b 61 3e cc 12 43 3e
       0.18356936 0.18278408 0.2202595 0.19050139
0001d0 89 b5 2a 3e 68 e4 0b bf 7c 44 20 80 21 1d 49 3e
       0.16670813 -0.54645395 -2.963303e-39 0.19640018
0001e0 bc e9 87 bf a5 06 59 3e 94 ce 10 00 e7 03 29 00
       -1.0618205 0.21193941 1.543474e-39 3.766655e-39
0001f0 18 2f 4f 3e df 33 04 bf 68 0c 46 3e e3 a2 08 bf
       0.20232809 -0.5164165 0.1934067 -0.53373545

backbone.output_layer.bias f4 [2]
000000 27 10 ee be 21 10 ee 3e
       -0.46496698 0.4649668
