Project_2/training_results_processes_2_full/models/griffin_model_20250918_155911.pth (torch, 65016 bytes, 10 tensors)

gate.gate_network.0.weight f4 [10, 40]
1.6919379e-06 -1.4631615e-05 -2.747171e-08 -2.2786944e-07 3.6608994e-10 9.618134e-07 8.685253e-06 0.00011112717
-1.944347e-05 1.849711e-06 -1.1075265e-06 3.2967408e-05 -2.726015e-05 -4.083424e-06 -5.23835e-07 -7.7223714e-11
-4.082724e-05 -1.0705953e-06 6.0528648e-05 -5.1486024e-09 -1.2405098e-07 7.3710453e-06 1.997881e-07 7.1396096e-07
-2.3952576e-05 -1.3329924e-07 -3.3178495e-08 -3.1001948e-06 -2.463264e-15 -1.9772478e-06 2.5123001e-09 -1.6331126e-07
6.180319e-10 -2.6968002e-07 -2.7627476e-07 -2.5354762e-08 2.5462814e-09 1.1374134e-17 -3.3844065e-09 4.719569e-10
2.478604e-07 1.2197186e-10 2.9573803e-05 1.0674853e-10 -1.7603228e-09 -6.332758e-06 5.2125597e-06 -4.5203542e-08
4.53713e-09 -2.6957304e-07 3.4397835e-05 8.8064844e-10 1.4313744e-06 -6.563634e-09 1.2167971e-09 -3.445804e-05
-2.1183855e-08 7.693636e-05 7.133862e-08 -3.6646886e-06 -6.094918e-06 3.9345923e-07 -1.7612332e-05 -5.101694e-08
9.1251195e-08 -4.694586e-06 3.5865022e-10 -6.3736445e-07 1.4379338e-10 -2.4628464e-06 9.0196045e-07 -4.7135111e-07
3.633184e-12 3.883886e-06 4.5081906e-06 1.2905409e-09 -8.8637216e-07 -2.1494902e-06 -9.2882397e-07 2.199317e-07
8.480413e-06 -4.4597186e-06 -8.2791445e-08 1.744751e-06 -4.390684e-06 4.2349875e-08 -4.0499637e-10 -1.9502386e-07
5.867624e-12 -1.8902447e-06 -1.5333671e-07 3.466712e-06 8.785632e-06 -5.7105067e-06 -8.433313e-07 3.708831e-05
-1.6280177e-05 -3.1265506e-07 2.8851562e-05 -2.560325e-06 -8.843111e-08 1.615356e-05 1.104651e-05 5.5379624e-06
3.7432103e-05 -1.4514508e-05 -7.3243784e-09 1.0043959e-05 1.1668499e-08 9.441369e-07 -1.6033448e-05 1.0558047e-08
-6.7275345e-05 -1.8525255e-06 7.444799e-06 -1.7514694e-05 1.3077806e-07 -2.1566619e-05 1.6334948e-06 -4.3128168e-10
-2.600751e-06 2.778478e-09 5.866774e-06 -6.1959884e-07 -4.942719e-07 9.053721e-06 -4.368185e-06 1.7055681e-06
6.5786535e-06 1.652957e-06 8.027204e-06 -4.1393414e-06 1.5909123e-06 3.2094174e-08 5.9208354e-08 -5.3060478e-05
1.4819062e-05 -7.4378788e-09 2.6449758e-09 1.3024783e-07 -2.9662415e-09 -1.2031921e-05 -2.562185e-06 7.3245374e-06
-4.250541e-11 -3.825359e-13 -6.912262e-08 1.078996e-14 5.384633e-10 -4.4885675e-11 2.4513918e-07 2.2358574e-06
8.22668e-11 1.5131205e-08 7.118714e-05 -7.727325e-06 -1.732539e-06 -6.140216e-08 2.8097068e-06 -4.8177444e-05
2.9293022e-05 1.952958e-07 -3.2648309e-06 6.2253102e-06 6.0589905e-06 4.128283e-06 -8.211849e-10 -6.290362e-06
9.888904e-07 8.802965e-08 2.0201672e-10 -6.210175e-10 8.954734e-06 -1.8792014e-05 5.597776e-06 -4.8680442e-05
-5.802188e-08 -2.2519694e-07 -1.5920677e-05 1.3410739e-06 4.0408498e-08 3.4498516e-06 7.3022e-07 2.0203802e-06
1.0206064e-06 -4.005755e-06 6.7485794e-06 -4.7872845e-07 -1.2678569e-06 -2.9803118e-07 -7.973488e-07 -5.4712684e-05
3.7177844e-07 3.7016798e-07 1.4419847e-07 2.5511034e-07 -1.5264666e-10 -7.872041e-06 1.4171275e-06 -1.7291275e-05
2.9493622e-05 -2.846082e-05 -2.298728e-09 0.00017410112 -2.8212067e-08 -6.424721e-14 1.2971152e-11 2.6081574e-07
-9.515797e-09 -2.8051566e-09 7.391981e-07 7.8204865e-09 1.9536284e-08 -1.9155259e-05 3.1834784e-07 -1.8604317e-07
1.0780528e-06 4.3425713e-05 4.5945117e-06 0.00012153982 -5.1502313e-05 -3.743854e-06 -3.4019697e-05 -3.5562078e-11
-1.4946037e-08 -1.6559143e-08 0.00021261128 1.4598958e-06 3.549321e-08 -2.7125709e-05 -1.14967725e-05 -2.0859602e-06
-3.374948e-07 4.829068e-08 3.9908067e-05 -1.2529913e-06 1.1050482e-09 -1.2859865e-05 -4.4335182e-05 7.781631e-06
-1.0605731e-06 -3.5344478e-09 -3.2088457e-07 1.6726833e-08 -2.2696138e-09 -4.6615694e-09 -1.1840554e-10 1.6218632e-07
1.0836807e-05 1.7360851e-06 -3.1288496e-09 -1.591234e-06 1.4833837e-12 -2.6041808e-12 7.323379e-10 -1.5216427e-06
00000000: 8b16 e335 4f7a 75b7 eefa ebb2 46ac 74b4
00000010: 9442 c92f a817 8135 e1b6 1137 f20c e938
00000020: 891a a3b7 9643 f835 52a6 94b5 7c46 0a38
00000030: baac e4b7 5804 89b6 ab9d 0cb5 16d1 a9ae
00000040: ea3d 2bb8 60b1 8fb5 24e0 7d38 96e7 b0b1
00000050: e032 05b4 cc54 f736 5685 5634 06a7 3f35
00000060: c4ed c8b7 0421 0fb4 2480 0eb3 f10c 50b6
00000070: 337f 31a7 dcb0 04b6 daa4 2c31 a85a 2fb4
00000080: 21e2 2930 8ac8 90b4 ea52 94b4 b6cb d9b2
00000090: a8fa 2e31 d4d0 5123 1c93 68b1 04bb 0130
000000a0: ad11 8534 071c 062f 4215 f837 14be ea2e
000000b0: daef f1b0 fa7d d4b6 8ce7 ae36 d225 42b3
000000c0: 04e5 9b31 d6b9 90b4 6546 1038 2012 7230
000000d0: a61d c035 5686 e1b1 3e3c a730 0a87 10b8
000000e0: caf7 b5b2 e558 a138 d232 9933 dfee 75b6
000000f0: f282 ccb6 a03c d334 32be 93b7 b81d 5bb3
00000100: e0f5 c333 3086 9db6 882b c52f 5a17 2bb5
00000110: 3d1a 1e2f 6147 25b6 401e 7235 010e fdb4
00000120: a0a9 7f2c 5452 8236 1045 9736 df5e b130
00000130: 08ef 6db5 f63f 10b6 4c54 79b5 5e26 6c34
00000140: 1947 0e37 b1a4 95b6 14cb b1b3 302d ea35
00000150: b053 93b6 2ee4 3533 2ca6 deaf c067 51b4
00000160: dc72 ce2c 50b4 fdb5 e0a4 24b4 a9a5 6836
00000170: 0166 1337 e19c bfb6 4961 62b5 458f 1b38
00000180: 6a91 88b7 fcda a7b4 4206 f237 0cd2 2bb6
00000190: 84e7 bdb3 8281 8737 6654 3937 bcd2 b936
000001a0: 6a00 1d38 5683 73b7 eaa9 fbb1 7a82 2837
000001b0: 9a76 4832 9870 7d35 917f 86b7 c862 3532
000001c0: 2d16 8db8 4ba4 f8b5 56ce f936 85ec 92b7
000001d0: 006c 0c34 f6e9 b4b7 743e db35 8019 edaf
000001e0: 9088 2eb6 80ef 3e31 34db c436 8252 26b5
000001f0: 1bae 04b5 70e5 1737 6c92 92b6 e0ea e435
00000200: 34be dc36 2cdb dd35 94ac 0637 ace4 8ab6
00000210: 5587 d535 ebd7 0933 464c 7e33 418d 5eb8
00000220: 639f 7837 4690 ffb1 e8c2 3531 40da 0b34
00000230: acd6 4bb1 b5dc 49b7 01f2 2bb6 4cc5 f536
00000240: d6f0 3aae 3c59 d7aa 9070 94b3 e85f 4228
00000250: fc02 1430 c768 45ae ac9b 8334 bd0b 1636
00000260: 17e8 b42e dff9 8132 4e4a 9538 9ca4 01b7
00000270: 9689 e8b5 32dc 83b3 658e 3c36 2312 4ab8
00000280: 49ba f537 80b2 5134 5e19 5bb6 02e3 d036
00000290: 554e cb36 ae85 8a36 c0b9 61b0 cc11 d3b6
000002a0: 04ba 8435 d00a bd33 a71e 5e2f 39b4 2ab0
000002b0: 4a3c 1637 8ba3 9db7 88d4 bb36 3a2e 4cb8
000002c0: bb33 79b3 aacd 71b4 658d 85b7 f3fe b335
000002d0: 9d8d 2d33 0084 6736 5604 4435 de95 0736
000002e0: c5fb 8835 2c69 86b6 db71 e236 f881 00b5
000002f0: 3b2b aab5 1801 a0b4 6409 56b5 4c7b 65b8
00000300: d798 c734 80bb c634 f9d4 1a34 19f6 8834
00000310: 37d6 27af 2912 04b7 2134 be35 bb0c 91b7
00000320: 1269 f737 25bf eeb7 a7f7 1db1 ea8e 3639
00000330: fe56 f2b2 ffab 90a9 e030 642d 3e06 8c34
00000340: eb7a 23b2 d6c4 40b1 4e6d 4635 dd5a 0632
00000350: bed0 a732 9baf a0b7 65e9 aa34 28c3 47b4
00000360: 9db1 9035 0124 3638 8e2a 9a36 32e3 fe38
00000370: 3004 58b8 ec3e 7bb6 5fb0 0eb8 5767 1cae
00000380: af62 80b2 f13d 8eb2 68f0 5e39 a3f1 c335
00000390: 3271 1833 048c e3b7 43e2 40b7 86fc 0bb6
000003a0: ef30 b5b4 2a68 4f33 f662 2738 742c a8b5
000003b0: 6de0 9730 b3c0 57b7 8af4 39b8 da8d 0237
000003c0: 0459 8eb5 aae2 72b1 0a46 acb4 b2ae 8f32
000003d0: 78f7 1bb1 992b a0b1 3230 02af 7025 2e34
000003e0: bbcf 3537 6e03 e935 4e03 57b1 6292 d5b5
000003f0: 88c4 d02b c040 37ac b34d 4930 3f3b ccb5

gate.gate_network.0.bias f4 [10]
-0.025952274 -0.010645355 -0.003957578 -0.0074673495 -0.006794349 -0.015622165 -0.008622289 -0.006651511
-0.011132281 -0.011341967
00000000: dd99 d4bc db69 2ebc 92ae 81bb abb0 f4bb
00000010: 21a3 debb 1cf4 7fbc 8044 0dbc ebf4 d9bb
00000020: 2c64 36bc a8d3 39bc

gate.gate_network.2.weight f4 [5, 10]
1.1179648e-14 8.249816e-11 5.3693868e-05 -1.9345497e-11 1.6913835e-07 -3.4766151e-06 -7.5667755e-10 -4.0853125e-09
-2.54118e-10 4.387645e-10 3.8696948e-05 9.598946e-07 1.0943836e-08 1.8069621e-10 -4.2046898e-07 -7.2383784e-08
-6.681912e-07 3.141249e-05 -1.2211603e-07 -4.044412e-06 8.079291e-09 1.938267e-06 4.5983185e-08 2.9219292e-08
-2.0080394e-08 -8.0505576e-09 -3.6969254e-08 5.9458544e-05 -2.3902912e-08 4.809737e-10 3.5086355e-06 4.3212185e-06
3.0627803e-06 2.7797114e-07 5.0356425e-06 -1.5749535e-08 3.6724375e-06 -9.825939e-05 2.7989804e-06 6.3276394e-07
-1.2250514e-06 1.0226961e-10 -5.7413768e-11 -1.858816e-11 4.4091508e-11 6.4338354e-05 4.2360532e-11 5.8211513e-06
-1.0319199e-10 -1.3432938e-08
00000000: 0765 4928 566a b52e 5a35 6138 302a aaad
00000010: 659c 3534 cb4f 69b6 73fe 4fb0 ca5e 8cb1
00000020: eeb3 8baf 9d36 f12f 884e 2238 bad5 8035
00000030: 8003 3c32 76ad 462f d1bc e1b4 6871 9bb3
00000040: c05d 33b5 e8c0 0338 001f 03b4 3cb5 87b6
00000050: 19cd 0a32 2c13 0236 0c7f 4533 e7fd fa32
00000060: 417d acb2 ba4e 0ab2 20c8 1eb3 2063 7938
00000070: 0f53 cdb2 8435 0430 e675 6b36 fcfe 9036
00000080: 2a8a 4d36 103c 9534 d7f7 a836 9849 87b2
00000090: ff73 7636 9c10 ceb8 1ed6 3b36 35db 2935
000000a0: 726c a4b5 ace4 e02e 2882 7cae d180 a3ad
000000b0: a0ea 412e 64ed 8638 b84d 3a2e 4f53 c336
000000c0: edeb e2ae b0c6 66b2

gate.gate_network.2.bias f4 [5]
1.3194886 3.5432029 -0.9337355 -0.80094266 -0.2766931
00000000: 01e5 a83f d6c3 6240 4a09 6fbf 940a 4dbf
00000010: b8aa 8dbe

backbone.layers.0.weight f4 [128, 40]
-0.025125906 -0.06039437 0.01226658 0.013910499 0.013910499 0.0060402597 0.112194 0.030227682
-0.021278543 -0.079791404 -0.025832644 0.002699975 0.043509245 -0.12702607 -0.022595314 -0.08129808
0.01706801 0.0009127887 0.0007859718 0.00043205335 0.00043930215 -0.014782181 -0.010467822 -0.016781053
0.033251353 0.017830323 0.017830322 -0.0038258482 -0.04053566 -0.05459093 -0.0012661421 0.010108934
-0.024446875 -0.0027757653 0.003126958 0.04816684 0.010076502 -0.060468316 -0.034337927 0.0023868834
-3.43374e-40 7.60088e-40 -3.667107e-39 1.709668e-39 1.709668e-39 -2.621811e-39 -1.786793e-39 8.89008e-40
6.10295e-40 -4.52126e-40 1.176617e-39 -1.451066e-39 -8.51297e-40 1.968184e-39 -9.78768e-40 -1.18492e-39
3.78462e-39 -3.267381e-39 -1.437973e-39 8.73732e-40 2.498323e-39 -1.152623e-39 -1.188053e-39 -1.125927e-39
1.181341e-39 1.220325e-39 9.34421e-40 1.278019e-39 3.673578e-39 4.36621e-40 6.8246e-40 -1.074066e-39
1.621274e-39 -2.805314e-39 -2.644474e-39 -5.1905e-41 -9.73907e-40 2.421448e-39 -1.60075e-39 -2.874907e-39
9.2355e-40 -4.82232e-40 -2.35626e-39 8.96056e-40 8.96056e-40 4.38699e-40 3.20904e-40 2.556453e-39
-2.49007e-40 -1.253463e-39 2.294179e-39 2.828393e-39 1.6507e-41 2.021998e-39 1.045926e-39 9.26732e-40
-7.53953e-40 1.874087e-39 -1.765202e-39 -6.86122e-40 4.1343e-41 -2.38561e-39 -3.58814e-40 -3.44236e-39
1.317483e-39 4.01592e-39 3.887563e-39 2.83774e-39 3.29109e-39 7.03462e-40 2.701234e-39 -2.122604e-39
2.494521e-39 2.832939e-39 2.633506e-39 -4.005215e-39 -2.354058e-39 1.03319e-40 -1.574891e-39 2.874516e-39
9.95012e-40 -1.321727e-39 5.78138e-40 -6.37794e-40 -1.291776e-39 3.02808e-39 -6.43862e-40 1.241147e-39
-3.493888e-39 -1.291027e-39 -3.052369e-39 -1.528147e-39 3.22287e-40 1.455093e-39 1.123445e-39 -2.152261e-39
-1.641344e-39 4.28388e-40 1.423484e-39 3.603735e-39 2.37156e-40 -8.76061e-40 -1.369835e-39 2.50928e-40
5.08811e-40 -6.96898e-40 2.358821e-39 1.339802e-39 1.24873e-39 -1.160278e-39 -1.752363e-39 -1.213515e-39
-1.302304e-39 1.204024e-39 1.467619e-39 -1.115068e-39 -1.40068e-39 -1.522324e-39 -9.36142e-40 -2.574878e-39
1.511292e-39 -3.408361e-39 1.395534e-39 1.53354e-40 1.82186e-40 -1.37663e-39 2.04268e-39 1.176368e-39
-6.30698e-40 -3.283352e-39 -2.246437e-39 -1.676045e-39 -3.530231e-39 3.49498e-40 5.55721e-40 -1.371222e-39
1.0366e-39 1.099557e-39 -4.18803e-40 2.365802e-39 1.162238e-39 -1.254842e-39 -2.421713e-39 -1.73817e-40
-7.121e-41 -8.15746e-40 1.015124e-39 -9.16082e-40 1.512742e-39 -1.437749e-39 -3.95808e-40 -1.602488e-39
2.84129e-39 1.363051e-39 1.353126e-39 -1.430395e-39 -1.621916e-39 -1.757375e-39 -8.48625e-40 1.396978e-39
-0.12685364 0.0047004297 0.018430296 0.0030434055 0.0030434055 -0.06169759 -0.029896673 -0.028488116
-0.011081852 0.056450963 -0.017392837 -0.0856219 -0.045061126 0.17375734 0.022876304 0.036011886
-0.023219863 -0.0020634925 -0.001809985 -0.001983195 -0.0020256068 0.007072904 0.0022480623 0.01708682
0.0014769045 -0.017107813 -0.017139552 0.007871035 0.042881176 0.04939173 0.0064997473 0.0014627771
0.03602982 -0.01371772 -0.022803932 -0.03268332 0.0019222191 -0.029655393 -0.013799699 -0.02159326
-0.14837797 0.03871781 -0.16537543 0.0034536747 0.0034536766 0.0051749153 -0.032291315 0.013872608
0.12828617 -0.007469232 0.020368772 0.09396832 0.012280775 0.2983977 0.060560625 0.040130377
00000000: d8d4 cdbc 1660 77bd c4f9 483c dde8 633c
00000010: dde8 633c 5fed c53b f8c5 e53d 0ba0 f73c
00000020: 5750 aebc ad69 a3bd fb9e d3bc 10f2 303b
00000030: c036 323d 1f13 02be cf19 b9bc 9c7f a6bd
00000040: 36d2 8b3c 3648 6f3a ad09 4e3a 3885 e239
00000050: 2352 e639 f630 72bc 3a81 2bbc 6b78 89bc
00000060: 9232 083d e610 923c e510 923c 15bb 7abb
00000070: b808 26bd bd9a 5fbd aef4 a5ba f19f 253c
00000080: d044 c8bc 9de9 35bb a6ed 4c3b 984a 453d
00000090: ea17 253c a0ad 77bd eda5 0cbd 426d 1c3b
000000a0: 30bd 0380 d146 0800 67ee 2780 dc9d 1200
000000b0: dc9d 1200 8b8c 1c80 da74 1380 31ae 0900
000000c0: 41a5 0600 58ec 0480 eecf 0c00 fbcc 0f80
000000d0: 1245 0980 7f6e 1500 68a8 0a80 13e7 0c80
000000e0: fb35 2900 2194 2380 7ca8 0f80 9c83 0900
000000f0: 4f34 1b00 0b8d 0c80 cfef 0c80 a042 0c80
00000100: 19dd 0c00 c549 0d00 c92c 0a00 99ea 0d00
00000110: 7100 2800 1fc1 0400 6c6e 0700 0fb2 0b80
00000120: 74a7 1100 138c 1e80 b8cb 1c80 b190 0080
00000130: db9a 0a80 035e 1a00 3d6e 1180 124e 1f80
00000140: 7b0e 0a00 4440 0580 4ba8 1980 d7c1 0900
00000150: d7c1 0900 eac6 0400 8d7e 0300 5ad6 1b00
00000160: 21b6 0280 25a6 0d80 3dfb 1800 69cc 1e00
00000170: 042e 0000 8204 1600 9e63 0b00 5a17 0a00
00000180: b735 0880 3168 1400 aa38 1380 a178 0780
00000190: 3f73 0000 1cfa 1980 3ae8 0380 e67b 2580
000001a0: 9b58 0e00 c0ba 2b00 f254 2a00 77e6 1e00
000001b0: 38d6 2300 f7a8 0700 f169 1d00 f51c 1780
000001c0: b629 1b00 15d9 1e00 25ad 1c00 e99c 2b80
000001d0: 28a2 1980 0320 0100 2826 1180 fb4c 1f00
000001e0: b0d5 0a00 7064 0e80 9d4b 0600 e9f1 0680
000001f0: f210 0e80 0ef9 2000 d302 0780 d083 0d00
00000200: 8a0b 2680 dc0e 0e80 c33c 2180 daa3 1080
00000210: 6882 0300 35d8 0f00 b53b 0c00 a16f 1780
00000220: 66df 1180 2caa 0400 1880 0f00 bf3d 2700
00000230: 1895 0200 1a8a 0980 8bea 0e80 7cbb 0200
00000240: 5c8a 0500 ab96 0780 6faf 1900 d396 0e00
00000250: f498 0d00 62a2 0c80 e014 1380 c936 0d80
00000260: 4b2e 0e80 541c 0d00 20fb 0f00 5b24 0c80
00000270: 8740 0f80 9f93 1080 9531 0a80 b609 1c80
00000280: de74 1000 201d 2580 2e32 0f00 7dab 0100
00000290: dcfb 0100 7cfd 0e80 293e 1600 3ccf 0c00
000002a0: 21de 0680 a6c0 2380 2776 1880 2240 1280
000002b0: d970 2680 42ce 0300 200d 0600 69ee 0e80
000002c0: 9e49 0b00 1ef9 0b00 748f 0480 e5c2 1900
000002d0: d9a7 0c00 fda9 0d80 c05e 1a80 88e4 0180
000002e0: 81c6 0080 f8e1 0880 c10d 0b00 aaf9 0980
000002f0: e978 1000 dca7 0f80 5a4f 0480 1673 1180
00000300: 5cf0 1e00 a2d7 0e00 f7bb 0e00 5c93 0f80
00000310: 3ea9 1180 d922 1380 9f3d 0980 3536 0f00
00000320: ece5 01be 1006 9a3b 22fb 963c df73 473b
00000330: df73 473b 9db6 7cbd dee9 f4bc e95f e9bc
00000340: a890 35bc 2039 673d 6c7b 8ebc 895a afbd
00000350: 0492 38bd 72ed 313e 1667 bb3c 3381 133d
00000360: 9537 bebc a93b 07bb 053d edba 7ef8 01bb
00000370: 0bc0 04bb d2c3 e73b 3a54 133b a9f9 8b3c
00000380: b194 c13a af25 8cbc 3f68 8cbc 83f5 003c
00000390: 2ca4 2f3d fc4e 4a3d d5fb d43b a8ba bf3a
000003a0: 0194 133d 4ac0 60bc 50cf babc f2de 05bd
000003b0: f8f2 fb3a deef f2bc 2218 62bc 59e4 b0bc
000003c0: 65f0 17be 9196 1e3d 2d58 29be 0c57 623b
000003d0: 1457 623b 5692 a93b e643 04bd ef49 633c
000003e0: 735d 033e 76c0 f4bb 69dc a63c 7672 c03d
000003f0: 4e35 493c 95c7 983e 6b0e 783d c05f 243d

backbone.layers.0.bias f4 [128]
0.27648386 -0.2472593 -0.038800336 -0.043158498 -0.06235383 0.016954241 -0.10099506 -0.09076747
-0.17391215 0.22930443 -0.19433512 0.38596925 0.06625481 -0.20461416 -0.012611531 -0.10396022
0.04784401 -0.04889201 -0.12986118 0.36055645 -0.09877319 -0.16052471 0.34889212 -0.035911266
0.31049716 -0.031889755 -0.078149535 -0.041505195 0.37268618 -0.11289732 0.33923113 0.37135527
-0.0062517487 -0.09450962 -0.060311466 0.32483786 -0.12743577 -0.10920081 -0.110983066 -0.059066467
-0.075429365 -0.063606754 0.030954944 -0.037233125 -0.13949732 0.36554354 -0.10125284 -0.07109298
0.34241745 -0.03543828 0.050041154 0.2787029 -0.20352238 -0.11413236 0.34095013 0.06912958
-0.15935096 -0.15193261 0.04003109 -0.038672317 -0.060768504 -0.053292766 -0.15852237 -0.08736314
0.23515414 -0.015579496 0.030891879 -0.05045144 0.052309312 -0.11886766 -0.0025771856 -0.111731686
-0.014053015 0.32937768 0.049061354 0.040249202 -0.13655423 0.27791342 -0.22053833 -0.0011459647
-0.0451289 -0.049706332 -0.28187642 0.356653 -0.103010416 0.37020946 0.36974823 -0.034552716
0.34914815 -0.08102849 -0.23579034 0.042530715 -0.06574091 -0.042429484 -0.15291111 -0.06076205
-0.03605508 -0.09785113 -0.110728174 -0.04917321 -0.047720045 0.023123192 -0.089244194 -0.09116987
-0.2091854 -0.006578294 0.36330232 -0.016244141 -0.16385025 0.37080106 -0.08725144 -0.025275093
-0.020548223 -0.04623135 -0.20041744 0.15919264 -0.05042828 -0.1233927 -0.055080764 0.4308057
0.26971027 -0.1784138 -0.006467014 -0.060909502 -0.010539376 0.1786955 0.32823148 -0.11636557
00000000: 4b8f 8d3e 8b31 7dbe 1aed 1ebd f7c6 30bd
00000010: bb66 7fbd 9fe3 8a3c 7fd6 cebd 4ce4 b9bd
00000020: 0716 32be c8ce 6a3e c9ff 46be c39d c53e
00000030: 9ab0 873d 6086 51be 98a0 4ebc 19e9 d4bd
00000040: 15f8 433d fd42 48bd 54fa 04be db9a b83e
00000050: 9949 cabd 9760 24be fda1 b23e b117 13bd
00000060: 7cf9 9e3e d59e 02bd dd0c a0bd 5a01 2abd
00000070: b9d0 be3e b636 e7bd b4af ad3e 4722 be3e
00000080: 78db ccbb 428e c1bd 2809 77bd 2651 a63e
00000090: 867e 02be ada4 dfbd 174b e3bd aeef 71bd
000000a0: b67a 9abd 4244 82bd 3995 fd3c c381 18bd
000000b0: 63d8 0ebe 8628 bb3e a65d cfbd 3299 91bd
000000c0: 5751 af3e bb27 11bd f4f7 4c3d 26b2 8e3e
000000d0: 2c68 50be 3abe e9bd 0491 ae3e cf93 8d3d
000000e0: e62c 23be 3994 1bbe a4f7 233d dd66 1ebd
000000f0: 65e8 78bd 8449 5abd b053 22be 72eb b2bd
00000100: 3fcc 703e 2441 7fbc f710 fd3c 2ba6 4ebd
00000110: 4a42 563d e370 f3bd 00e6 28bb 95d3 e4bd
00000120: 9e3e 66bc 31a4 a83e 8ff4 483d 59dc 243d
00000130: dfd4 0bbe ab4a 8e3e cdd4 61be 3234 96ba
00000140: 15d9 38bd de98 4bbd 1b52 90be 399b b63e
00000150: 20f7 d2bd 188c bd3e a44f bd3e 2687 0dbd
00000160: 8cc3 b23e 44f2 a5bd 0673 71be b034 2e3d
00000170: 2ca3 86bd 8aca 2dbd bb94 1cbe a1e1 78bd
00000180: 7eae 13bd 2c66 c8bd 74c5 e2bd d969 49bd
00000190: 1876 43bd d96c bd3c a9c5 b6bd 45b7 babd
000001a0: b334 56be bb8e d7bb c302 ba3e 6f12 85bc
000001b0: 5cc8 27be a3d9 bd3e e2b0 b2bd b60d cfbc
000001c0: bf54 a8bc 165d 3dbd 3b3a 4dbe 6503 233e
000001d0: e28d 4ebd 50b5 fcbd 5e9c 61bd 9192 dc3e
000001e0: 7717 8a3e 1bb2 36be 3fe9 d3bb 3e7c 79bd
000001f0: 59ad 2cbc f4fb 363e f50d a83e 1251 eebd

backbone.layers.1.weight f4 [64, 128]
2.321741e-39 2.807615e-39 2.809217e-39 -8.22153e-40 -4.20409e-40 1.741511e-39 1.171665e-39 -2.051044e-39
1.562865e-39 -1.113393e-39 5.21263e-40 2.816353e-39 2.706651e-39 -6.50174e-40 -4.71356e-40 -1.491269e-39
2.485483e-39 -1.344352e-39 2.792765e-39 1.436583e-39 -2.66771e-40 -3.78786e-40 -1.073252e-39 -5.9591e-40
1.57795e-40 -1.756214e-39 -1.820865e-39 4.9171e-40 -3.290047e-39 5.11757e-40 2.188342e-39 3.392593e-39
5.80935e-40 1.386768e-39 -1.220298e-39 -1.430311e-39 -1.947167e-39 1.418537e-39 3.0028e-39 9.89028e-40
-3.20469e-40 1.71788e-40 6.30821e-40 6.91978e-40 2.541253e-39 3.554957e-39 1.638872e-39 -4.60664e-40
8.7174e-40 -1.3018e-40 -1.231405e-39 3.048614e-39 1.231402e-39 -9.16487e-40 1.943785e-39 -2.676383e-39
-1.97513e-40 -5.69408e-40 1.09535e-39 6.94947e-40 -1.671354e-39 2.486414e-39 -1.398136e-39 3.673354e-39
-1.189028e-39 -1.71941e-40 -2.65025e-40 -1.606796e-39 2.776042e-39 -2.682524e-39 -2.228568e-39 3.56085e-40
-3.244396e-39 3.440366e-39 3.894989e-39 3.400977e-39 -1.780644e-39 -3.734141e-39 -1.6112e-40 -2.183657e-39
-2.417547e-39 5.61107e-40 -5.45336e-40 -3.210434e-39 1.228806e-39 -2.717168e-39 -3.643e-41 1.990693e-39
2.75396e-40 -3.528378e-39 6.79184e-40 -2.36865e-39 2.788207e-39 1.652275e-39 1.691449e-39 3.510438e-39
6.3962e-40 -1.528592e-39 -3.272066e-39 -1.523537e-39 -1.686163e-39 -9.05471e-40 -1.06465e-39 -1.676155e-39
-5.46677e-40 3.648423e-39 -2.03383e-40 -2.714531e-39 7.51379e-40 8.2049e-40 8.28099e-40 3.045693e-39
-1.613056e-39 -2.41948e-40 -3.362802e-39 1.121276e-39 -1.220437e-39 7.12602e-40 -3.30093e-40 -2.320447e-39
1.37877e-40 1.147128e-39 2.731715e-39 -7.8833e-41 1.656224e-39 1.427779e-39 -3.6423e-40 -1.466743e-39
-0.024342647 -4.3856e-41 -2.339765e-39 -7.06889e-40 -2.049958e-39 0.033129524 0.06386825 -2.661887e-39
-0.004621218 -0.014060933 -2.457615e-39 -0.009404321 0.05359012 0.0027872147 0.036002576 6.50267e-40
0.046246693 9.07059e-40 -1.796106e-39 -0.01580918 0.049587134 0.00020059262 -0.00444045 -3.986015e-39
-0.0105674155 1.359718e-39 -2.143268e-39 -2.752231e-39 -0.010905277 -1.447606e-39 -0.025937393 -0.011234998
-3.9399e-41 -9.15087e-40 3.04676e-40 -0.016099362 -0.009412757 -1.89923e-39 2.2274e-39 -1.642823e-39
5.84407e-40 1.144972e-39 0.03185302 1.3161e-41 1.523315e-39 -0.027849114 -1.048365e-39 -2.189791e-39
-0.0040596165 -3.404626e-39 0.049973615 -0.0125419935 3.821407e-39 -7.76497e-40 -0.010262542 0.049616378
0.0023971256 6.34832e-40 0.03837872 -1.062162e-39 1.067398e-39 1.419291e-39 -1.615598e-39 -3.335572e-39
-0.0034240822 7.4906e-41 0.036438875 -2.28172e-39 0.038778964 1.875101e-39 0.039011896 3.466754e-39
0.040630385 -0.007905744 0.040830817 -0.0076258015 -3.656613e-39 -0.010649584 -1.093691e-39 -1.968089e-39
2.842929e-39 -1.66034e-40 -0.009856922 -0.016728576 1.177176e-39 -0.018837756 -0.021515457 -8.8193e-40
-0.0048819967 -1.313523e-39 0.051661987 0.04361488 1.254727e-39 1.454207e-39 -2.70613e-40 -1.150243e-39
-9.78074e-40 -3.093469e-39 5.66795e-39 -1.925903e-39 1.67507e-40 0.048585106 -1.361312e-39 -1.731035e-39
-0.013376795 0.04891236 -0.014943302 1.564327e-39 -3.932444e-39 -0.017181698 8.45636e-40 4.12769e-40
-1.945563e-39 1.651719e-39 7.44981e-40 0.005462286 -3.758302e-39 -1.020266e-39 -1.61388e-40 -0.011995516
-0.009536575 -0.006599697 1.22955e-39 -1.9505e-41 3.94251e-40 -0.0066120806 -0.0153781315 1.749059e-39
00000000: 1248 1900 7d92 1e00 f496 1e00 d4f3 0880
00000010: ee93 0480 a0f6 1200 20c2 0c00 7a55 1680
00000020: a204 1100 b01f 0c80 12ad 0500 d9aa 1e00
00000030: 0b79 1d00 6c14 0780 f321 0580 0d3d 1080
00000040: 8410 1b00 82a3 0e80 1869 1e00 9ca4 0f00
00000050: a6e7 0280 e71f 0480 caaf 0b80 287d 0680
00000060: deb7 0100 9c1f 1380 d5d3 1380 b05a 0500
00000070: 50d3 2380 9292 0500 35d4 1700 2bf1 2400
00000080: 6953 0600 bf19 0f00 b249 0d80 2093 0f80
00000090: e933 1580 4e72 0f00 96b2 2000 02c5 0a00
000000a0: 567d 0380 e0de 0100 79de 0600 f488 0700
000000b0: fbab 1b00 c6b5 2600 82d8 1100 2504 0580
000000c0: 0e7e 0900 e46a 0180 a868 0d80 4c32 2100
000000d0: a668 0d00 cbfa 0980 7b2a 1500 ab24 1d80
000000e0: 9626 0280 4733 0680 64ed 0b00 3b91 0700
000000f0: 0e33 1280 1c13 1b00 6f39 0f80 d1ff 2700
00000100: 87f2 0c80 4ddf 0180 c8e2 0280 187f 1180
00000110: 7a3a 1e00 c935 1d80 5744 1880 9fe0 0300
00000120: 0e54 2380 5776 2500 a569 2a00 8a08 2500
00000130: b663 1380 44a9 2880 23c1 0180 26c7 1780
00000140: 2353 1a80 231c 0600 2df0 0580 62f5 2280
00000150: 6961 0d00 5c96 1d80 8d65 0080 3ead 1500
00000160: b1ff 0200 af6b 2680 4a65 0700 d5ca 1980
00000170: 635c 1e00 dffd 1100 126b 1200 ac39 2600
00000180: 00f7 0600 18a5 1080 30a1 2380 0097 1080
00000190: 565c 1280 16dc 0980 d097 0b80 7040 1280
000001a0: eaf3 0580 52ba 2700 f336 0280 028f 1d80
000001b0: 8a2e 0800 31ef 0800 6704 0900 272a 2100
000001c0: 8b90 1180 74a2 0280 209e 2480 a935 0c00
000001d0: 154a 0d80 72c2 0700 2a98 0380 7644 1980
000001e0: 5880 0100 ba7d 0c00 e9be 1d00 c1db 0080
000001f0: e108 1200 118c 0f00 53f7 0380 aff8 0f80
00000200: 3b6a c7bc 417a 0080 507a 1980 85b2 0780
00000210: 7352 1680 d3b2 073d 5bcd 823d 42fc 1c80
00000220: 966d 97bb d45f 66bc d5c2 1a80 9514 1abc
00000230: 5081 5b3d b4a9 363b 7077 133d ae14 0700
00000240: 2c6d 3d3d 83e0 0900 d08e 1380 4182 81bc
00000250: e11b 4b3d 2c56 5239 3281 91bb 6367 2b80
00000260: f422 2dbc 57ce 0e00 8f56 1780 1af8 1d80
00000270: 0cac 32bc 56c3 0f80 a87a d4bc ff12 38bc
00000280: d46d 0080 e4f6 0980 5051 0300 cfe2 83bc
00000290: f737 1abc 48ae 1480 1641 1800 86e3 1180
000002a0: 175d 0600 b777 0c00 5078 023d b024 0000
000002b0: 6296 1000 d323 e4bc 6a6a 0b80 3fd8 1780
000002c0: 8806 85bb b612 2580 22b1 4c3d ef7c 4dbc
000002d0: 879c 2900 8f74 0880 3924 28bc 8b3a 4b3d
000002e0: 1819 1d3b a7e9 0600 0133 1d3d e090 0b80
000002f0: 799f 0b00 6874 0f00 a197 1180 3852 2480
00000300: 9166 60bb cfd0 0000 ee40 153d 82d8 1880
00000310: b1d6 1e3d 056b 1400 f0ca 1f3d e6bf 2500
00000320: 0c6c 263d 1887 01bc 373e 273d dce1 f9bb
00000330: 26d1 2780 987b 2ebc c4e8 0b80 3b6e 1580
00000340: eef4 1e00 d6ce 0180 ed7e 21bc 5e0a 89bc
00000350: 7dd1 0c00 a351 9abc 2f41 b0bc 769a 0980
00000360: 28f9 9fbb 914d 0e80 859b 533d 84a5 323d
00000370: aba9 0d00 bdd5 0f00 5cf2 0280 6986 0c80
00000380: 79a6 0a80 55af 2180 f0b7 3d00 a2f8 1480
00000390: f1d2 0100 2d01 473d c9d2 0e80 6cd9 1280
000003a0: 582a 5bbc 5458 483d c0d4 74bc b508 1100
000003b0: 0ed2 2a80 a2c0 8cbc 4a35 0900 a27e 0400
000003c0: 702f 1580 52fc 1100 b41c 0800 fafc b23b
000003d0: 9eec 2880 161c 0b80 e2c1 0180 d788 44bc
000003e0: 4b3f 1cbc 4542 d8bb 7c63 0d00 5f36 0080
000003f0: 034b 0400 27aa d8bb 8ff4 7bbc aa0b 1300

backbone.layers.1.bias f4 [64]
-0.00012378184 0.106421195 -0.0008857947 -0.025380572 -0.0102460785 0.053327013 0.07444456 -0.00053162634
0.10284288 0.10616455 0.017140603 0.06046208 0.10146357 -0.049935643 0.08732066 0.12002591
0.07648323 0.111297674 -0.012717197 0.0550829 -0.0005780758 -0.012218262 0.05664246 0.0951356
0.09499908 -2.9530531e-06 -0.09117931 -0.008139598 0.04350092 0.11537468 0.089764684 0.1297389
0.0679371 -0.0402209 0.09127839 0.063165724 -0.019933272 0.07041047 -0.012944484 -0.0012787418
0.11711068 -0.0026733538 0.04939735 -0.0015340975 -0.0050883833 0.09517045 0.033028215 -0.00034494046
0.096524104 0.07954976 0.10989412 0.07162728 -0.011579586 0.07088831 0.0898437 0.036114722
-0.003591469 -0.00060934474 -0.04641211 -0.08059416 0.097420454 0.068812765 -0.025520725 0.07237155
00000000: 6fcb 01b9 5bf3 d93d ad34 68ba ebea cfbc
00000010: 2bdf 27bc 6d6d 5a3d 6476 983d d75c 0bba
00000020: 4a9f d23d cd6c d93d 736a 8c3c 16a7 773d
00000030: 22cc cf3d 5189 4cbd 2dd5 b23d 25d0 f53d
00000040: 3da3 9c3d 09f0 e33d ca5b 50bc 9b9e 613d
00000050: 038a 17ba 1b2f 48bc ed01 683d 74d6 c23d
00000060: e18e c23d 112d 46b6 38bc babd f35b 05bc
00000070: 052e 323d 8f49 ec3d 8cd6 b73d 46da 043e
00000080: 9b22 8b3d acbe 24bd 2af0 ba3d 085d 813d
00000090: 1a4b a3bc 5d33 903d 1a15 54bc 749b a7ba
000000a0: b9d7 ef3d 6f33 2fbb e054 4a3d c513 c9ba
000000b0: 74bc a6bb bae8 c23d 9848 073d 20d9 b4b9
000000c0: 6eae c53d fcea a23d 2b10 e13d 53b1 923d
000000d0: 4eb8 3dbc e42d 913d f9ff b73d 08ed 133d
000000e0: da5e 6bbb 6fbc 1fba a01a 3ebd 8d0e a5bd
000000f0: 6084 c73d b5ed 8c3d d710 d1bc 8937 943d

backbone.output_layer.weight f4 [2, 64]
-5.33308e-40 -0.12391033 1.352864e-39 1.073191e-39 -1.380655e-39 0.17163365 0.15762255 1.493623e-39
0.18809 0.18472457 -0.1706678 0.176221 0.2004371 -1.417835e-39 -0.16216545 0.19755551
0.18682261 -0.12650348 1.291683e-39 -0.1368705 -2.377153e-39 -1.838757e-39 0.16214693 0.18976477
-0.10016725 1.1243e-40 1.393324e-39 -3.60054e-40 -0.1796548 0.20877235 0.21336569 0.1842297
0.17795148 -1.559974e-39 -0.124389604 -0.1614946 3.006123e-39 -0.138968 2.186781e-39 -3.756898e-39
0.19160569 1.235609e-39 -0.19977155 -3.78106e-39 1.217939e-39 0.18382733 -0.20628996 2.38629e-40
-0.124445505 -0.13822475 -0.13487174 -0.12728469 1.159468e-39 0.19367364 0.18295784 -0.19919679
1.282816e-39 1.22851e-39 3.591182e-39 1.298225e-39 -0.12221563 0.18416116 2.161912e-39 0.18811479
8.50012e-40 0.12683108 2.001521e-39 1.023061e-39 -1.310022e-39 -0.17163365 -0.15762267 1.340691e-39
-0.18809006 -0.18472455 0.17065307 -0.17622097 -0.20043701 -1.403493e-39 0.16220978 -0.1975555
-0.18682262 0.1270679 1.608319e-39 0.13703546 -2.745794e-39 -1.65943e-39 -0.16214693 -0.18976471
0.100144394 -8.0285e-41 -1.413874e-39 1.00329e-40 0.17963178 -0.20877239 -0.21336567 -0.18422821
-0.17795148 -1.655816e-39 0.12323809 0.16162142 3.203124e-39 0.13885413 3.251932e-39 3.792571e-39
-0.19160564 1.365302e-39 0.19977978 4.986801e-39 1.228619e-39 -0.18382734 0.20627628 -3.53976e-40
0.12405674 0.13775656 0.13696477 0.1272706 1.216598e-39 -0.19367364 -0.18295787 0.19925068
1.36448e-39 1.185955e-39 2.537508e-39 1.697321e-39 0.121795595 -0.18416114 1.923564e-39 -0.18811479
00000000: a5ce 0580 b3c4 fdbd 3cbb 0e00 9faf 0b00
00000010: b408 0f80 bbc0 2f3e ce67 213e 9d43 1000
00000020: aa9a 403e 7028 3d3e 8ac3 2ebe 4773 343e
00000030: 623f 4d3e 5970 0f80 b30e 26be fe4b 4a3e
00000040: 6d4e 3f3e 218a 01be b010 0e00 c827 0cbe
00000050: 89e2 1980 b505 1480 d809 263e b251 423e
00000060: 7d24 cdbd 6939 0100 052c 0f00 afeb 0380
00000070: 6ef7 37be 6bc8 553e 897c 5a3e b6a6 3c3e
00000080: ea38 363e 93fc 1080 fabf febd d75e 25be
00000090: d9bb 2000 a14d 0ebe dbcf 1700 b4e8 2880
000000a0: 4834 443e 6074 0d00 ea90 4cbe 0f2c 2980
000000b0: 1e43 0d00 3b3d 3c3e ad3d 53be 3399 0200
000000c0: 49dd febd ca8a 0dbe d11b 0abe eb56 02be
000000d0: 20a0 0c00 6252 463e 4d59 3b3e 3efa 4bbe
000000e0: f8f7 0d00 9660 0d00 c11a 2700 ec22 0e00
000000f0: 304c fabd be94 3c3e 888a 1700 2aa1 403e
00000100: 7d41 0900 02e0 013e 6dcb 1500 e123 0b00
00000110: cf43 0e80 bbc0 2fbe d667 21be 4d99 0e00
00000120: ae9a 40be 6f28 3dbe aebf 2e3e 4573 34be
00000130: 5c3f 4dbe 5e48 0f80 521a 263e fd4b 4abe
00000140: 6e4e 3fbe 161e 023e 5783 1100 0653 0c3e
00000150: 28e6 1d80 d111 1280 d809 26be ae51 42be
00000160: 8118 cd3d cddf 0080 4e65 0f80 ad17 0100
00000170: 65f1 373e 6ec8 55be 887c 5abe 52a6 3cbe
00000180: ea38 36be be07 1280 4064 fc3d 1680 253e
00000190: 02e1 2200 c72f 0e3e 1069 2300 254c 2900
000001a0: 4534 44be e8dd 0e00 1293 4c3e 2c4d 3600
000001b0: e460 0d00 3c3d 3cbe 173a 533e beda 0380
000001c0: 7611 fe3d 0e10 0d3e 7e40 0c3e 3953 023e
000001d0: 613f 0d00 6252 46be 4f59 3bbe 5f08 4c3e
000001e0: 9ddb 0e00 f6e9 0c00 8aa1 1b00 717b 1200
000001f0: f86f f93d bd94 3cbe 1df2 1400 2aa1 40be

backbone.output_layer.bias f4 [2]
-0.5418856 0.5418856
00000000: 04b9 0abf 04b9 0a3f
