Project_2/training_results_processes_2_full/checkpoints/best_model.pth (torch, 188149 bytes, 30 tensors)

gate.gate_network.0.weight f4 [10, 40]
0	0xb2e82c11	-2.7028394e-08
1	0x34247a81	1.5318257e-07
2	0x338cc597	6.5551994e-08
3	0xaab64946	-3.2380538e-13
4	0x316660c0	3.35244e-09
5	0xaf2cffac	-1.5734142e-10
6	0xb44370cc	-1.8201825e-07
7	0xaba38b3c	-1.1620492e-12
8	0xb0c086ec	-1.4008186e-09
9	0xb35909ae	-5.0533053e-08
10	0x3604e8a0	1.9804938e-06
11	0xb12dbd3a	-2.5282376e-09
12	0x30ac2bbb	1.2527076e-09
13	0x3405c99d	1.2459937e-07
14	0xb5421924	-7.2307216e-07
15	0xb303e9bc	-3.0713394e-08
16	0x30ed42c0	1.7262991e-09
17	0xb254316e	-1.2351263e-08
18	0x3135ed5e	2.6473894e-09
19	0xb32bcd96	-4.000102e-08
20	0x32927a86	1.7052354e-08
21	0x32b9395c	2.1562919e-08
22	0x2e9927c1	6.964696e-11
23	0x34eb6b32	4.3850156e-07
24	0xadba835c	-2.1204087e-11
25	0xae2cbfe8	-3.927872e-11
26	0x309de8ae	1.1489385e-09
27	0xb2eae0f4	-2.7343482e-08
28	0x33fbe5d2	1.17299024e-07
29	0x35acf37c	1.2885862e-06
30	0x30fc76de	1.8369197e-09
31	0xb3aa4f29	-7.930641e-08
32	0x31438d76	2.8456646e-09
33	0x32c4c568	2.2907173e-08
34	0xafea0c80	-4.2573234e-10
35	0xb718db3d	-9.110951e-06
36	0xb4449058	-1.8306434e-07
37	0xab5ce20f	-7.847342e-13
38	0x2c530dd0	2.999257e-12
39	0x2d665f54	1.30951534e-11
40	0xb1fc44c2	-7.341982e-09
41	0xb58e2664	-1.0590998e-06
42	0x35c002f3	1.4305973e-06
43	0x32116ed3	8.465309e-09
44	0xb317c2e0	-3.5334665e-08
45	0xb4663418	-2.1439371e-07
46	0x33420682	4.5175064e-08
47	0xb4737865	-2.2674938e-07
48	0x33e53a07	1.06741986e-07
49	0xb1358db8	-2.6419524e-09
50	0x3616d401	2.2475144e-06
51	0xb5232fe0	-6.07919e-07
52	0xb71e48b9	-9.434466e-06
53	0xb6c9f000	-6.0182065e-06
54	0x3108e172	1.9918756e-09
55	0x328073b1	1.4953772e-08
56	0xb73a4ecc	-1.110481e-05
57	0xb50c9a24	-5.237837e-07
58	0x30100ee7	5.240807e-10
59	0x34b1bc43	3.3105798e-07
60	0x34d0177c	3.8760106e-07
61	0x31ffd7dd	7.4460176e-09
62	0xb4c6cb6e	-3.7028389e-07
63	0x2d02ce8c	7.435507e-12
64	0x32c011b8	2.23598e-08
65	0x32055c1a	7.76256e-09
66	0x314484c7	2.859723e-09
67	0xaee5158c	-1.0417542e-10
68	0xb425df68	-1.5448097e-07
69	0x3194dc33	4.3324007e-09
70	0x364cd138	3.052015e-06
71	0x3507eb1b	5.063354e-07
72	0x329f00be	1.8510374e-08
73	0xb345d226	-4.6058766e-08
74	0xb7836a84	-1.5666017e-05
75	0x302f4404	6.3761285e-10
76	0xb08085dc	-9.351271e-10
77	0x30c05510	1.3994015e-09
78	0x2fc27fb0	3.5379122e-10
79	0xb40de547	-1.3215059e-07
80	0x2a072df9	1.2006359e-13
81	0xb20bb420	-8.1318206e-09
82	0x34c9a6a0	3.7560403e-07
83	0xb389e153	-6.420546e-08
84	0x31f7f040	7.2159594e-09
85	0x3128821a	2.4521172e-09
86	0x33731978	5.660101e-08
87	0xb3231368	-3.7969045e-08
88	0xb5882ad7	-1.0145258e-06
89	0xb52f020e	-6.519557e-07
90	0x30c5e088	1.4397452e-09
91	0xac55c410	-3.0377957e-12
92	0x2a1de3b4	1.4023402e-13
93	0xb416089a	-1.3972968e-07
94	0x33c6e606	9.2619345e-08
95	0xaa255446	-1.4684182e-13
96	0xa9928e2e	-6.508367e-14
97	0xb5a85ca0	-1.2543933e-06
98	0xb513deb8	-5.5085866e-07
99	0xaf7d2ead	-2.3026799e-10
100	0x330d3498	3.2876954e-08
101	0xb29de071	-1.837927e-08
102	0x361022d1	2.1477938e-06
103	0x2fc04f97	3.4981149e-10
104	0x35d4cf10	1.5855494e-06
105	0x3232d068	1.040835e-08
106	0xb555ad50	-7.9600886e-07
107	0xb712f71b	-8.759812e-06
108	0xb0c6f34c	-1.4475545e-09
109	0x3118c658	2.2231657e-09
110	0xadf138a8	-2.7423688e-11
111	0xb389d416	-6.418138e-08
112	0x30d02dcc	1.5147008e-09
113	0x36ef041e	7.1232344e-06
114	0xb31e42df	-3.684806e-08
115	0x30bb30e2	1.3619934e-09
116	0xb2129da2	-8.53416e-09
117	0x34375e16	1.7077431e-07
118	0x33b7d078	8.559522e-08
119	0xb627886a	-2.4964343e-06
120	0xb7783da3	-1.4796303e-05
121	0xb001a4cc	-4.7164117e-10
122	0x31ae5320	5.0735167e-09
123	0x321b33e0	9.0339825e-09
124	0xb43547ec	-1.6883104e-07
125	0xb47c7c36	-2.3514517e-07
126	0x2ec642ee	9.0158866e-11
127	0x3498124a	2.8325513e-07
128	0xb5b9f0f2	-1.3853698e-06
129	0xb5f253e5	-1.8054822e-06
130	0xaa7a868d	-2.2251142e-13
131	0x33c0fbd6	8.9865054e-08
132	0xb5620214	-8.4194585e-07
133	0xb2b5bd00	-2.115712e-08
134	0xb0121aae	-5.3152405e-10
135	0x31a19998	4.7031783e-09
136	0x2b4ff830	7.38856e-13
137	0x306c4434	8.595322e-10
138	0xb0498290	-7.3308914e-10
139	0x263aac20	6.4764986e-16
140	0x36112cc2	2.1632736e-06
141	0x30141dda	5.388451e-10
142	0x33f767e4	1.15207314e-07
143	0x32d2d121	2.4542318e-08
144	0x2c49fed2	2.8705272e-12
145	0x2fa250c0	2.9525005e-10
146	0x2cdf0590	6.3386588e-12
147	0xb1936073	-4.289228e-09
148	0xb07449d1	-8.887158e-10
149	0x2cc8f6ec	5.7117557e-12
150	0x308ac650	1.0097185e-09
151	0x3231a673	1.0340602e-08
152	0x2bef59f3	1.7006937e-12
153	0x33eac640	1.09325356e-07
154	0x3386e150	6.280845e-08
155	0x3579544c	9.2882397e-07
156	0xb3f9ccf6	-1.1632248e-07
157	0xad718798	-1.3729372e-11
158	0x3412f4ac	1.368632e-07
159	0xb3ecfc6a	-1.103552e-07
160	0x2c9e4f88	4.49946e-12
161	0x35899e58	1.025338e-06
162	0x327f4af6	1.4859998e-08
163	0xb761b90a	-1.3454128e-05
164	0x378a4508	1.6483027e-05
165	0xabb7c234	-1.3056834e-12
166	0x34a1b8a4	3.012293e-07
167	0x36f5e628	7.3283627e-06
168	0x35a7d0cf	1.2503241e-06
169	0xb0c66587	-1.4435252e-09
170	0x353f963a	7.1371653e-07
171	0x3480b1b8	2.3971165e-07
172	0xb5a1f90a	-1.2067915e-06
173	0xb285a01f	-1.5556052e-08
174	0xa7159022	-2.0756038e-15
175	0xb57bb060	-9.3761446e-07
176	0xadffb5b2	-2.9070833e-11
177	0x28649c80	1.2690478e-14
178	0x362a18ec	2.534648e-06
179	0x3255ae02	1.2437797e-08
180	0x336d8860	5.5304895e-08
181	0x2fd6ad69	3.9049589e-10
182	0xb4691ede	-2.1711045e-07
183	0x32826f17	1.518451e-08
184	0xacdc1f04	-6.2562195e-12
185	0x3587a23c	1.01055e-06
186	0x32776070	1.439922e-08
187	0xb5db4175	-1.6335822e-06
188	0x308308f7	9.534052e-10
189	0xb5f7fc3e	-1.8476346e-06
190	0x280033f8	7.116696e-15
191	0x2e292392	3.8457744e-11
192	0x31e0b1f2	6.539488e-09
193	0x33a258ed	7.5598884e-08
194	0xb61d35da	-2.3426169e-06
195	0xaa31898b	-1.5768478e-13
196	0x35f7b050	1.8454248e-06
197	0xad92d128	-1.6691162e-11
198	0xb54cd5bf	-7.6306964e-07
199	0xb696dee3	-4.496296e-06
200	0x301abe21	5.6295063e-10
201	0x2dabed26	1.9545764e-11
202	0x347ca0b0	2.3527787e-07
203	0xb0628e10	-8.2420204e-10
204	0xb708e167	-8.158712e-06
205	0x365acfa8	3.2605403e-06
206	0x2ff803b0	4.5113557e-10
207	0xb6958f3e	-4.4572216e-06
208	0xb1debb50	-6.4823453e-09
209	0xb5b32bc2	-1.3349274e-06
210	0x32695da8	1.358368e-08
211	0x320f91d8	8.3568565e-09
212	0xad661958	-1.3079614e-11
213	0xb45d56ca	-2.0613803e-07
214	0x30970067	1.098681e-09
215	0xb586a27c	-1.0031067e-06
216	0x34a9088e	3.1484927e-07
217	0x2d2a4798	9.679278e-12
218	0x2cac5be8	4.8987377e-12
219	0x3525f70f	6.182681e-07
220	0x355e9748	8.292159e-07
221	0x32d209e3	2.4451714e-08
222	0xb3609730	-5.229157e-08
223	0xb3bb11a6	-8.711076e-08
224	0x3181698a	3.7663925e-09
225	0xb1ab8bb0	-4.9926356e-09
226	0xad28be60	-9.591966e-12
227	0x32a7ca42	1.9533335e-08
228	0x2fb11ea2	3.2217878e-10
229	0x3679f5be	3.7246932e-06
230	0xb1bfe4fc	-5.584864e-09
231	0x31dbe31b	6.3995578e-09
232	0x3440867a	1.7930316e-07
233	0x33a592d1	7.710117e-08
234	0xb3bc80f0	-8.777886e-08
235	0xab8cc887	-1.0003256e-12
236	0x35dc5dc3	1.6418566e-06
237	0x344aa868	1.8873982e-07
238	0x3436ee02	1.7036658e-07
239	0x3648459a	2.9842836e-06
240	0x30833814	9.547443e-10
241	0x32385480	1.0729423e-08
242	0x35edf374	1.772873e-06
243	0xb484e27c	-2.4751705e-07
244	0xb5425647	-7.239618e-07
245	0x34dff222	4.1713162e-07
246	0x339c3300	7.273593e-08
247	0xaee880e6	-1.05730355e-10
248	0xad2f02e8	-9.948244e-12
249	0x36d97688	6.480903e-06
250	0x32772f13	1.4387996e-08
251	0x341fc96a	1.4881303e-07
252	0xabcfb3a4	-1.4758095e-12
253	0x330636c1	3.1249105e-08
254	0x354fecae	7.7457923e-07
255	0xaf11a622	-1.3246695e-10

gate.gate_network.0.bias f4 [10]
0	0xbcd4afd6	-0.025962751
1	0xbc2e7fd4	-0.010650594
2	0xbb7d7b05	-0.0038678062
3	0xbbf4c6a4	-0.007469969
4	0xbbdeb906	-0.006796959
5	0xbc800a15	-0.015629807
6	0xbc0d5a79	-0.008627527
7	0xbbda0ae4	-0.0066541303
8	0xbc367a25	-0.01113752
9	0xbc39e9a1	-0.011347205

gate.gate_network.2.weight f4 [5, 10]
0	0x358dc67e	1.0563087e-06
1	0xab637896	-8.0813947e-13
2	0xb5b1a67a	-1.3235979e-06
3	0xb653e366	-3.1573813e-06
4	0xb69571c5	-4.4537906e-06
5	0x2fd5e968	3.891032e-10
6	0xb5502d3f	-7.755188e-07
7	0x370440af	7.882873e-06
8	0x358fb7a5	1.0707778e-06
9	0x356dacf5	8.8541066e-07
10	0xb438c1a6	-1.7206784e-07
11	0x334ffd28	4.8426188e-08
12	0xb0837280	-9.564047e-10
13	0xb37be414	-5.8647927e-08
14	0x341a6f12	1.4382775e-07
15	0x349d1b10	2.926322e-07
16	0x333a4570	4.3369653e-08
17	0x27a9cd6c	4.712964e-15
18	0xb6e8befe	-6.936373e-06
19	0x3301d002	3.0224335e-08
20	0x31b153b0	5.160892e-09
21	0x3279980a	1.4528277e-08
22	0x2f41240c	1.7566054e-10
23	0xb0e6a3fb	-1.6781309e-09
24	0xafd711c0	-3.9120884e-10
25	0xb36f1b88	-5.5671563e-08
26	0xb6edd4a3	-7.0879046e-06
27	0x31906ead	4.203534e-09
28	0x3021c47c	5.885068e-10
29	0xb36a9e2e	-5.4626234e-08
30	0xb00eaba0	-5.1903193e-10
31	0x2ea08b08	7.3006545e-11
32	0x3322659c	3.7810977e-08
33	0x3411c895	1.3577149e-07
34	0x292a3860	3.779648e-14
35	0x36d99ce8	6.4853702e-06
36	0xb2a90832	-1.9677916e-08
37	0xb423fc68	-1.5272383e-07
38	0xb692bf7a	-4.37343e-06
39	0xaf001034	-1.1647289e-10
40	0x2c946e02	4.2186263e-12
41	0x2ea2cf88	7.403772e-11
42	0x2df1c73e	2.748701e-11
43	0x338698b2	6.2676364e-08
44	0xb58f638e	-1.0683304e-06
45	0xaec4180e	-8.917321e-11
46	0xb20bdd40	-8.141171e-09
47	0xb7099e1e	-8.202651e-06
48	0x35828146	9.723378e-07
49	0x334a3b40	4.7085678e-08

gate.gate_network.2.bias f4 [5]
0	0x3f9b027e	1.2110136
1	0x4055bb13	3.339543
2	0xbf67c350	-0.905324
3	0xbf4a35a8	-0.7898812
4	0xbee65e42	-0.44993788

backbone.layers.0.weight f4 [128, 40]
0	0xbc605d15	-0.0136940675
1	0xbd6ba858	-0.057533592
2	0x3ca76504	0.02043391
3	0x3c39df92	0.011344807
4	0x3c39df92	0.011344807
5	0x3ad933cb	0.0016571222
6	0x3d6d0d78	0.057874173
7	0x3d10dc18	0.035366148
8	0xbcb0f434	-0.02160082
9	0xbd9d5475	-0.076821245
10	0xbc1c84cc	-0.009553146
11	0xbc0d0efb	-0.008609529
12	0x3d2b6c60	0.0418514
13	0xbd94ad80	-0.07259655
14	0xbc762478	-0.015023343
15	0xbd38d2ec	-0.045123026
16	0x3bdef70c	0.0068043526
17	0x3a60d266	0.00085762737
18	0x3a60ffe1	0.0008583051
19	0x3ab67878	0.00139214
20	0x3a294046	0.0006456416
21	0xbc79d273	-0.015247929
22	0xbbc249fb	-0.0059292293
23	0xbc7db635	-0.015485336
24	0x3cd9d79d	0.02659207
25	0x3c892ebf	0.016745923
26	0x3c892ebd	0.01674592
27	0xbbe5fc27	-0.0070185843
28	0xbccd341a	-0.025049258
29	0xbcddb9b0	-0.027066082
30	0xbafae238	-0.0019140905
31	0x3b983b1c	0.0046457183
32	0xbcc30b64	-0.023809142
33	0xbb998120	-0.0046845824
34	0xba9fdc62	-0.0012196417
35	0x3cf7103d	0.03015911
36	0x3b866aca	0.0041020857
37	0xbd3dd895	-0.046349127
38	0xbcb7bba7	-0.022428347
39	0xbae0f923	-0.0017164092
40	0x8003bd30	-3.43374e-40
41	0x000846d1	7.60088e-40
42	0x8027ee67	-3.667107e-39
43	0x00129ddc	1.709668e-39
44	0x00129ddc	1.709668e-39
45	0x801c8c8b	-2.621811e-39
46	0x801374da	-1.786793e-39
47	0x0009ae31	8.89008e-40
48	0x0006a541	6.10295e-40
49	0x8004ec58	-4.52126e-40
50	0x000ccfee	1.176617e-39
51	0x800fccfb	-1.451066e-39
52	0x80094512	-8.51297e-40
53	0x00156e7f	1.968184e-39
54	0x800aa868	-9.78768e-40
55	0x800ce713	-1.18492e-39
56	0x002935fb	3.78462e-39
57	0x80239421	-3.267381e-39
58	0x800fa87c	-1.437973e-39
59	0x0009839c	8.73732e-40
60	0x001b344f	2.498323e-39
61	0x800c8d0b	-1.152623e-39
62	0x800cefcf	-1.188053e-39
63	0x800c42a0	-1.125927e-39
64	0x000cdd19	1.181341e-39
65	0x000d49c5	1.220325e-39
66	0x000a2cc9	9.34421e-40
67	0x000dea99	1.278019e-39
68	0x00280071	3.673578e-39
69	0x0004c11f	4.36621e-40
70	0x00076e6c	6.8246e-40
71	0x800bb20f	-1.074066e-39
72	0x0011a774	1.621274e-39
73	0x801e8c13	-2.805314e-39
74	0x801ccbb8	-2.644474e-39
75	0x800090b1	-5.1905e-41
76	0x800a9adb	-9.73907e-40
77	0x001a5e03	2.421448e-39
78	0x80116e3d	-1.60075e-39
79	0x801f4e12	-2.874907e-39
80	0x000a0e7b	9.2355e-40
81	0x80054044	-4.82232e-40
82	0x8019a84b	-2.35626e-39
83	0x0009c1d7	8.96056e-40
84	0x0009c1d7	8.96056e-40
85	0x0004c6ea	4.38699e-40
86	0x00037e8d	3.20904e-40
87	0x001bd65a	2.556453e-39
88	0x8002b621	-2.49007e-40
89	0x800da625	-1.253463e-39
90	0x0018fb3d	2.294179e-39
91	0x001ecc69	2.828393e-39
92	0x00002e04	1.6507e-41
93	0x00160482	2.021998e-39
94	0x000b639e	1.045926e-39
95	0x000a175a	9.26732e-40
96	0x800835b7	-7.53953e-40
97	0x00146831	1.874087e-39
98	0x801338aa	-1.765202e-39
99	0x800778a1	-6.86122e-40
100	0x0000733f	4.1343e-41
101	0x8019fa1c	-2.38561e-39
102	0x8003e83a	-3.58814e-40
103	0x80257be6	-3.44236e-39
104	0x000e589b	1.317483e-39
105	0x002bbac0	4.01592e-39
106	0x002a54f2	3.887563e-39
107	0x001ee677	2.83774e-39
108	0x0023d638	3.29109e-39
109	0x0007a8f7	7.03462e-40
110	0x001d69f1	2.701234e-39
111	0x80171cf5	-2.122604e-39
112	0x001b29b6	2.494521e-39
113	0x001ed915	2.832939e-39
114	0x001cad25	2.633506e-39
115	0x802b9ce9	-4.005215e-39
116	0x8019a228	-2.354058e-39
117	0x00012003	1.03319e-40
118	0x80112628	-1.574891e-39
119	0x001f4cfb	2.874516e-39
120	0x000ad5b0	9.95012e-40
121	0x800e6470	-1.321727e-39
122	0x00064b9d	5.78138e-40
123	0x8006f1e9	-6.37794e-40
124	0x800e10f2	-1.291776e-39
125	0x0020f90e	3.02808e-39
126	0x800702d3	-6.43862e-40
127	0x000d83d0	1.241147e-39
128	0x80260b8a	-3.493888e-39
129	0x800e0edc	-1.291027e-39
130	0x80213cc3	-3.052369e-39
131	0x8010a3da	-1.528147e-39
132	0x00038268	3.22287e-40
133	0x000fd835	1.455093e-39
134	0x000c3bb5	1.123445e-39
135	0x80176fa1	-2.152261e-39
136	0x8011df66	-1.641344e-39
137	0x0004aa2c	4.28388e-40
138	0x000f8018	1.423484e-39
139	0x00273dbf	3.603735e-39
140	0x00029518	2.37156e-40
141	0x80098a1a	-8.76061e-40
142	0x800eea8b	-1.369835e-39
143	0x0002bb7c	2.50928e-40
144	0x00058a5c	5.08811e-40
145	0x800796ab	-6.96898e-40
146	0x0019af6f	2.358821e-39
147	0x000e96d3	1.339802e-39
148	0x000d98f4	1.24873e-39
149	0x800ca262	-1.160278e-39
150	0x801314e0	-1.752363e-39
151	0x800d36c9	-1.213515e-39
152	0x800e2e4b	-1.302304e-39
153	0x000d1c54	1.204024e-39
154	0x000ffb20	1.467619e-39
155	0x800c245b	-1.115068e-39
156	0x800f4087	-1.40068e-39
157	0x8010939f	-1.522324e-39
158	0x800a3195	-9.36142e-40
159	0x801c09b6	-2.574878e-39
160	0x001074de	1.511292e-39
161	0x80251d20	-3.408361e-39
162	0x000f322e	1.395534e-39
163	0x0001ab7d	1.53354e-40
164	0x0001fbdc	1.82186e-40
165	0x800efd7c	-1.37663e-39
166	0x00163e29	2.04268e-39
167	0x000ccf3c	1.176368e-39
168	0x8006de21	-6.30698e-40
169	0x8023c0a6	-3.283352e-39
170	0x80187627	-2.246437e-39
171	0x80124022	-1.676045e-39
172	0x802670d9	-3.530231e-39
173	0x0003ce42	3.49498e-40
174	0x00060d20	5.55721e-40
175	0x800eee69	-1.371222e-39
176	0x000b499e	1.0366e-39
177	0x000bf91e	1.099557e-39
178	0x80048f74	-4.18803e-40
179	0x0019c2e5	2.365802e-39
180	0x000ca7d9	1.162238e-39
181	0x800da9fd	-1.254842e-39
182	0x801a5ec0	-2.421713e-39
183	0x8001e488	-1.73817e-40
184	0x8000c681	-7.121e-41
185	0x8008e1f8	-8.15746e-40
186	0x000b0dc1	1.015124e-39
187	0x8009f9aa	-9.16082e-40
188	0x001078e9	1.512742e-39
189	0x800fa7dc	-1.437749e-39
190	0x80044f5a	-3.95808e-40
191	0x80117316	-1.602488e-39
192	0x001ef05c	2.84129e-39
193	0x000ed7a2	1.363051e-39
194	0x000ebbf7	1.353126e-39
195	0x800f935c	-1.430395e-39
196	0x8011a93e	-1.621916e-39
197	0x801322d9	-1.757375e-39
198	0x80093d9f	-8.48625e-40
199	0x000f3635	1.396978e-39
200	0xbde677ea	-0.112533405
201	0x3c00b81b	0.007856394
202	0x3d13caa5	0.03608193
203	0x3aabc7b3	0.001310578
204	0x3aabc7b3	0.001310578
205	0xbd5d44c2	-0.05402065
206	0xbc85b572	-0.016321871
207	0xbca28074	-0.019836642
208	0x3ac7fb49	0.0015257384
209	0x3d68fac4	0.056879774
210	0xbc8a0106	-0.016846191
211	0xbda4196d	-0.08012662
212	0xbcf89c8e	-0.030348089
213	0x3e254e2d	0.16143103
214	0x3c956a16	0.018239062
215	0x3cdc3a3d	0.026883239
216	0xbc170c86	-0.009219294
217	0x3a184220	0.0005808193
218	0x3a2ec24e	0.0006666527
219	0x3a1f4d70	0.0006076908
220	0x3a1b9122	0.0005934407
221	0x3c2972b5	0.01034229
222	0x3a07d472	0.0005181498
223	0x3c3ad603	0.011403563
224	0x392e1074	0.00016600062
225	0xbc3772ee	-0.011196835
226	0xbc381ead	-0.011237782
227	0x3cbdf211	0.023186715
228	0x3c91718b	0.017754337
229	0x3d050b6c	0.032481596
230	0x3a6b8ab0	0.00089852046
231	0xbc1b0b40	-0.009463131
232	0x3cf54b7c	0.02994322
233	0x3b9d4731	0.0047997464
234	0xbaf8dc27	-0.0018986509
235	0xbcfdc29f	-0.030976592
236	0xbc1d67f0	-0.0096073
237	0xbd194baf	-0.037425693
238	0xbbabc520	-0.005242005
239	0xba997d84	-0.001171038
240	0xbe3126fb	-0.17300026
241	0x3d4e4e03	0.050367367
242	0xbe428772	-0.18996981
243	0x3ca628c2	0.020283107
244	0x3ca628ca	0.020283122
245	0xbbe7533b	-0.0070594824
246	0xbc9a4eec	-0.018836461
247	0x3c8e44a6	0.017366719
248	0x3df6447a	0.120247796
249	0xbc4a700d	-0.012355817
250	0x3ca5fdb1	0.020262571
251	0x3daf4ae4	0.08559206
252	0x3bc0d677	0.005884941
253	0x3e9633e1	0.29336455
254	0x3d615e15	0.055021364
255	0x3d055680	0.032553196

backbone.layers.0.bias f4 [128]
0	0x3e8cf145	0.27527824
1	0xbe7d4784	-0.24734312
2	0xbd1f0313	-0.03882129
3	0xbd30dcf0	-0.043179452
4	0xbd7f7cb4	-0.062374786
5	0x3cdab5ac	0.026697956
6	0xbdc09d33	-0.09404983
7	0xbdb9fa45	-0.09080938
8	0xbe26480f	-0.16238426
9	0x3e6dce81	0.23223306
10	0xbe4715c2	-0.19441894
11	0x3ed39e64	0.4133178
12	0x3d710d94	0.05885084
13	0xbe3a9d6a	-0.18224111
14	0xbc7b0bad	-0.015322608
15	0xbdd4ff12	-0.10400213
16	0x3d169250	0.03676063
17	0xbd4858f6	-0.048912965
18	0xbe05104d	-0.129945
19	0x3eb90cb8	0.36142516
20	0xbdbe49e8	-0.0929144
21	0xbe0f890a	-0.1401712
22	0x3eaff783	0.34368524
23	0xbd132daa	-0.03593222
24	0x3ea2012b	0.31641516
25	0xbd02b4ce	-0.03191071
26	0xbda022d6	-0.078191444
27	0xbd2a1753	-0.04152615
28	0x3ecc14b5	0.39859548
29	0xbde74caf	-0.11293923
30	0x3eac0190	0.33594942
31	0x3ec38a5e	0.38191503
32	0xbbccf171	-0.006254368
33	0xbdc1a43b	-0.094551526
34	0xbd771f21	-0.06033242
35	0x3ea4d13c	0.32190883
36	0xbdc261a3	-0.09491279
37	0xbddfbaa6	-0.10924272
38	0xbde36110	-0.111024976
39	0xbd7205a7	-0.05908742
40	0xbd9a90af	-0.075471275
41	0xbd825a3b	-0.06364866
42	0x3cef27ac	0.029193722
43	0xbd1897bc	-0.03725408
44	0xbe0eee5c	-0.13958114
45	0x3eb89069	0.36047676
46	0xbdcf739f	-0.10129475
47	0xbd91af2b	-0.07113489
48	0x3eb45efe	0.35228723
49	0xbd113db4	-0.035459235
50	0x3d44e137	0.048066344
51	0x3e930bec	0.28720033
52	0xbe507e25	-0.2036062
53	0xbde9d433	-0.11417427
54	0x3eae7f28	0.34081388
55	0x3d844a7d	0.0645952
56	0xbe0221b2	-0.12708166
57	0xbe1baa32	-0.15201643
58	0x3d47cbdc	0.0487784
59	0xbd1e7cd6	-0.03869327
60	0xbd78fe5e	-0.06078946
61	0xbd5a5f7d	-0.05331372
62	0xbe2269a9	-0.15860619
63	0xbdb3016b	-0.08740505
64	0x3e796d51	0.24358107
65	0xbc7f571d	-0.015584734
66	0x3d50db2c	0.05099027
67	0xbd4ebc24	-0.050472394
68	0x3d5f5a7b	0.05452965
69	0xbdf386dc	-0.11890957
70	0x3cae927b	0.021310082
71	0xbde4e98e	-0.111773595
72	0xbacbfa08	-0.0015562186
73	0x3eb1dcc0	0.3473873
74	0x3d5a2f2e	0.05326765
75	0x3dab6532	0.08368911
76	0xbe0bead8	-0.13663805
77	0x3e920951	0.28522733
78	0xbe61eac6	-0.22062215
79	0xba964a2b	-0.0011466196
80	0xbd38ef0e	-0.045149855
81	0xbd4baed7	-0.049727287
82	0xbe8f3b6f	-0.27975032
83	0x3eb8e089	0.36108807
84	0xbdd30d19	-0.103052326
85	0x3ebdb90e	0.37055248
86	0x3ec1c57d	0.37845984
87	0xbd0d9d1f	-0.03457367
88	0x3eb25acb	0.34834895
89	0xbda6083d	-0.0810704
90	0xbe6ae03b	-0.229371
91	0x3d069281	0.03285456
92	0xbd86b925	-0.06578282
93	0xbd2de083	-0.04245044
94	0xbe1caab4	-0.15299493
95	0xbd78f79a	-0.060783006
96	0xbd13c477	-0.036076035
97	0xbdc87c25	-0.09789304
98	0xbde2db6d	-0.110770084
99	0xbd497fd2	-0.049194165
100	0xbd438c11	-0.047741
101	0x3d049512	0.032368727
102	0xbdb6dba2	-0.089286104
103	0xbdbacd3e	-0.09121178
104	0xbe52f360	-0.20600653
105	0xbc22d189	-0.009937652
106	0x3ebf6c91	0.37387517
107	0xbc852868	-0.016254619
108	0xbe27de55	-0.16393407
109	0x3ed066c4	0.40703404
110	0xbdb2c6db	-0.08729335
111	0xbccf23af	-0.02528557
112	0xbca86ab8	-0.0205587
113	0xbd3d730f	-0.046252307
114	0xbe4d5034	-0.20050126
115	0x3e2a268c	0.16616267
116	0xbd4ea3db	-0.050449234
117	0xbdfccb49	-0.12343461
118	0xbd61b257	-0.05510172
119	0x3ede54ad	0.43423977
120	0x3e8b2a58	0.27180743
121	0xbe3d9d77	-0.185171
122	0xbbd3ff38	-0.0064696334
123	0xbd799237	-0.060930457
124	0xbc2cc352	-0.010544615
125	0x3e43f317	0.191357
126	0x3ea9dcf9	0.331764
127	0xbdee670b	-0.11640748

backbone.layers.1.weight f4 [64, 128]
0	0x00194812	2.321741e-39
1	0x001e927d	2.807615e-39
2	0x001e96f4	2.809217e-39
3	0x8008f3d4	-8.22153e-40
4	0x800493ee	-4.20409e-40
5	0x0012f6a0	1.741511e-39
6	0x000cc220	1.171665e-39
7	0x8016557a	-2.051044e-39
8	0x001104a2	1.562865e-39
9	0x800c1fb0	-1.113393e-39
10	0x0005ad12	5.21263e-40
11	0x001eaad9	2.816353e-39
12	0x001d790b	2.706651e-39
13	0x8007146c	-6.50174e-40
14	0x800521f3	-4.71356e-40
15	0x80103d0d	-1.491269e-39
16	0x001b1084	2.485483e-39
17	0x800ea382	-1.344352e-39
18	0x001e6918	2.792765e-39
19	0x000fa49c	1.436583e-39
20	0x8002e7a6	-2.66771e-40
21	0x80041fe7	-3.78786e-40
22	0x800bafca	-1.073252e-39
23	0x80067d28	-5.9591e-40
24	0x0001b7de	1.57795e-40
25	0x80131f9c	-1.756214e-39
26	0x8013d3d5	-1.820865e-39
27	0x00055ab0	4.9171e-40
28	0x8023d350	-3.290047e-39
29	0x00059292	5.11757e-40
30	0x0017d435	2.188342e-39
31	0x0024f12b	3.392593e-39
32	0x00065369	5.80935e-40
33	0x000f19bf	1.386768e-39
34	0x800d49b2	-1.220298e-39
35	0x800f9320	-1.430311e-39
36	0x801533e9	-1.947167e-39
37	0x000f724e	1.418537e-39
38	0x0020b296	3.0028e-39
39	0x000ac502	9.89028e-40
40	0x80037d56	-3.20469e-40
41	0x0001dee0	1.71788e-40
42	0x0006de79	6.30821e-40
43	0x000788f4	6.91978e-40
44	0x001babfb	2.541253e-39
45	0x0026b5c6	3.554957e-39
46	0x0011d882	1.638872e-39
47	0x80050425	-4.60664e-40
48	0x00097e0e	8.7174e-40
49	0x80016ae4	-1.3018e-40
50	0x800d68a8	-1.231405e-39
51	0x0021324c	3.048614e-39
52	0x000d68a6	1.231402e-39
53	0x8009facb	-9.16487e-40
54	0x00152a7b	1.943785e-39
55	0x801d24ab	-2.676383e-39
56	0x80022696	-1.97513e-40
57	0x80063347	-5.69408e-40
58	0x000bed64	1.09535e-39
59	0x0007913b	6.94947e-40
60	0x8012330e	-1.671354e-39
61	0x001b131c	2.486414e-39
62	0x800f396f	-1.398136e-39
63	0x0027ffd1	3.673354e-39
64	0x800cf287	-1.189028e-39
65	0x8001df4d	-1.71941e-40
66	0x8002e2c8	-2.65025e-40
67	0x80117f18	-1.606796e-39
68	0x001e3a7a	2.776042e-39
69	0x801d35c9	-2.682524e-39
70	0x80184457	-2.228568e-39
71	0x0003e09f	3.56085e-40
72	0x8023540e	-3.244396e-39
73	0x00257657	3.440366e-39
74	0x002a69a5	3.894989e-39
75	0x0025088a	3.400977e-39
76	0x801363b6	-1.780644e-39
77	0x8028a944	-3.734141e-39
78	0x8001c123	-1.6112e-40
79	0x8017c726	-2.183657e-39
80	0x801a5323	-2.417547e-39
81	0x00061c23	5.61107e-40
82	0x8005f02d	-5.45336e-40
83	0x8022f562	-3.210434e-39
84	0x000d6169	1.228806e-39
85	0x801d965c	-2.717168e-39
86	0x8000658d	-3.643e-41
87	0x0015ad3e	1.990693e-39
88	0x0002ffb1	2.75396e-40
89	0x80266baf	-3.528378e-39
90	0x0007654a	6.79184e-40
91	0x8019cad5	-2.36865e-39
92	0x001e5c63	2.788207e-39
93	0x0011fddf	1.652275e-39
94	0x00126b12	1.691449e-39
95	0x002639ac	3.510438e-39
96	0x0006f700	6.3962e-40
97	0x8010a518	-1.528592e-39
98	0x8023a130	-3.272066e-39
99	0x80109700	-1.523537e-39
100	0x80125c56	-1.686163e-39
101	0x8009dc16	-9.05471e-40
102	0x800b97d0	-1.06465e-39
103	0x80124070	-1.676155e-39
104	0x8005f3ea	-5.46677e-40
105	0x0027ba52	3.648423e-39
106	0x800236f3	-2.03383e-40
107	0x801d8f02	-2.714531e-39
108	0x00082e8a	7.51379e-40
109	0x0008ef31	8.2049e-40
110	0x00090467	8.28099e-40
111	0x00212a27	3.045693e-39
112	0x8011908b	-1.613056e-39
113	0x8002a274	-2.41948e-40
114	0x80249e20	-3.362802e-39
115	0x000c35a9	1.121276e-39
116	0x800d4a15	-1.220437e-39
117	0x0007c272	7.12602e-40
118	0x8003982a	-3.30093e-40
119	0x80194476	-2.320447e-39
120	0x00018058	1.37877e-40
121	0x000c7dba	1.147128e-39
122	0x001dbee9	2.731715e-39
123	0x8000dbc1	-7.8833e-41
124	0x001208e1	1.656224e-39
125	0x000f8c11	1.427779e-39
126	0x8003f753	-3.6423e-40
127	0x800ff8af	-1.466743e-39
128	0xbc826235	-0.01591597
129	0x80007a41	-4.3856e-41
130	0x80197a50	-2.339765e-39
131	0x8007b285	-7.06889e-40
132	0x80165273	-2.049958e-39
133	0x3d16503e	0.03669762
134	0x3d62e87e	0.055397503
135	0x801cfc42	-2.661887e-39
136	0xbcbe20fb	-0.023209086
137	0xbc25317a	-0.010082597
138	0x801ac2d5	-2.457615e-39
139	0xbc711505	-0.014714484
140	0x3d4e946c	0.050434515
141	0x3c883f30	0.016631693
142	0x3d58e430	0.05295199
143	0x000714ae	6.50267e-40
144	0x3d23f144	0.04002501
145	0x0009e083	9.07059e-40
146	0x80138ed0	-1.796106e-39
147	0xbcdc8234	-0.026917554
148	0x3d409260	0.047014594
149	0xbced6a8a	-0.028981466
150	0xbc2ce812	-0.010553377
151	0x802b6763	-3.986015e-39
152	0xbc3e5f18	-0.011619352
153	0x000ece57	1.359718e-39
154	0x8017568f	-2.143268e-39
155	0x801df81a	-2.752231e-39
156	0xbc8100f4	-0.015747525
157	0x800fc356	-1.447606e-39
158	0xbcf716ca	-0.030162234
159	0xbc5d0848	-0.013490744
160	0x80006dd4	-3.9399e-41
161	0x8009f6e4	-9.15087e-40
162	0x00035150	3.04676e-40
163	0xbc89ae90	-0.01680687
164	0x3bd8c01e	0.006614699
165	0x8014ae48	-1.89923e-39
166	0x00184116	2.2274e-39
167	0x8011e386	-1.642823e-39
168	0x00065d17	5.84407e-40
169	0x000c77b7	1.144972e-39
170	0x3d016572	0.031590886
171	0x000024b0	1.3161e-41
172	0x00109662	1.523315e-39
173	0xbce2f580	-0.027704954
174	0x800b6a6a	-1.048365e-39
175	0x8017d83f	-2.189791e-39
176	0xbc5dd59d	-0.013539699
177	0x802512b6	-3.404626e-39
178	0x3d3cd078	0.04609725
179	0xbc3e758b	-0.011624704
180	0x00299c87	3.821407e-39
181	0x8008748f	-7.76497e-40
182	0xbc51c1a9	-0.01280252
183	0x3d378472	0.044804044
184	0x3c56fa3b	0.013121183
185	0x0006e9a7	6.34832e-40
186	0x3d2caffe	0.042160027
187	0x800b90e0	-1.062162e-39
188	0x000b9f79	1.067398e-39
189	0x000f7468	1.419291e-39
190	0x801197a1	-1.615598e-39
191	0x80245238	-3.335572e-39
192	0xbc21f984	-0.009886149
193	0x0000d0cf	7.4906e-41
194	0x3d30df69	0.04318181
195	0x8018d882	-2.28172e-39
196	0x3d3f21e5	0.046663184
197	0x00146b05	1.875101e-39
198	0x3d2f0259	0.04272685
199	0x0025bfe6	3.466754e-39
200	0x3d2e84c3	0.04260708
201	0xbc3f9294	-0.011692662
202	0x3d1ca133	0.03823967
203	0x3b74b1be	0.0037337388
204	0x8027d126	-3.656613e-39
205	0xbc7c08a9	-0.015382924
206	0x800be8c4	-1.093691e-39
207	0x80156e3b	-1.968089e-39
208	0x001ef4ee	2.842929e-39
209	0x8001ced6	-1.66034e-40
210	0x3c81ddb6	0.01585279
211	0xbc7870f7	-0.015163652
212	0x000cd17d	1.177176e-39
213	0xbce077d3	-0.027400887
214	0xbc4a21f9	-0.012337201
215	0x80099a76	-8.8193e-40
216	0xbc29e807	-0.010370261
217	0x800e4d91	-1.313523e-39
218	0x3d216c76	0.039410077
219	0x3d20cbf4	0.039257005
220	0x000da9ab	1.254727e-39
221	0x000fd5bd	1.454207e-39
222	0x8002f25c	-2.70613e-40
223	0x800c8669	-1.150243e-39
224	0x800aa679	-9.78074e-40
225	0x8021af55	-3.093469e-39
226	0x003db7f0	5.66795e-39
227	0x8014f8a2	-1.925903e-39
228	0x0001d2f1	1.67507e-40
229	0x3d47596d	0.048669267
230	0x800ed2c9	-1.361312e-39
231	0x8012d96c	-1.731035e-39
232	0xbcd6c36f	-0.026216237
233	0x3d50bbe0	0.05096042
234	0xbc7ed2e6	-0.015553212
235	0x001108b5	1.564327e-39
236	0x802ad20e	-3.932444e-39
237	0xbc85b27f	-0.016320465
238	0x0009354a	8.45636e-40
239	0x00047ea2	4.12769e-40
240	0x80152f70	-1.945563e-39
241	0x0011fc52	1.651719e-39
242	0x00081cb4	7.44981e-40
243	0xbc02c783	-0.007982138
244	0x8028ec9e	-3.758302e-39
245	0x800b1c16	-1.020266e-39
246	0x8001c1e2	-1.61388e-40
247	0xbc884211	-0.016633065
248	0xbc6c7604	-0.014432434
249	0xbc9485e4	-0.01813025
250	0x000d637c	1.22955e-39
251	0x8000365f	-1.9505e-41
252	0x00044b03	3.94251e-40
253	0xbb8726d3	-0.0041245013
254	0xbcc9ac87	-0.0246184
255	0x00130baa	1.749059e-39

backbone.layers.1.bias f4 [64]
0	0xb901e168	-0.00012386369
1	0x3de1351d	0.10996459
2	0xba684aa6	-0.0008861221
3	0xbcd000e4	-0.02539105
4	0xbc27f524	-0.010251317
5	0x3dbd2f1b	0.092375
6	0x3dba20f5	0.09088317
7	0xba0b72d0	-0.00053195376
8	0x3dfa1c19	0.122123905
9	0x3ddffb0d	0.10936556
10	0x3caa500c	0.020790122
11	0x3dc4bf22	0.09606768
12	0x3da810da	0.08206339
13	0xbd4c9f4a	-0.049956597
14	0x3d96d5fd	0.07365034
15	0x3de2120c	0.110385984
16	0x3d2c0ec2	0.04200626
17	0x3e04f380	0.12983513
18	0xbc5071c3	-0.012722435
19	0x3d99ba36	0.0750622
20	0xba179ffc	-0.00057840324
21	0xbc484514	-0.012223501
22	0x3d72465e	0.05914914
23	0x3da1bf0e	0.07897769
24	0x3dccf4f1	0.10007656
25	0xb646430a	-2.954332e-06
26	0xbdbad231	-0.09122122
27	0xbc0571ec	-0.008144837
28	0x3d27c107	0.04095557
29	0x3dbdff1e	0.09277175
30	0x3dc41c0a	0.095756605
31	0x3e01b711	0.1266749
32	0x3dacac4c	0.084313005
33	0xbd24d4a5	-0.040241856
34	0x3e00395a	0.12521878
35	0x3d84b0f0	0.06479061
36	0xbca36113	-0.01994375
37	0x3d99db05	0.07512478
38	0xbc542b13	-0.012949723
39	0xbaa7b16d	-0.0012793966
40	0x3ddeb567	0.108744435
41	0xbb2f4968	-0.0026746634
42	0x3cf9ff9d	0.030517394
43	0xbac929be	-0.0015347523
44	0xbba6d26d	-0.0050910027
45	0x3d8822b9	0.06647248
46	0x3c71e2e3	0.014763567
47	0xb9b4ef19	-0.00034510417
48	0x3dd45058	0.10366887
49	0x3dc0aee4	0.09408358
50	0x3de22fac	0.11044249
51	0x3d9a18fa	0.07524295
52	0xbc3dce47	-0.011584825
53	0x3d66de2f	0.056364235
54	0x3da56e82	0.08077718
55	0x3cde9042	0.027168397
56	0xbb6b74d3	-0.0035927787
57	0xba1fd268	-0.00060967216
58	0xbd3e3099	-0.046433065
59	0xbda52486	-0.08063607
60	0x3dfe5c9a	0.12420006
61	0x3dcad64a	0.09904154
62	0xbcd126d0	-0.025531203
63	0x3db91381	0.09036923

backbone.output_layer.weight f4 [2, 64]
0	0x8005cea5	-5.33308e-40
1	0xbdfcdd47	-0.12346893
2	0x000ebb3c	1.352864e-39
3	0x000baf9f	1.073191e-39
4	0x800f08b4	-1.380655e-39
5	0x3e4ec326	0.2019163
6	0x3e3b6436	0.18299946
7	0x0010439d	1.493623e-39
8	0x3e5f19e4	0.2178722
9	0x3e53dbeb	0.20689361
10	0xbe57bfaa	-0.21069208
11	0x3e4abbf3	0.1979826
12	0x3e4bd73b	0.19906323
13	0x800f7059	-1.417835e-39
14	0xbe23a87f	-0.15982245
15	0x3e4ff874	0.20309621
16	0x3e36f43c	0.17866606
17	0xbe098157	-0.13428245
18	0x000e10b0	1.291683e-39
19	0xbe246bec	-0.16056794
20	0x8019e289	-2.377153e-39
21	0x801405b5	-1.838757e-39
22	0x3e3a4431	0.18190075
23	0x3e3f9a9d	0.18711324
24	0xbdc5e133	-0.09662094
25	0x00013969	1.1243e-40
26	0x000f2c05	1.393324e-39
27	0x8003ebaf	-3.60054e-40
28	0xbe58a713	-0.21157484
29	0x3e528613	0.20558958
30	0x3e594de5	0.2122112
31	0x3e497cb4	0.19676477
32	0x3e4740b2	0.19458273
33	0x8010fc93	-1.559974e-39
34	0xbe1f7ffd	-0.15576167
35	0xbe3e0378	-0.1855601
36	0x0020bbd9	3.006123e-39
37	0xbe1b5788	-0.1517011
38	0x0017cfdb	2.186781e-39
39	0x8028e8b4	-3.756898e-39
40	0x3e455a16	0.19272646
41	0x000d7460	1.235609e-39
42	0xbe5d1b49	-0.2159244
43	0x80292c0f	-3.78106e-39
44	0x000d431e	1.217939e-39
45	0x3e528806	0.20559701
46	0xbe62ebe4	-0.22160298
47	0x00029933	2.38629e-40
48	0xbe01aa30	-0.12662578
49	0xbe1ce6d0	-0.15322423
50	0xbde84b3a	-0.11342473
51	0xbdf3a124	-0.118959695
52	0x000ca020	1.159468e-39
53	0x3e3beaee	0.18351337
54	0x3e484b10	0.19559884
55	0xbe63b46a	-0.22236791
56	0x000df7f8	1.282816e-39
57	0x000d6096	1.22851e-39
58	0x00271ac1	3.591182e-39
59	0x000e22ec	1.298225e-39
60	0xbe1d0ba4	-0.15336472
61	0x3e54ec23	0.20793204
62	0x00178a88	2.161912e-39
63	0x3e4cd046	0.20001325
64	0x0009417d	8.50012e-40
65	0x3e05a010	0.1304934
66	0x0015cb6d	2.001521e-39
67	0x000b23e1	1.023061e-39
68	0x800e43cf	-1.310022e-39
69	0xbe4ec327	-0.20191632
70	0xbe3b645d	-0.18300004
71	0x000e994d	1.340691e-39
72	0xbe5f19fa	-0.21787253
73	0xbe53dbe4	-0.2068935
74	0x3e57b052	0.21063355
75	0xbe4abbf4	-0.19798261
76	0xbe4bd72d	-0.19906302
77	0x800f485e	-1.403493e-39
78	0x3e23c752	0.15994003
79	0xbe4ff86c	-0.20309609
80	0xbe36f43a	-0.17866603
81	0x3e0ae02f	0.13562082
82	0x00118357	1.608319e-39
83	0x3e24ed5d	0.16106172
84	0x801de628	-2.745794e-39
85	0x801211d1	-1.65943e-39
86	0xbe3a4430	-0.18190074
87	0xbe3f9a9e	-0.18711326
88	0x3dc5c03e	0.09655808
89	0x8000dfcd	-8.0285e-41
90	0x800f654e	-1.413874e-39
91	0x000117ad	1.00329e-40
92	0x3e5892bb	0.21149723
93	0xbe528618	-0.20558965
94	0xbe594de2	-0.21221116
95	0xbe497b60	-0.1967597
96	0xbe4740b7	-0.1945828
97	0x801207be	-1.655816e-39
98	0x3e1cb5e6	0.15303764
99	0x3e3e6a35	0.18595202
100	0x0022e102	3.203124e-39
101	0x3e1b03e1	0.15138198
102	0x00236910	3.251932e-39
103	0x00294c25	3.792571e-39
104	0xbe455a0b	-0.1927263
105	0x000edde8	1.365302e-39
106	0x3e5d22a6	0.21595249
107	0x00364d2c	4.986801e-39
108	0x000d60e4	1.228619e-39
109	0xbe528809	-0.20559706
110	0x3e62df26	0.22155437
111	0x8003dabe	-3.53976e-40
112	0x3e008843	0.1255198
113	0x3e1bb045	0.1520396
114	0x3df2e720	0.1186049
115	0x3df38ac8	0.11891705
116	0x000d3f61	1.216598e-39
117	0xbe3beaef	-0.18351339
118	0xbe484b0f	-0.19559883
119	0x3e63e2a4	0.22254425
120	0x000edb9d	1.36448e-39
121	0x000ce9f6	1.185955e-39
122	0x001ba18a	2.537508e-39
123	0x00127b71	1.697321e-39
124	0x3e1c0e63	0.15239863
125	0xbe54ec1f	-0.20793198
126	0x0014f21d	1.923564e-39
127	0xbe4cd041	-0.20001318

backbone.output_layer.bias f4 [2]
0	0xbf086a2d	-0.5328701
1	0x3f086a2e	0.5328702

exp_avg f4 [10, 40]
0	0x35a99de2	1.2637431e-06
1	0xb7555432	-1.2715393e-05
2	0xb685d87b	-3.9889105e-06
3	0x2d84bdc2	1.5090932e-11
4	0xb5ab4bb8	-1.276253e-06
5	0xaf9a9cd6	-2.8123875e-10
6	0x37fb7376	2.9975297e-05
7	0x2e6daa34	5.4038732e-11
8	0x3395b280	6.970822e-08
9	0x3605c154	1.9931076e-06
10	0x376cacf1	1.4106962e-05
11	0x33c97ae8	9.3821484e-08
12	0xb3b23d5e	-8.2999335e-08
13	0xb613b429	-2.2009574e-06
14	0x382c5ddf	4.109542e-05
15	0xb6331d15	-2.6690007e-06
16	0x36665ece	3.4327854e-06
17	0x34dbf9bb	4.0973632e-07
18	0xb4938715	-2.747917e-07
19	0x35a2da83	1.2133536e-06
20	0xb56bacd4	-8.779582e-07
21	0xb6abd498	-5.1209463e-06
22	0xafe819f0	-4.2218984e-10
23	0xb7b7d981	-2.1916583e-05
24	0x312e3b7b	2.5354143e-09
25	0x30b8ba80	1.3440768e-09
26	0xb3bd8811	-8.825749e-08
27	0x35903c06	1.0746305e-06
28	0xb70305b1	-7.809534e-06
29	0xb925a495	-0.00015796938
30	0xb2ae511a	-2.0293147e-08
31	0x361f9529	2.377967e-06
32	0xb4ed8dba	-4.424781e-07
33	0xb4c02824	-3.5791993e-07
34	0xb21c4a65	-9.0973105e-09
35	0xb8306964	-4.2059823e-05
36	0x38329a03	4.258194e-05
37	0x2e0df007	3.2272875e-11
38	0xb04803c3	-7.276492e-10
39	0xb054a9bf	-7.7366374e-10
40	0xb4aceb8a	-3.2208874e-07
41	0x39329f5a	0.00017034766
42	0xb8ca06da	-9.633387e-05
43	0xb44da02e	-1.9150386e-07
44	0x37345106	1.0747701e-05
45	0x38522c9a	5.010944e-05
46	0xb61b0a60	-2.310284e-06
47	0x373b73d3	1.1173036e-05
48	0xb6a4b3ce	-4.908513e-06
49	0xb5864b0b	-1.0005618e-06
50	0xb8a437d2	-7.830527e-05
51	0xb8d5f375	-0.00010201979
52	0x39aa2b6b	0.00032457276
53	0x39bc4df1	0.00035916225
54	0xb3b31f62	-8.3410455e-08
55	0xb4cba686	-3.7932858e-07
56	0x39e523ae	0.00043704867
57	0x382f9e0a	4.1870437e-05
58	0xb31aed41	-3.60717e-08
59	0xb6ef5172	-7.1322365e-06
60	0xb81c02d6	-3.719594e-05
61	0xb4af27b0	-3.2625167e-07
62	0x37926532	1.7451679e-05
63	0xaf5dc100	-2.01684e-10
64	0xb6039e21	-1.9612564e-06
65	0xb54fc8ce	-7.740572e-07
66	0xb3b048c6	-8.208876e-08
67	0xb1df6f5f	-6.5028156e-09
68	0x3847ccc1	4.763599e-05
69	0xb496900e	-2.804449e-07
70	0xb97cece1	-0.00024120837
71	0xb87f599d	-6.0880197e-05
72	0xb6058aab	-1.989926e-06
73	0x3619058b	2.2802003e-06
74	0x3a65ec68	0.0008770884
75	0xb39b7289	-7.238584e-08
76	0x33440044	4.5635048e-08
77	0xb40a7828	-1.2895964e-07
78	0x31b5abb3	5.2873133e-09
79	0x36824217	3.881996e-06
80	0xad233699	-9.2776e-12
81	0x33fdeb65	1.18240486e-07
82	0x38e23466	0.0001078628
83	0x3661f337	3.3669182e-06
84	0xb48261a5	-2.4285433e-07
85	0xb4253ee9	-1.5389709e-07
86	0xb6035199	-1.9568017e-06
87	0x363e08b5	2.8317274e-06
88	0x37c9f7ff	2.407655e-05
89	0x38a7aa1f	7.994868e-05
90	0x34f0be0c	4.484176e-07
91	0xb07bfa42	-9.1668906e-10
92	0xad8d9554	-1.6096159e-11
93	0x3752475d	1.2533591e-05
94	0xb71545d6	-8.897352e-06
95	0x2d3c32fd	1.0697884e-11
96	0x2cf4742d	6.947795e-12
97	0x38ba0af1	8.871209e-05
98	0x38c54290	9.40609e-05
99	0x31d4b716	6.1908265e-09
100	0x3769942c	1.3922381e-05
101	0x35784bf7	9.249774e-07
102	0xb8ff64b6	-0.000121781064
103	0x328938eb	1.5974782e-08
104	0xb9b93ce0	-0.00035331305
105	0xb584bdcc	-9.890005e-07
106	0x3726cfd7	9.9427625e-06
107	0x3a3a124a	0.0007098062
108	0x33c9dfbb	9.400488e-08
109	0xb4743f3e	-2.2747278e-07
110	0x31cfc263	6.046592e-09
111	0x35df4707	1.6635466e-06
112	0xb431827e	-1.6531882e-07
113	0xb99641fe	-0.00028659398
114	0x356f024d	8.9037786e-07
115	0xb3452a52	-4.5906127e-08
116	0x34b823b2	3.4298643e-07
117	0xb6c44b22	-5.850002e-06
118	0x37a32317	1.9447454e-05
119	0x39ae1cea	0.0003320941
120	0x3712d855	8.752647e-06
121	0x32b42f78	2.0976344e-08
122	0xb5851835	-9.916317e-07
123	0xb659b450	-3.2440475e-06
124	0x3807e14b	3.239633e-05
125	0x36a47763	4.9014793e-06
126	0xb0727430	-8.82042e-10
127	0x33d5ab5e	9.949757e-08
128	0xb80d3568	-3.3666758e-05
129	0xb78005cc	-1.5261488e-05
130	0x2d471e12	1.1318517e-11
131	0x364c1306	3.0409442e-06
132	0x3900e287	0.00012291419
133	0x3735664c	1.0812259e-05
134	0x33d055f5	9.70139e-08
135	0xb3164151	-3.4984e-08
136	0xafb4dc7c	-3.2898473e-10
137	0xb3cf2cbe	-9.647327e-08
138	0x3405073d	1.2389224e-07
139	0x298a050c	6.1293066e-14
140	0xb86cd953	-5.6469184e-05
141	0xb398c7b4	-7.114377e-08
142	0xb725997e	-9.870504e-06
143	0xb60eef32	-2.129888e-06
144	0x2e0edc51	3.2482742e-11
145	0x34b00d43	3.2792204e-07
146	0xafba2b24	-3.3863856e-10
147	0x33745af4	5.68934e-08
148	0x33069adf	3.134016e-08
149	0xb081c665	-9.442372e-10
150	0xb45a6eeb	-2.0343184e-07
151	0xb4af2f80	-3.263085e-07
152	0xae3a1c67	-4.231673e-11
153	0xb63112ff	-2.6386112e-06
154	0x368d61c3	4.2135084e-06
155	0x377bebd0	1.501567e-05
156	0x36c45e4f	5.852234e-06
157	0xb1040fdb	-1.921754e-09
158	0xb6340847	-2.6826908e-06
159	0xb5d2cc28	-1.5705637e-06
160	0xb061dca4	-8.216807e-10
161	0xb846b5a2	-4.7376037e-05
162	0xb5140f2a	-5.5156363e-07
163	0x3a0406c6	0.000503641
164	0xba0abce6	-0.000529243
165	0xae61ffed	-5.1386385e-11
166	0xb7dc3bd4	-2.6253903e-05
167	0xba07e502	-0.0005183966
168	0xb846516e	-4.7282716e-05
169	0x3395117f	6.941536e-08
170	0xb80b7a97	-3.3254353e-05
171	0xb71e6926	-9.442016e-06
172	0xb8d18fb8	-9.992666e-05
173	0x352cf59c	6.44324e-07
174	0xa9173328	-3.3573106e-14
175	0x380d5967	3.3700282e-05
176	0x30971bdf	1.0994617e-09
177	0xae376a6e	-4.170391e-11
178	0xb867299d	-5.5113447e-05
179	0xb535c5d5	-6.771564e-07
180	0xb79bb609	-1.8562207e-05
181	0xb28d3fa9	-1.644351e-08
182	0x36ed9b5f	7.081238e-06
183	0xb49d22ad	-2.926876e-07
184	0x30580774	7.8590934e-10
185	0xb8bc14af	-8.968391e-05
186	0xb52d16b8	-6.448058e-07
187	0x38b4b164	8.6161104e-05
188	0x33654329	5.33793e-08
189	0x38ebd384	0.00011245071
190	0xaa8a793f	-2.4597856e-13
191	0xae0cb21f	-3.1990518e-11
192	0xb498f17e	-2.8487915e-07
193	0xb61c11e1	-2.3256218e-06
194	0x385c3df3	5.2509782e-05
195	0x2cec966e	6.7242245e-12
196	0xb8cb020a	-9.680174e-05
197	0x3051686c	7.618215e-10
198	0x38162772	3.5799523e-05
199	0x3909e312	0.00013149928
200	0xb2aff569	-2.0484281e-08
201	0xb0c39fa1	-1.4233487e-09
202	0x38fa8c63	0.00011947078
203	0x33312d38	4.125215e-08
204	0x3a0578a2	0.0005091523
205	0xb88914f1	-6.53657e-05
206	0x3416d50e	1.4047347e-07
207	0xb9915eec	-0.00027727277
208	0x35a6d1fd	1.2429078e-06
209	0x37c69667	2.3673476e-05
210	0x33c15595	9.00283e-08
211	0xb6693fc3	-3.475682e-06
212	0x3159da21	3.1701648e-09
213	0xb753531e	-1.2595932e-05
214	0xb31c3baf	-3.6375862e-08
215	0x37371d80	1.09145185e-05
216	0xb82b1607	-4.079009e-05
217	0x318c2cf7	4.079648e-09
218	0xaf828cef	-2.3747002e-10
219	0xb7a5598a	-1.9711228e-05
220	0x38d60a50	0.00010206236
221	0xb34bb113	-4.742567e-08
222	0xb67813a3	-3.696631e-06
223	0x35ce6531	1.5377647e-06
224	0xb492ae6c	-2.7321528e-07
225	0xb5006250	-4.782678e-07
226	0xb237b76b	-1.0693706e-08
227	0xb4cb09d0	-3.7818836e-07
228	0xb312d330	-3.4185348e-08
229	0xb99e4a06	-0.0003019126
230	0xb44fe38e	-1.9361161e-07
231	0xb49ca69c	-2.917849e-07
232	0xb77510d5	-1.4607057e-05
233	0x35b2a4e4	1.3310023e-06
234	0xb8803199	-6.112754e-05
235	0xadeef22c	-2.7165013e-11
236	0xb6616412	-3.3585861e-06
237	0xb819c44c	-3.666086e-05
238	0xb7816993	-1.542716e-05
239	0xb9573a9b	-0.0002052583
240	0x33ba69eb	8.680566e-08
241	0xb8195df9	-3.656556e-05
242	0xb88aa5fd	-6.6112705e-05
243	0x38433024	4.6536457e-05
244	0x380f8d56	3.4225486e-05
245	0xb797e24a	-1.8105977e-05
246	0xb7e6d995	-2.7519456e-05
247	0x315791b9	3.1369451e-09
248	0xb100e9b7	-1.8759303e-09
249	0xb995d6b7	-0.0002857947
250	0xb50ae5aa	-5.174321e-07
251	0xb7eafd6e	-2.8012986e-05
252	0xad93a8a2	-1.6786853e-11
253	0xb5151e5e	-5.5551016e-07
254	0xb85a4b34	-5.204529e-05
255	0x32df1b0b	2.5972914e-08

exp_avg_sq f4 [10, 40]
0	0x36074d77	2.0161658e-06
1	0x36493d32	2.9986954e-06
2	0x35aa8d12	1.2707044e-06
3	0x35f4806c	1.8216792e-06
4	0x361313c3	2.191621e-06
5	0x367d7284	3.7766595e-06
6	0x3686bdb3	4.015595e-06
7	0x35f479d3	1.8214872e-06
8	0x35b45dd1	1.3438349e-06
9	0x35f4be42	1.8234789e-06
10	0x3647681b	2.9713908e-06
11	0x35d824bd	1.6103946e-06
12	0x360ddb5d	2.1138324e-06
13	0x368abbca	4.134582e-06
14	0x36daf2a7	6.5251547e-06
15	0x36141770	2.206736e-06
16	0x36827573	3.887975e-06
17	0x3616ddd6	2.2480867e-06
18	0x35e96f96	1.7392329e-06
19	0x359d73d3	1.1731121e-06
20	0x35f100ba	1.7956111e-06
21	0x365fa291	3.3324216e-06
22	0x35b38407	1.3374964e-06
23	0x36089fad	2.0358523e-06
24	0x364e8714	3.0775018e-06
25	0x35f24386	1.8050057e-06
26	0x35e7e665	1.7277895e-06
27	0x35a0edbb	1.1990118e-06
28	0x360df113	2.115096e-06
29	0x36543009	3.1618422e-06
30	0x3689a45b	4.1020517e-06
31	0x35985014	1.1348188e-06
32	0x369041bd	4.2991874e-06
33	0x36397cc5	2.7639774e-06
34	0x35b674af	1.3594016e-06
35	0x36970674	4.500902e-06
36	0x365fb69e	3.3335887e-06
37	0x35da7518	1.6276344e-06
38	0x35fee4bf	1.8991049e-06
39	0x35e4829b	1.7025335e-06
40	0x35c74e90	1.484952e-06
41	0x368af9fe	4.1418234e-06
42	0x364bb637	3.035542e-06
43	0x363b46c9	2.7906374e-06
44	0x36358fe5	2.705486e-06
45	0x35cc0c9a	1.5202852e-06
46	0x363f5079	2.850806e-06
47	0x35afe748	1.3105828e-06
48	0x35f30d0b	1.8108707e-06
49	0x369a7132	4.6027353e-06
50	0x35d8a9fa	1.6142724e-06
51	0x36c72564	5.935015e-06
52	0x35b2f19e	1.3332353e-06
53	0x3653bf41	3.1552775e-06
54	0x35e91196	1.7364971e-06
55	0x35cdebb8	1.5342293e-06
56	0x35ef16a7	1.781348e-06
57	0x36551ac0	3.1755044e-06
58	0x364dc689	3.0662943e-06
59	0x3597fc91	1.1323883e-06
60	0x362fe4e5	2.6210266e-06
61	0x35bce6fd	1.4074318e-06
62	0x35bef14c	1.422633e-06
63	0x359ca5bf	1.1671144e-06
64	0x359497a7	1.1070996e-06
65	0x36647fad	3.4048965e-06
66	0x35d02da5	1.5510492e-06
67	0x35c714cc	1.4832708e-06
68	0x368f43c6	4.269622e-06
69	0x36206502	2.3900652e-06
70	0x3655e2d7	3.1871512e-06
71	0x36856f1f	3.976645e-06
72	0x36699b4a	3.4810096e-06
73	0x35fa46dc	1.8647074e-06
74	0x36124ba3	2.1799722e-06
75	0x366d1711	3.5329178e-06
76	0x35f9061f	1.8553727e-06
77	0x36034247	1.95591e-06
78	0x35c7fa0c	1.4899429e-06
79	0x36a59c95	4.9356117e-06
80	0x361fb97b	2.380081e-06
81	0x35d73041	1.6032792e-06
82	0x35c0cb6d	1.436432e-06
83	0x3616b5ef	2.245764e-06
84	0x35e456c1	1.7012572e-06
85	0x362e654b	2.598698e-06
86	0x36036cbb	1.958381e-06
87	0x3631ec9e	2.6512785e-06
88	0x35f673d9	1.8362144e-06
89	0x36739603	3.629714e-06
90	0x36aeebb5	5.213044e-06
91	0x35b7b461	1.368706e-06
92	0x35b25943	1.3288012e-06
93	0x366414f0	3.3986835e-06
94	0x366819ac	3.4585637e-06
95	0x35ae1a53	1.2971672e-06
96	0x35b1f12b	1.3257717e-06
97	0x368a6e21	4.125541e-06
98	0x35b7e5e8	1.3701474e-06
99	0x359f20cd	1.185597e-06
100	0x3681b83e	3.865948e-06
101	0x36151d13	2.2219654e-06
102	0x361baf9c	2.3199018e-06
103	0x362598a3	2.4675762e-06
104	0x369d065c	4.679705e-06
105	0x359301e4	1.0952904e-06
106	0x35d6a9ba	1.5993639e-06
107	0x36693b7a	3.4754325e-06
108	0x361cffeb	2.3394775e-06
109	0x36315587	2.6424839e-06
110	0x35cd9018	1.5315627e-06
111	0x3637000d	2.7269155e-06
112	0x366e9a9a	3.5554754e-06
113	0x360d082c	2.1015394e-06
114	0x35deb7ee	1.659382e-06
115	0x36836a6c	3.9164934e-06
116	0x36097745	2.0484015e-06
117	0x35c1ad8f	1.4430133e-06
118	0x36b5b8b1	5.4157213e-06
119	0x363aba1f	2.7824497e-06
120	0x3677d1ad	3.6927916e-06
121	0x35af2e2a	1.3051952e-06
122	0x359f3bd4	1.1863835e-06
123	0x35fd9525	1.8893376e-06
124	0x35f5256f	1.8264817e-06
125	0x360ec215	2.127262e-06
126	0x360cace3	2.096226e-06
127	0x3650d936	3.1120849e-06
128	0x3682b5bc	3.8954586e-06
129	0x363d2a33	2.8187758e-06
130	0x35b1525a	1.3211495e-06
131	0x35e01b85	1.669731e-06
132	0x35c3f480	1.4599791e-06
133	0x36257659	2.4655803e-06
134	0x367b2079	3.7420816e-06
135	0x35e6339d	1.7151357e-06
136	0x35fd4a13	1.8871527e-06
137	0x362156a0	2.4041292e-06
138	0x359f0ed0	1.1850734e-06
139	0x35f8db66	1.8541293e-06
140	0x368e63fa	4.2435686e-06
141	0x35f23787	1.8046566e-06
142	0x359da862	1.1746417e-06
143	0x36976bac	4.5126853e-06
144	0x36087b58	2.0337375e-06
145	0x35f68c9e	1.8369353e-06
146	0x361cda3c	2.337284e-06
147	0x36166fe9	2.2416882e-06
148	0x3636af64	2.7222204e-06
149	0x35ce810a	1.5385751e-06
150	0x35be514b	1.4179763e-06
151	0x36686296	3.4628079e-06
152	0x359923d2	1.1409813e-06
153	0x3617fdc1	2.2648458e-06
154	0x3602e1de	1.9502982e-06
155	0x36d675ab	6.3913953e-06
156	0x36b44e3e	5.3735266e-06
157	0x35fe8e72	1.8965932e-06
158	0x36a7a874	4.9965984e-06
159	0x3649bcaf	3.0061162e-06
160	0x35f3d08b	1.8165605e-06
161	0x35c984c0	1.5014302e-06
162	0x36319537	2.646191e-06
163	0x35b2ea7e	1.333028e-06
164	0x362b84b3	2.5558227e-06
165	0x360523bc	1.9839345e-06
166	0x36c0b839	5.7434922e-06
167	0x369f2703	4.743111e-06
168	0x35b0add5	1.3163614e-06
169	0x36541c49	3.1606926e-06
170	0x3650aae2	3.1093882e-06
171	0x35b64272	1.3579395e-06
172	0x3606aada	2.0067005e-06
173	0x35bcd4f8	1.4069074e-06
174	0x3607189e	2.0130897e-06
175	0x35a989d0	1.263159e-06
176	0x3637a579	2.7365443e-06
177	0x35ff90c5	1.9041114e-06
178	0x361742ba	2.2539593e-06
179	0x36728e49	3.614363e-06
180	0x35fd57af	1.8875488e-06
181	0x36428a47	2.898874e-06
182	0x3627ad61	2.498586e-06
183	0x3614ad8b	2.2154734e-06
184	0x35f7eaef	1.8471309e-06
185	0x36c3f0cc	5.8394853e-06
186	0x364b0b01	3.0255762e-06
187	0x35d59d26	1.5915473e-06
188	0x36043740	1.9701693e-06
189	0x3686a3f1	4.0125965e-06
190	0x362befda	2.5620598e-06
191	0x360b7154	2.077858e-06
192	0x365d039b	3.2933665e-06
193	0x3589d10b	1.0268135e-06
194	0x3617dea3	2.2630345e-06
195	0x35c06cdb	1.4336796e-06
196	0x36a9d8df	5.0618396e-06
197	0x35e946d6	1.7380469e-06
198	0x36519144	3.1227983e-06
199	0x359cc323	1.1679698e-06
200	0x36221eeb	2.4157878e-06
201	0x3631b91f	2.648281e-06
202	0x366e6074	3.5520907e-06
203	0x361ba92a	2.3195266e-06
204	0x36cb275b	6.054453e-06
205	0x361001d2	2.1458732e-06
206	0x35dd8647	1.6504863e-06
207	0x360303fb	1.9522838e-06
208	0x35d5270c	1.5881101e-06
209	0x35ac7ae3	1.2850763e-06
210	0x3680045b	3.8152043e-06
211	0x3642fade	2.9054277e-06
212	0x365b215c	3.265296e-06
213	0x3623d282	2.4411424e-06
214	0x3618deff	2.2779566e-06
215	0x35ab0dc7	1.2744503e-06
216	0x36a8d424	5.0314866e-06
217	0x365f430f	3.3268623e-06
218	0x3627da63	2.5012057e-06
219	0x35b069a8	1.3143772e-06
220	0x35e6bfb9	1.7192134e-06
221	0x3652dab3	3.1419738e-06
222	0x3668569c	3.4621107e-06
223	0x35aa7aed	1.2701763e-06
224	0x3585b43e	9.96173e-07
225	0x35e43ac8	1.7004431e-06
226	0x365e3746	3.3112751e-06
227	0x361ebafd	2.3652676e-06
228	0x3638cc22	2.7536958e-06
229	0x363bb5bb	2.7970952e-06
230	0x367044b0	3.5802768e-06
231	0x3626676d	2.479613e-06
232	0x35982628	1.1335987e-06
233	0x359c8588	1.1661768e-06
234	0x366022a5	3.3398767e-06
235	0x35a4d210	1.2280088e-06
236	0x368566f4	3.975694e-06
237	0x363f8039	2.8535853e-06
238	0x35c6adcb	1.480273e-06
239	0x35c6d270	1.4813395e-06
240	0x36538188	3.1516847e-06
241	0x35ee0ff9	1.773703e-06
242	0x366399ef	3.3915237e-06
243	0x368494b3	3.9512174e-06
244	0x36b392a3	5.3516865e-06
245	0x35927f12	1.091483e-06
246	0x3649d27f	3.0073859e-06
247	0x359802e3	1.1325723e-06
248	0x3602bc37	1.9481065e-06
249	0x359975d1	1.1433677e-06
250	0x362f2574	2.6098833e-06
251	0x36dfe2d0	6.6723223e-06
252	0x3627a3e9	2.4980347e-06
253	0x35f0f331	1.7952171e-06
254	0x3675cfe1	3.6628846e-06
255	0x3687258d	4.027685e-06

exp_avg f4 [10]
0	0x00000004	6e-45
1	0x00000004	6e-45
2	0x80000004	-6e-45
3	0x00000004	6e-45
4	0x00000004	6e-45
5	0x00000004	6e-45
6	0x00000004	6e-45
7	0x00000004	6e-45
8	0x80000004	-6e-45
9	0x00000004	6e-45

exp_avg_sq f4 [10]
0	0x000001f4	7e-43
1	0x000001f4	7e-43
2	0x000001f4	7e-43
3	0x000001f4	7e-43
4	0x000001f4	7e-43
5	0x000001f4	7e-43
6	0x000001f4	7e-43
7	0x000001f4	7e-43
8	0x000001f4	7e-43
9	0x000001f4	7e-43

exp_avg f4 [5, 10]
0	0xb91dd19a	-0.0001505077
1	0x2efdcdfb	1.15416975e-10
2	0x38f00d7b	0.00011446603
3	0x398f8b82	0.00027379027
4	0x3a060e71	0.0005113846
5	0xb2b1b749	-2.068886e-08
6	0x38d39ce0	0.00010090484
7	0xba59251d	-0.00082834234
8	0xb89906ca	-7.296873e-05
9	0xb8055dfb	-3.1797197e-05
10	0xb4c59d4d	-3.680856e-07
11	0x37e1b851	2.690792e-05
12	0x35bad966	1.3921351e-06
13	0x36562cd3	3.1914576e-06
14	0xb851c8be	-5.001644e-05
15	0xb8194096	-3.6538193e-05
16	0xb830a59b	-4.2115902e-05
17	0xab254846	-5.8720075e-13
18	0xb85dc05e	-5.2869662e-05
19	0x34272ca5	1.5569329e-07
20	0xb728208f	-1.0021161e-05
21	0xb614c505	-2.21684e-06
22	0xb2b0c450	-2.057837e-08
23	0x333c444e	4.3834284e-08
24	0x3485e9c9	2.4943282e-07
25	0xb75aed02	-1.3048995e-05
26	0x3a896496	0.0010482247
27	0xb4b0ca1d	-3.292961e-07
28	0xb3b2bbee	-8.322955e-08
29	0x36102e2d	2.148455e-06
30	0xb2c1f058	-2.2577453e-08
31	0xb20aa324	-8.069751e-09
32	0xb760a788	-1.3390447e-05
33	0xb7514cb0	-1.2475226e-05
34	0x2dfbef95	2.8641792e-11
35	0x390a2582	0.00013174678
36	0x35e0ca63	1.6748203e-06
37	0x36c0159c	5.7245616e-06
38	0xba3098bd	-0.0006736627
39	0x334964a1	4.689048e-08
40	0xafda167a	-3.966994e-10
41	0xb30c9a33	-3.2736533e-08
42	0xb181648b	-3.7658245e-09
43	0xb793b43d	-1.7607696e-05
44	0x38fc2652	0.00012023434
45	0x322d13a4	1.0074391e-08
46	0xb7028184	-7.778759e-06
47	0x3a8a5a23	0.0010555427
48	0xb5feccd3	-1.8984086e-06
49	0x3605896a	1.989853e-06

exp_avg_sq f4 [5, 10]
0	0x374708bc	1.1863358e-05
1	0x379b407f	1.8507473e-05
2	0x370cc496	8.3904215e-06
3	0x36a6b1ee	4.9678993e-06
4	0x36b6640c	5.4356697e-06
5	0x36906c0f	4.304114e-06
6	0x37b712a8	2.1823987e-05
7	0x37351b01	1.0794728e-05
8	0x370740c9	8.061711e-06
9	0x36c45b22	5.8518644e-06
10	0x3730e41d	1.0543529e-05
11	0x370fcdd1	8.571385e-06
12	0x36ea9afd	6.9917864e-06
13	0x36c3c39e	5.8342257e-06
14	0x37ba9f37	2.2247068e-05
15	0x3741ed9f	1.1559022e-05
16	0x3768a94e	1.3867697e-05
17	0x36690d6b	3.4727516e-06
18	0x3730f5c5	1.054764e-05
19	0x36d59c83	6.366115e-06
20	0x37b2b9e1	2.130581e-05
21	0x370dd6b1	8.454242e-06
22	0x372fd6cc	1.0480824e-05
23	0x37181206	9.064102e-06
24	0x36a889e0	5.022841e-06
25	0x36ba6e48	5.5560704e-06
26	0x374912b9	1.1984893e-05
27	0x37243f34	9.789877e-06
28	0x373d410a	1.1280421e-05
29	0x36ecf762	7.0621472e-06
30	0x377c69fb	1.5045046e-05
31	0x365ce56b	3.2916093e-06
32	0x3712593b	8.723054e-06
33	0x36ecdddd	7.0591764e-06
34	0x374b3de2	1.2114151e-05
35	0x378b545e	1.6609378e-05
36	0x37004725	7.645959e-06
37	0x37366a21	1.0872755e-05
38	0x376413ec	1.3594497e-05
39	0x36a94d0c	5.045562e-06
40	0x370f975e	8.558707e-06
41	0x372ec33b	1.0416664e-05
42	0x372358ed	9.736262e-06
43	0x37b8de56	2.2038043e-05
44	0x36b47251	5.377726e-06
45	0x36d4a0bc	6.3368043e-06
46	0x36b4b23b	5.385167e-06
47	0x372689b8	9.926436e-06
48	0x378376ce	1.567174e-05
49	0x36dbe7ea	6.553707e-06

exp_avg f4 [5]
0	0xb98e25cd	-0.00027112514
1	0x37dcac47	2.6306267e-05
2	0xb9a615e3	-0.00031678294
3	0xb99a80fa	-0.00029469264
4	0x394e9971	0.00019702852

exp_avg_sq f4 [5]
0	0x36bf27f0	5.696893e-06
1	0x3403113a	1.2206593e-07
2	0x368425bd	3.9383e-06
3	0x3769e898	1.3942037e-05
4	0x35e8b087	1.7336723e-06
