Project_2/training_results_1/checkpoints/best_model.pth (torch, 188149 bytes, 30 tensors)

gate.gate_network.0.weight f4 [10, 40]
-1.0773805e-05 -8.874512e-11 4.1537657e-10 1.7282892e-16 -6.1195236e-11 -1.609379e-10 3.2163706e-07 1.3493043e-06
-4.8580534e-07 -3.6906728e-11 3.1003058e-11 -2.070399e-12 4.8691525e-08 2.8589964e-06 -2.7733716e-07 -1.8768275e-11
5.671852e-07 8.759238e-11 2.202795e-07 -6.760565e-06 4.7060023e-11 1.4323172e-07 -3.2685632e-06 3.4933205e-06
-1.2252499e-10 3.2040995e-11 -1.0882084e-07 2.760471e-06 8.445105e-06 -9.547564e-07 4.49739e-14 -3.6229449e-06
1.2896172e-09 -1.4483314e-06 -6.78106e-08 9.416818e-11 5.227662e-12 -1.1276768e-07 -3.426906e-11 -2.5069212e-07
-1.2015663e-11 -2.6316433e-09 -3.2792711e-06 2.2142592e-12 2.6557556e-09 1.1225424e-07 -2.6062402e-08 1.9747733e-06
1.0279057e-12 -9.975515e-06 2.4250286e-11 2.2050592e-09 5.860616e-12 4.33854e-06 -4.3506656e-09 3.889188e-10
-4.9690158e-08 2.928725e-08 -1.091543e-07 -7.794007e-11 -1.9480292e-11 -3.8616367e-06 -3e-45 -2.3893626e-10
2.4399048e-07 4.062861e-10 -1.6514198e-07 8.360723e-09 -3.917512e-11 -1.6821726e-08 -6.177511e-08 3.462966e-07
-3.07977e-07 -3.6131282e-06 -2.744867e-10 8.462439e-08 9.802334e-07 1.701079e-08 -4.3215086e-06 1.3595447e-12
-4.828831e-10 -1.0581512e-08 -2.8112493e-07 -4.604035e-06 -6.5046697e-06 5.200577e-06 8.058181e-10 1.0364333e-06
-1.995419e-06 1.0278915e-07 1.3587236e-09 -1.895943e-06 4.0862577e-07 -2.2555091e-09 1.6194501e-06 6.573013e-07
-3.2547072e-07 5.5253424e-09 1.0229672e-09 8.4502335e-07 1.7162392e-06 -5.2189157e-06 -5.4195386e-09 -1.4766683e-06
1.1380001e-07 -3.156765e-07 -1.2404673e-09 3.705715e-11 6.162225e-08 5.4431435e-08 -2.715273e-08 1.5774534e-06
-6.2777065e-07 7.901719e-06 4.240146e-08 2.1826925e-07 2.548777e-08 -4.8471134e-07 -9.358766e-09 1.7243343e-07
3.225949e-07 1.4007901e-06 1.538293e-09 -3.7666376e-12 -6.4850794e-12 2.2403425e-10 8.954988e-10 7.5436553e-16
1.0322798e-08 -6.5531885e-11 -9.78013e-16 -1.2797045e-08 -1.9745992e-09 6.7368604e-09 -1.6659223e-07 -2.4247467e-07
-1.6072156e-07 6.9495684e-08 3.787029e-13 4.6614293e-08 -3.8882315e-09 2.0696295e-07 -1.3781337e-06 4.8107495e-08
1.0681019e-13 -1.5721116e-07 -1.5635424e-06 1.14388795e-05 -2.096659e-07 -6.844298e-07 6.239176e-08 -9.369145e-07
8.179201e-08 2.4499608e-14 2.857691e-06 5.417527e-07 3.5861507e-07 1.8219404e-10 8.8969315e-08 -1.5861938e-09
2.9483322e-06 -1.3434538e-07 5.572851e-10 -4.4209375e-18 3.6487316e-07 -2.05819e-06 -2.5901677e-08 -6.0248265e-11
-3.9900076e-08 -4.9667653e-07 1.6543202e-09 3.5125763e-07 -4.877522e-13 -4.461514e-06 1.673671e-06 5.007982e-08
6.700192e-14 1.4978828e-05 6e-45 3.7307892e-08 -1.1683344e-06 5.672632e-09 -3.3847143e-06 -1.8249993e-06
-2.3596033e-07 4.3594e-07 6.413163e-07 3.595302e-11 1.7292074e-07 -4.394153e-11 3.6096197e-14 -7.7461704e-11
-1.1857424e-08 -4.431894e-08 -1.5877577e-06 4.4194554e-08 -1.4570749e-12 2.331181e-06 1.3682724e-07 2.1792523e-08
4.6971312e-08 -7.141298e-06 9.744396e-08 8.928167e-09 -3.8563944e-12 3.4148726e-13 -2.6565883e-10 4.5891395e-07
3.6796973e-07 -1.0943726e-09 1.1786369e-08 -7.2306987e-12 -8.600006e-09 5.365364e-07 1.7557769e-09 3.265626e-08
-4.01948e-09 4.5011954e-09 -1.1871379e-10 6.570969e-07 -9.893451e-09 1.1609754e-07 -9.038239e-13 -7.006502e-07
-2.393076e-08 6.020975e-08 1.0646026e-09 2.3306588e-09 -3.4644893e-07 -2.8360536e-10 9.772031e-16 1.1914099e-09
2.742537e-13 7.467343e-14 7.741303e-09 -1.6095821e-06 9.041903e-07 3.863665e-10 -7.099204e-13 7.611264e-06
-8.402652e-09 3.9102314e-08 1.9414135e-09 -2.9247587e-06 -4.8099336e-10 -3.7338493e-11 -2.1312876e-07 4.13177e-10
2.602288e-06 -3.403608e-06 7.075692e-08 -5.8620904e-09 1.3671153e-10 -1.0255111e-07 -9.485923e-10 9.067526e-08
00000000: 24c1 34b7 1027 c3ae 0e5b e42f 1842 4725
00000010: db91 86ae fef3 30af 76ad ac34 be19 b535
00000020: 4a68 02b5 4851 22ae 575a 082e feb0 11ac
00000030: e620 5133 2fdd 3f36 eee4 94b4 6616 a5ad
00000040: ac40 1835 209e c02e f885 6c34 d0d8 e2b6
00000050: e0f8 4e2e 3ccb 1934 7d59 5bb6 ca6e 6a36
00000060: b8b7 06af f4ea 0c2e e4b0 e9b3 8840 3936
00000070: 73af 0d37 2e25 80b5 608b 4a29 b821 73b6
00000080: 5f3e b130 4a64 c2b5 469f 91b3 f913 cf2e
00000090: 98ee b72c b02a f2b3 88b7 16ae dd96 86b4
000000a0: bc61 53ad 5cd8 34b1 7311 5cb6 8cd0 1b2c
000000b0: 8c80 3631 6c10 f133 d4df dfb2 5986 0436
000000c0: 35aa 902b 835c 27b7 ca4e d52d d087 1731
000000d0: bc33 ce2c c693 9136 dc7c 95b1 75cf d52f
000000e0: e86a 55b3 5893 fb32 3668 eab3 5c64 abae
000000f0: b859 abad 3593 81b6 0200 0080 4a5b 83af
00000100: ccfd 8234 af5b df2f e251 31b4 d9a2 0f32
00000110: 444b 2cae 5e7f 90b2 3aa9 84b3 a4ea b934
00000120: 0958 a5b4 1279 72b6 92e6 96af c0ba b533
00000130: 9090 8335 1f1f 9232 7a01 91b6 c356 bf2b
00000140: e1bb 04b0 fbc9 35b2 84ed 96b4 5c7c 9ab6
00000150: b042 dab6 9e80 ae36 6880 5d30 941b 8b35
00000160: 0ae9 05b6 efbc dc33 d6bd ba30 1b78 feb5
00000170: 1961 db34 56ff 1ab1 e25b d935 6771 3035
00000180: 5bbc aeb4 6dd9 bd31 7598 8c30 90d5 6235
00000190: 8859 e635 251e afb6 c436 bab1 f031 c6b5
000001a0: 3862 f433 3f7a a9b4 107d aab0 a4fa 222e
000001b0: 3155 8433 ffc7 6933 7c3d e9b2 e3b8 d335
000001c0: 1284 28b5 a091 0437 e61c 3633 655d 6a34
000001d0: 33f0 da32 1c1d 02b5 4ac8 20b2 2426 3934
000001e0: 1b31 ad34 c802 bc35 e06b d330 db86 84ac
000001f0: 672c e4ac 0954 762f 2027 7630 5a6e 5926
00000200: 2558 3132 2c1b 90ae 50f2 8ca6 00da 5bb2
00000210: 84b1 07b1 0d7a e731 86e0 32b4 772d 82b4
00000220: ce92 2cb4 a83d 9533 d730 d52a f534 4833
00000230: 3f99 85b1 8b39 5e34 50f8 b8b5 c09e 4e33
00000240: e283 f029 e0cd 28b4 e8da d1b5 9de9 3f37
00000250: 8620 61b4 a8b9 37b5 3cfc 8533 4680 7bb5
00000260: a2a5 af33 40ac dc28 c2c6 3f36 f66c 1135
00000270: ae87 c034 1053 482f 660f bf33 3c01 dab0
00000280: f6db 4536 9440 10b4 742f 1930 931a a3a2
00000290: c9e3 c334 6f1f 0ab6 647e deb2 c27c 84ae
000002a0: 995e 2bb3 5a53 05b5 385e e330 7b94 bc34
000002b0: 404a 09ab 1db4 95b6 e6a2 e035 5817 5733
000002c0: fadf 9629 944d 7b37 0400 0000 763c 2033
000002d0: aacf 9cb5 00e9 c231 f324 63b6 80f2 f4b5
000002e0: 485c 7db4 230b ea34 ec26 2c35 801f 1e2e
000002f0: 17ac 3934 c441 41ae 1590 2229 1057 aaae
00000300: 81b5 4bb2 3159 3eb3 f01a d5b5 6dd0 3d33
00000310: a810 cdab 6271 1c36 c9ea 1234 4432 bb32
00000320: 81bd 4933 489f efb6 6242 d133 7e62 1932
00000330: 50af 87ac 803d c02a 280c 92af a760 f634
00000340: 608d c534 d068 96b0 007d 4a32 5868 feac
00000350: 3abf 13b2 8006 1035 e84f f130 f041 0c33
00000360: b81b 8ab1 efa8 9a31 f686 02af 5b63 3035
00000370: dcf7 29b2 4c51 f933 6067 7eab 5114 3cb5
00000380: 4c90 cdb2 a94c 8133 6051 9230 6229 2031
00000390: 94ff b9b4 e8e9 9baf 6ed4 8c26 02bf a330
000003a0: 2064 9a2a 4d26 a829 9cfe 0432 d208 d8b5
000003b0: 7cb7 7235 4068 d42f 28d3 47ab 4364 ff36
000003c0: 415b 10b2 73f1 2733 b569 0531 f946 44b6
000003d0: e636 04b0 6837 24ae 63d8 64b4 7e25 e32f
000003e0: f8a2 2e36 8a69 64b6 07f3 9733 7e6b c9b1
000003f0: e050 162f 123a dcb3 a05f 82b0 40b9 c233

gate.gate_network.0.bias f4 [10]
-0.03757119 -0.06590957 0.16017559 -0.027413968 -0.049853265 -0.12570548 0.17703268 0.1785643
0.17518696 0.16042182
00000000: 40e4 19bd 99fb 86bd 1205 243e 4293 e0bc
00000010: f032 4cbd f0b8 00be 0e48 353e 8fd9 363e
00000020: 3664 333e 9e45 243e

gate.gate_network.2.weight f4 [5, 10]
9.82468e-09 5.6337253e-06 2.457523e-07 7.1140676e-09 6.545289e-11 1.007031e-08 1.9659869e-07 1.5381178e-07
-1.8318316e-07 1.5344193e-07 -4.3017872e-12 7.703642e-09 -7.587188e-08 -6.1547507e-06 -1.2168489e-11 6.210161e-12
2.83448e-08 -1.17712354e-07 2.8435437e-08 1.0484696e-07 -2.3778592e-17 9.639533e-06 -5.141544e-07 -9.0304e-07
-5.3528844e-09 -7.75416e-09 5.505891e-07 1.3280046e-06 -1.0640377e-06 -6.323309e-06 -1.59905e-12 -2.8012357e-09
5.7491167e-09 -3.4897883e-11 1.4818812e-12 2.6413642e-11 3.199128e-08 -5.781471e-06 1.1909266e-07 4.3373557e-08
-7.550707e-06 7.3523154e-13 9.134219e-06 4.3144662e-17 -6.059971e-07 7.5962106e-08 7.80413e-06 1.8482206e-07
9.505528e-06 9.216205e-06
00000000: 66c9 2832 5509 bd36 f0ef 8334 0070 f431
00000010: b4ee 8f2e b101 2d32 a318 5334 7627 2534
00000020: 01b1 44b4 ccc1 2434 0e5b 97ac fa58 0432
00000030: 02ef a2b3 e884 ceb6 0112 56ad 2880 da2c
00000040: e07a f332 0dc9 fcb3 3042 f432 3a28 e133
00000050: 9d51 dba3 7bb9 2137 6c04 0ab5 7068 72b5
00000060: 78ec b7b1 2837 05b2 32cc 1335 e43d b235
00000070: 0fd0 8eb5 d02c d4b6 d90b e1ab dc7f 40b1
00000080: c489 c531 867b 19ae 668e d02b 3c56 e82d
00000090: c966 0933 75fe c1b6 e2bf ff33 bb49 3a33
000000a0: 145c fdb6 04f3 4e2b 2c3f 1937 3af8 4624
000000b0: ceab 22b5 9c20 a333 7cee 0237 8073 4634
000000c0: ef79 1f37 4d9f 1a37

gate.gate_network.2.bias f4 [5]
0.07921827 -1.0296601 -1.0325668 -2.6855597 1.1016148
00000000: 303d a23d e7cb 83bf 262b 84bf 36e0 2bc0
00000010: b701 8d3f

backbone.layers.0.weight f4 [128, 40]
-0.0908349 0.042272735 0.020130437 0.047400616 -0.0015608339 -0.006011621 -0.0071311346 -0.007018758
-0.0049906163 0.0149914455 0.015175045 0.00017514803 0.011511787 -0.0015448869 0.13570078 0.08833162
-0.014168741 0.029341457 0.021932358 -0.0023053363 -0.008810372 0.008584382 -0.0014243998 -0.005493468
0.0014438516 0.0014438516 -0.0059932736 -0.001052857 0.0007261245 -0.0060236044 -0.0008286609 -0.0045481087
-0.03278787 0.028349558 -0.11516604 -0.037737083 0.051346563 0.029021332 0.008749646 -0.07390611
0.098099515 0.037900247 -0.034669414 -0.0008445755 -0.0073784837 0.018440414 -0.011806627 -0.01597329
-0.0074254167 0.0018285385 -0.004033906 -0.006429415 0.024249403 -0.019043058 -0.01672085 -0.09448516
-0.0013970478 -0.033595305 0.0008599372 -0.002427682 0.010747548 0.013076648 -0.0010391655 -0.00782358
-0.0005125568 -0.0005125568 0.014771734 0.008620462 -0.022885244 0.00013575805 -0.0041616512 -0.007953428
-0.012718904 0.02908792 0.0002606001 0.004302315 -0.007836723 -0.009175645 -0.01312909 0.53098917
-0.10562974 0.041123427 0.007955018 0.009647724 0.009785553 0.015557517 -0.005617493 -0.0054787495
-0.0036468601 -0.040118948 0.011510871 -0.010278574 -0.107662454 0.006986532 0.12406133 0.11834704
0.020489216 0.0559141 0.019783797 -0.00074433215 0.006913697 -0.021378819 -0.0011208064 -0.0042260764
0.00045296914 0.00045296914 -0.0049801874 -0.0057488782 0.007961597 0.0015446502 0.0027675652 0.010694561
0.0070599415 -0.006773891 -0.0082610035 0.0377316 0.0014909033 0.057663318 -0.00434969 -0.09316243
0.021997256 0.0021659376 -0.00032275473 -0.00015467845 0.0012657013 0.0012734962 0.019109994 0.022336116
0.011712112 0.00048509194 0.001427733 0.0010491394 -0.002242534 0.006300123 -0.002666934 0.0017455167
0.0042876564 0.001393551 0.0032335971 0.002527312 -0.002127308 8.733114e-05 0.0012751421 0.010815131
0.00021796684 0.00021796684 0.0006605013 0.001154306 0.005354816 -0.007032097 0.0019209454 -0.0006070148
-0.016506702 0.044183567 0.0008045126 0.00086342124 -0.0011599956 -0.0010119204 -0.027732957 -0.626691
0.10006821 0.021764347 -0.0034392206 -0.0011620397 -5.574112e-05 0.0011780896 -0.034124624 -0.033259265
-0.007972988 -0.00049026904 0.0019626024 -0.002766804 0.0038033056 -0.00455181 0.0074343476 -0.045318205
-0.0068815937 -0.0035098535 -0.00040076143 -0.0017219945 0.00033114295 0.0011950418 -0.001788313 -0.014954298
0.0004558563 0.00045950065 0.009284954 0.0032079217 -0.02109629 -0.02467424 0.005878156 -0.007717805
0.03570784 -0.042990044 0.002394842 0.0008741137 -0.00015539114 7.535464e-05 0.008009833 0.9102144
0.1752467 -0.15152174 -0.035981573 -0.004213691 -0.0042488663 -0.006426882 0.00811966 0.0071350327
0.0056385878 0.0018880845 -0.012247727 -0.020196455 0.0825459 -0.014699178 -0.13230617 -0.10759594
0.021412617 -0.008055875 0.0017944092 0.0025168566 -0.020084485 -0.00472863 -0.0075575225 0.005535088
0.0029932798 0.0030065211 -0.01053855 -0.010076466 -0.0018305015 -0.015778609 -0.00020545317 -0.014775518
0.017401215 -0.013079318 -0.008738848 -0.015377143 0.013777606 0.050583318 -0.009809876 -0.2370585
2.536912e-39 3.249198e-39 1.015947e-39 -7.45246e-40 1.581248e-39 1.434533e-39 1.71718e-39 1.517102e-39
1.681889e-39 -5.94848e-40 -1.71009e-39 3.27334e-40 7.59846e-40 1.584682e-39 5.258e-41 -1.16053e-40
00000000: a607 babd 2d26 2d3d 96e8 a43c 2627 423d
00000010: e594 ccba 22fd c4bb 4bac e9bb 9cfd e5bb
00000020: 5388 a3bb ae9e 753c c0a0 783c f1a7 3739
00000030: ef9b 3c3c cd7d caba 25f5 0a3e 35e7 b43d
00000040: 0224 68bc 7f5d f03c 7dab b33c 2015 17bb
00000050: 6159 10bc 82a5 0c3c edb2 baba 8d02 b4bb
00000060: 9f3f bd3a 9f3f bd3a 3963 c4bb 0500 8aba
00000070: 6459 3e3a a861 c5bb 7e3a 59ba 4d08 95bb
00000080: 934c 06bd 553d e83c 2cdc ebbd 3392 1abd
00000090: c650 523d 25be ed3c ad5a 0f3c 165c 97bd
000000a0: 66e8 c83d 4a3d 1b3d 8401 0ebd 8166 5dba
000000b0: 35c7 f1bb 5a10 973c 9570 41bc 6bda 82bc
000000c0: e950 f3bb 92ab ef3a db2e 84bb d8ad d2bb
000000d0: afa6 c63c 3000 9cbc 2afa 88bc 7081 c1bd
000000e0: 251d b7ba 3b9b 09bd 696d 613a bf19 1fbb
000000f0: 7c16 303c 703f 563c 9c34 88ba 792e 00bc
00000100: 1b5d 06ba 1b5d 06ba 2505 723c d73c 0d3c
00000110: d679 bbbc 465a 0e39 765e 88bb 184f 02bc
00000120: f362 50bc ca49 ee3c 27a1 8839 6ffa 8c3b
00000130: 9965 00bc 7255 16bc 651b 57bc e8ee 073f
00000140: 6854 d8bd 0a71 283d c455 023c 7d11 1e3c
00000150: 9653 203c f5e4 7e3c f212 b8bb 1587 b3bb
00000160: 2900 6fbb c453 24bd 1898 3c3c 7767 28bc
00000170: 227e dcbd 47ef e43b de13 fe3d ef5f f23d
00000180: 00d9 a73c 2f06 653d a111 a23c 491f 43ba
00000190: 4b8c e23b a222 afbc 06e8 92ba e67a 8abb
000001a0: 7d7c ed39 7d7c ed39 d730 a3bb 1661 bcbb
000001b0: 5c71 023c dc75 ca3a 0a60 353b 3d38 2f3c
000001c0: 1557 e73b 84f7 ddbb 2959 07bc 738c 1a3d
000001d0: 6a6a c33a 5f30 6c3d d887 8ebb f2cb bebd
000001e0: 9733 b43c 67f2 0d3b 6837 a9b9 2e31 22b9
000001f0: e3e5 a53a 71eb a63a 908c 9c3c 3bfa b63c
00000200: 29e4 3f3c f053 fe39 c522 bb3a 4783 893a
00000210: 7af7 12bb 4371 ce3b bac7 2ebb d2c9 e43a
00000220: 787f 8c3b d0a7 b63a c2ea 533b 42a1 253b
00000230: 4e6a 0bbb 8c25 b738 ab22 a73a f231 313c
00000240: 078e 6439 078e 6439 7e25 2d3a 154c 973a
00000250: 7477 af3b 816d e6bb 3bc8 fb3a 1320 1fba
00000260: 1039 87bc d4f9 343d ede5 523a 3857 623a
00000270: fe0a 98ba 6aa2 84ba 3a30 e3bc d26e 20bf
00000280: 90f0 cc3d 254b b23c 8c64 61bb 954f 98ba
00000290: 92cb 69b8 216a 9a3a 43c6 0bbd de3a 08bd
000002a0: 23a1 02bc 6685 00ba 019f 003b 4553 35bb
000002b0: e140 793b 5a27 95bb d49b f33b 959f 39bd
000002c0: fe7e e1bb 9205 66bb 4a1d d2b9 8cb4 e1ba
000002d0: 419d ad39 f3a2 9c3a d465 eaba df02 75bc
000002e0: ffff ee39 22e9 f039 eb1f 183c ff3b 523b
000002f0: 20d2 acbc a221 cabc 8c9d c03b a4e5 fcbb
00000300: 6242 123d 5416 30bd c8f2 1c3b c724 653a
00000310: 7ef0 22b9 b707 9e38 ad3b 033c d003 693f
00000320: df73 333e 8428 1bbe 6a61 13bd 0113 8abb
00000330: 133a 8bbb 9898 d2bb 5308 053c fecc e93b
00000340: e7c3 b83b 9a79 f73a b1aa 48bc 0973 a5bc
00000350: d30d a93d d2d4 70bc 457b 07be 435b dcbd
00000360: 8369 af3c cafc 03bc 6232 eb3a d9f1 243b
00000370: 3888 a4bc a0f2 9abb 18a5 f7bb af5f b53b
00000380: e72a 443b 0e09 453b e2a9 2cbc c317 25bc
00000390: 70ed efba 2442 81bc ea6e 57b9 0415 72bc
000003a0: fe8c 8e3c a34a 56bc 632d 0fbc 6af0 7bbc
000003b0: 78bb 613c 7430 4f3d 9ab9 20bc 77bf 72be
000003c0: e19f 1b00 7161 2300 0c10 0b00 711d 0880
000003d0: e037 1100 e59e 0f00 cdb2 1200 1085 1000
000003e0: 6c50 1200 327a 0680 099f 1280 7990 0300
000003f0: 2446 0800 7341 1100 9292 0000 8243 0180

backbone.layers.0.bias f4 [128]
-0.07824625 0.44213033 -0.06678355 -0.43451986 0.7015863 -0.19734076 -0.2067309 0.4603698
-0.26776978 -0.1718558 -0.24263784 -0.40318078 -0.21146347 -0.10268111 -0.49007764 -0.17927653
-0.08363039 -0.15656853 -0.02222677 -0.024495656 -0.09257208 -0.15619339 -0.094863325 -0.23417594
0.41601604 -0.18009336 -0.03981701 -0.27932432 0.4683932 -0.49668294 0.074836895 -0.047941025
-0.48634705 0.3488032 -0.5144298 0.5737865 -0.09587492 -0.03387986 -0.20804694 -0.48688808
-0.17069846 -0.17167172 0.5041912 0.043674104 -0.12027006 0.6601175 -0.41610765 -0.15746447
0.4384985 -0.30845156 -0.058047365 -0.13136877 -0.20898037 -0.19385996 -0.12895763 -0.10608706
-0.49581516 -0.06780817 0.51082873 0.0017811226 -0.4083126 -0.1886709 0.04957278 -0.05256754
-0.031202344 -0.120096974 -0.03551477 -0.19995606 -0.46395135 -0.12152068 -0.044151653 -0.259216
-0.18891717 -0.23958646 -0.21278284 0.4265294 -0.19779252 0.36417058 -0.20482163 -0.115143605
-0.025508871 -0.038148556 -0.54530364 0.20221867 -0.14086013 0.06832584 0.541485 -0.38831687
-0.2721071 0.5142771 -0.48655975 -0.010118007 0.32477918 -0.17429203 -0.43380573 -0.23772427
-0.13859735 -0.49944854 -0.27136406 -0.09229225 0.4317703 -0.46098518 -0.14262056 -0.14054143
-0.46537274 0.3911559 -0.02953361 -0.108599804 -0.5517347 -0.08253202 -0.39951235 -0.07270636
-0.13269587 -0.09413405 -0.27928966 -0.47621125 -0.17928328 -0.3855819 -0.09252162 0.19699569
-0.2076848 -0.43679094 -0.23376635 0.44416913 -0.09326021 0.09584739 -0.051146463 -0.16311648
00000000: 923f a0bd e85e e23e d0c5 88bd 6379 debe
00000010: 299b 333f b213 4abe 44b1 53be 97b5 eb3e
00000020: 1f19 89be f8fa 2fbe 0e76 78be b66d cebe
00000030: e189 58be 794a d2bd 75eb fabe 4494 37be
00000040: 6946 abbd 8053 20be ea14 b6bc 1dab c8bc
00000050: 6e96 bdbd 29f1 1fbe b447 c2bd d1cb 6fbe
00000060: 0e00 d53e 656a 38be 2917 23bd 9903 8fbe
00000070: 3cd1 ef3e 3a4d febe 1644 993d cf5d 44bd
00000080: 7b02 f9be 5596 b23e acb1 03bf ace3 123f
00000090: 125a c4bd 9cc5 0abd 420a 55be 6549 f9be
000000a0: 94cb 2ebe b6ca 2fbe ad12 013f 9ee3 323d
000000b0: 2650 f6bd 76fd 283f 100c d5be 5e3e 21be
000000c0: e082 e03e 5ded 9dbe 13c3 6dbd 8985 06be
000000d0: f3fe 55be 3a83 46be 780d 04be 2c44 d9bd
000000e0: 7cdb fdbe 03df 8abd acc5 023f 8f74 e93a
000000f0: 590e d1be f232 41be d40c 4b3d 1051 57bd
00000100: 0f9c ffbc 67f5 f5bd ef77 11bd 48c1 4cbe
00000110: 088b edbe d6df f8bd 5dd8 34bd f6b7 84be
00000120: 8173 41be 2756 75be bfe3 59be 1062 da3e
00000130: 1f8a 4abe 9174 ba3e c3bc 51be 69d0 ebbd
00000140: fbf7 d0bc a941 1cbd 0599 0bbf 6912 4f3e
00000150: a33d 10be 6bee 8b3d c39e 0a3f 78d1 c6be
00000160: 9f51 8bbe aaa7 033f 5c1e f9be ffc5 25bc
00000170: 7549 a63e 9c79 32be c91b debe fe6d 73be
00000180: 77ec 0dbe b8b7 ffbe 3bf0 8abe b803 bdbd
00000190: ff10 dd3e 4006 ecbe 200b 12be 18ea 0fbe
000001a0: 5645 eebe 9645 c83e 78f0 f1bc 9369 debd
000001b0: 7c3e 0dbf 8c06 a9bd e28c ccbe 12e7 94bd
000001c0: 6de1 07be 5ac9 c0bd 0eff 8ebe f6d1 f3be
000001d0: 0996 37be fe6a c5be fa7b bdbd 3db9 493e
000001e0: 53ab 54be 10a3 dfbe 7260 6fbe 236a e33e
000001f0: 35ff bebd a34b c43d f47e 51bd 0208 27be

backbone.layers.1.weight f4 [64, 128]
0.03401263 -0.0040130154 0.041614957 -0.018501343 -0.07130013 -0.062145784 3.900419e-39 0.029760174
-0.065344766 2.368979e-39 -3.015293e-39 -0.017365165 -5.471818e-39 0.028107595 -0.017807763 -3.13733e-40
1.709961e-39 -3.28166e-39 -2.696928e-39 -3.7351e-40 0.026387282 -1.583443e-39 1.9448247e-38 -7.37077e-40
0.028439216 -2.343103e-39 2.15986e-40 6.22049e-39 0.027262943 -0.023183063 -0.0094286855 -9.78043e-40
-0.017503433 0.016221074 -0.022949966 0.03230831 -1.206899e-39 -3.035295e-39 1.227448e-39 -0.022560928
0.013366883 7.074793e-39 0.02331502 -0.05308538 7.201766e-38 -0.07081428 -0.014424327 -1.28088e-39
0.025950873 -6.315979e-39 -7.47544e-40 1.451833e-39 -9.94367e-40 2.320618e-39 -2.056009e-39 -4.909193e-39
-0.019377075 0.026366504 0.030048808 -0.051339094 -0.021026155 1.793853e-39 -0.04502847 6.877978e-39
-3.40149e-39 -1.610117e-39 -7.6019e-40 7.56289e-40 -0.086870156 1.579986e-39 -3.562559e-39 -2.356459e-39
-1.514537e-39 5.17387e-40 8.77765e-40 0.024900004 1.876479e-39 0.019475756 -2.569012e-39 -0.009022284
1.508246e-39 -1.510977e-39 -0.018402413 -0.0076140654 9.65198e-40 -0.012896454 0.03225315 -0.01967681
-1.361957e-39 0.035929628 -0.09494128 0.043558072 0.0015523657 -1.1600886e-38 -0.015403779 -2.696332e-39
1.40823e-39 -0.09813794 1.17737e-40 -1.386022e-39 0.06325625 -0.017647188 -2.575801e-39 5.580193e-39
-0.03200571 0.03733226 2.128383e-39 -1.821715e-39 -0.018541818 0.03601483 3.87018e-40 1.41587e-40
-1.596941e-39 -1.320537e-39 -2.76922e-40 -0.0173097 7.345505e-10 -0.03657802 -1.004326e-39 -0.010691579
1.311083e-39 -0.020256381 7.00928e-40 0.040214024 -1.493878e-39 -0.047655288 0.03626982 0.00020152712
0.037391424 -0.004855664 0.047466718 -0.02201491 -0.0759052 -0.06617883 1.87152e-40 0.031952947
-0.072430395 8.582e-40 -2.125576e-39 -0.020184353 8.440934e-39 0.028281735 -0.021907445 2.68434e-40
7.57337e-40 -1.216617e-39 -3.361248e-39 2.711099e-39 0.02890064 -4.8537e-41 9.441753e-39 5.977257e-39
0.031836923 1.18168e-39 8.8595e-40 5.133584e-39 0.028767193 -0.025115041 -0.009838623 -1.033057e-39
-0.024078848 0.018344438 -0.024091851 0.03411883 -1.326915e-39 3.289486e-39 2.071348e-39 -0.023369033
0.015858574 1.3125758e-38 0.025423095 -0.057305224 3.2390857e-38 -0.07480452 -0.015039408 1.964464e-39
0.027790688 6.565627e-39 -2.355948e-39 1.849645e-39 -1.15028e-40 -3.552563e-39 -1.062617e-39 -6.991787e-39
-0.02149103 0.028692389 0.031280812 -0.059366923 -0.026015893 -1.595696e-39 -0.04651391 -1.700812e-39
3.324111e-39 -1.861231e-39 -1.041047e-39 1.067078e-39 -0.096434005 4.37012e-40 -1.82973e-39 2.635749e-39
-1.429001e-39 6.97488e-40 4.38356e-40 0.026539968 -1.333094e-39 0.02157721 1.138286e-39 -0.01036382
-2.733775e-39 -1.211868e-39 -0.023734076 -0.009434714 -2.687723e-39 -0.012598632 0.035537485 -0.025075171
-1.830439e-39 0.0384059 -0.10280209 0.049534153 0.0010294156 9.176882e-39 -0.017625922 1.136505e-39
1.3284e-40 -0.10978648 -6.2666e-41 1.792744e-39 0.067535676 -0.019426927 -1.337443e-39 5.980911e-39
-0.039144807 0.042907983 2.289482e-39 1.019106e-39 -0.02197524 0.0405148 3.544378e-39 3.353868e-39
-2.015591e-39 1.283675e-39 1.462354e-39 -0.020659545 1.1972684e-06 -0.04169072 -1.070002e-39 -0.012072952
1.4354e-40 -0.02170589 1.460977e-39 0.04347339 -1.447176e-39 -0.05203385 0.039965358 -5.2864775e-06
00000000: d450 0b3d 9d7f 83bb 7274 2a3d 2190 97bc
00000010: cd05 92bd 948c 7ebd c878 2a00 9ccb f33c
00000020: 7ad3 85bd c0cb 1900 69d5 2080 6441 8ebc
00000030: 3495 3b80 e641 e63c 96e1 91bc 8f6a 0380
00000040: ad9e 1200 efbb 2380 f05d 1d80 3211 0480
00000050: 242a d83c ff3d 1180 cdc5 d300 ac06 0880
00000060: 5cf9 e83c 9e83 1980 155a 0200 32bc 4300
00000070: 8956 df3c 68ea bdbc c67a 1abc 63a6 0a80
00000080: 5c63 8fbc 0fe2 843c 9101 bcbc b855 043d
00000090: 5824 0d80 2b0d 2180 a05d 0d00 b2d1 b8bc
000000a0: c500 5b3c a509 4d00 24ff be3c 0e70 59bd
000000b0: fc0c c401 1407 91bd 0354 6cbc 93f2 0d80
000000c0: ed96 d43c 61c6 4480 d923 0880 1fcf 0f00
000000d0: e4d3 0a80 f044 1900 5163 1680 d574 3580
000000e0: acbc 9ebc 91fe d73c eb28 f63c f148 52bd
000000f0: 0b3f acbc 8888 1300 c66f 38bd 01e5 4a00
00000100: f809 2580 5a88 1180 1a47 0880 3a3c 0800
00000110: fbe8 b1bd 5c34 1100 f7ca 2680 d9a8 1980
00000120: ea7d 1080 44a2 0500 da8e 0900 18fb cb3c
00000130: dc6e 1400 9f8b 9f3c 5cf9 1b80 34d2 13bc
00000140: 606c 1000 fd73 1080 a8c0 96bc 697f f9bb
00000150: 9482 0a00 a64b 53bc e11b 043d 4331 a1bc
00000160: 95d4 0e80 f22a 133d 9370 c2bd f369 323d
00000170: c078 cb3a 8d52 7e80 2260 7cbc 475c 1d80
00000180: 9355 0f00 8bfc c8bd 3448 0100 aa17 0f80
00000190: 7e8c 813d d690 90bc 490c 1c80 4fc3 3c00
000001a0: 6b18 03bd b6e9 183d 112d 1700 33d6 1380
000001b0: 03e5 97bc 4984 133d d936 0400 b08a 0100
000001c0: 9f63 1180 1f61 0e80 f203 0380 12cd 8dbc
000001d0: 65e9 4930 d5d2 15bd a7ef 0a80 bc2b 2fbc
000001e0: c446 0e00 b6f0 a5bc e7a1 0700 76b7 243d
000001f0: 5344 1080 3132 43bd aa8f 143d 0651 5339
00000200: c027 193d 431c 9fbb 766c 423d 9d58 b4bc
00000210: 2f74 9bbd c488 87bd b409 0200 18e1 023d
00000220: 6356 94bd 5058 0900 3e25 1780 a859 a5bc
00000230: e4e9 5b00 19af e73c 3e77 b3bc 49ec 0200
00000240: 263f 0800 6f3f 0d80 cb99 2480 7185 1d00
00000250: 09c1 ec3c 4d87 0080 c4cf 6600 2916 4100
00000260: 6f67 023d 0bde 0c00 aba5 0900 58e6 3700
00000270: 2da9 eb3c 0fbe cdbc 2d32 21bc be3f 0b80
00000280: 0141 c5bc 1347 963c 465c c5bc 30c0 0b3d
00000290: e672 0e80 c0d1 2300 138e 1600 6a70 bfbc
000002a0: d7e9 813c 46ed 8e00 1844 d03c e2b8 6abd
000002b0: 445a 3001 1d33 99bd d967 76bc 2064 1500
000002c0: 4ca9 e33c 4c7e 4700 6da7 1980 0f24 1400
000002d0: a740 0180 1aaf 2680 2592 0b80 4222 4c80
000002e0: f50d b0bc 4d0c eb3c 4f20 003d bb2a 73bd
000002f0: 481f d5bc 2760 1180 5f85 3ebd 2c85 1280
00000300: 4532 2400 5b44 1480 0456 0b80 949e 0b00
00000310: 317f c5bd 36c2 0400 8bec 1380 65b3 1c00
00000320: 798f 0f80 5098 0700 f5c5 0400 596a d93c
00000330: 2084 0e80 b0c2 b03c 1465 0c00 03cd 29bc
00000340: a7c4 1d80 3232 0d80 f76d c2bc 0f94 1abc
00000350: 4744 1d80 7e6a 4ebc c18f 113d 726a cdbc
00000360: 85ee 1380 814f 1d3d e789 d2bd 53e4 4a3d
00000370: 75ed 863a 6aed 6300 3d64 90bc 1d60 0c00
00000380: 4e72 0100 bcd7 e0bd b0ae 0080 7185 1300
00000390: 2550 8a3d 3825 9fbc 3f90 0e80 5920 4100
000003a0: 4e56 20bd 48c0 2f3d 25ee 1800 da18 0b00
000003b0: 6b05 b4bc d9f2 253d 4998 2600 3885 2400
000003c0: a6f2 1580 5dfa 0d00 73ec 0f00 353e a9bc
000003d0: d4b1 a035 e3c3 2abd bba6 0b80 a2cd 45bc
000003e0: 2290 0100 8dd0 b1bc 9ce8 0f00 2711 323d
000003f0: 23c2 0f80 7221 55bd b7b2 233d 7f62 b1b6

backbone.layers.1.bias f4 [64]
0.12207643 0.13623859 -3.5684914e-06 -0.09449989 0.041977413 0.040327184 0.042786557 -2.0886725e-08
0.041081406 -0.09129873 0.13303474 0.039165605 -0.00020240944 0.041333016 0.120565884 0.03727433
0.039281156 -0.05109912 -0.000108925626 0.1288166 0.13238554 -0.0003391238 0.042680744 -0.08863818
0.12827438 -0.045681737 -0.0021167726 0.1304976 0.13489878 -0.0069097425 -0.018881518 0.037491895
0.040122915 0.040492564 0.12322249 0.13370483 0.12298964 0.13638268 0.041602544 -0.06332032
0.042071275 -0.0016191415 0.124385774 0.12184139 -0.026321283 0.043505996 0.12645066 -0.0002816156
0.12624787 0.12333896 0.12582989 0.12634614 0.13279618 0.041445374 -0.0004532592 0.13294296
-0.09004786 0.13570046 -0.035238612 -5.3428317e-05 0.12095744 0.040313378 0.12419202 0.04021839
00000000: 3503 fa3d 2182 0b3e 377a 6fb6 2989 c1bd
00000010: 82f0 2b3d 1e2e 253d f540 2f3d 656a b3b2
00000020: fa44 283d d4fa babd 423a 083e 1d6c 203d
00000030: df3d 54b9 cf4c 293d 3feb f63d f8ac 183d
00000040: 47e5 203d 504d 51bd 006f e4b8 80e8 033e
00000050: 1390 073e 6dcc b1b9 01d2 2e3d ef87 b5bd
00000060: 5c5a 033e c61c 3bbd 8db9 0abb 2aa1 053e
00000070: e822 0a3e 1f6b e2bb 6aad 9abc 1a91 193d
00000080: ed57 243d 88db 253d 135c fc3d ebe9 083e
00000090: fee1 fb3d e7a7 0b3e 6e67 2a3d 15ae 81bd
000000a0: ee52 2c3d 6039 d4ba f8bd fe3d fb87 f93d
000000b0: bb9f d7bc 5833 323d 487c 013e cea5 93b9
000000c0: 1f47 013e 2399 fc3d 8dd9 003e e260 013e
000000d0: b9fb 073e a0c2 293d 6ca3 edb9 3322 083e
000000e0: 036b b8bd 10f5 0a3e 5d56 10bd 3818 60b8
000000f0: 89b8 f73d a41f 253d 6358 fe3d 0abc 243d

backbone.output_layer.weight f4 [2, 64]
-0.19935499 -0.21499583 3.201196e-39 1.0767362 0.5356776 0.5399779 0.557264 2.36958e-39
0.5280687 1.0915687 -0.2263646 0.5375122 3.110427e-39 0.5385177 -0.20169702 0.543525
0.5341643 1.707718e-39 2.280783e-39 -0.21667995 -0.21513367 -1.460481e-39 0.55153793 8.69228e-40
-0.19873872 1.086969e-39 -1.475747e-39 -0.22101608 -0.2186001 1.441181e-39 1.313462e-39 0.5008501
0.5355011 0.5395036 -0.21459474 -0.22055113 -0.20097134 -0.22331142 0.57322913 -1.686154e-39
0.53366375 1.227424e-39 -0.22103472 -0.21086885 8.25732e-40 0.55917186 -0.21780002 1.627045e-39
-0.20305566 -0.20769562 -0.21547702 -0.21266584 -0.21555315 0.55388045 2.415571e-39 -0.22425827
1.1008267 -0.2132828 1.581367e-39 3.280909e-39 -0.21246 0.5447742 -0.21346499 0.5664302
0.19935511 0.21518776 -2.140748e-39 -1.0760419 -0.53567827 -0.53997797 -0.55726635 2.202376e-39
-0.5280688 -1.0913028 0.22630107 -0.5375123 -3.18428e-39 -0.53851795 0.2017018 -0.543524
-0.5341643 1.887887e-39 1.86393e-39 0.21672463 0.2151054 -1.584377e-39 -0.5515376 5.05628e-40
0.19873607 1.216111e-39 1.486485e-39 0.22098057 0.2185971 -1.381142e-39 -2.256767e-39 -0.5008499
-0.535504 -0.53950363 0.2145504 0.2205805 0.20098871 0.22327164 -0.573228 -1.784087e-39
-0.5336635 1.248411e-39 0.22103767 0.21087769 8.50375e-40 -0.55917287 0.21778494 -1.736668e-39
0.20295817 0.20768914 0.21565397 0.21266043 0.2156944 -0.55387974 -2.963303e-39 0.22427544
-1.1003735 0.21355946 1.543474e-39 3.766655e-39 0.21244691 -0.54477423 0.21347725 -0.56642735
00000000: b723 4cbe de27 5cbe a2db 2200 7ed2 893f
00000010: 2b22 093f fe3b 0a3f daa8 0e3f 6dcd 1900
00000020: 832f 073f 86b8 8b3f 1fcc 67be 669a 093f
00000030: 9bde 2100 4cdc 093f aa89 4ebe 7424 0b3f
00000040: febe 083f 6c98 1200 e5d5 1800 59e1 5dbe
00000050: 004c 5cbe 3ae7 0f80 9731 0d3f 0e77 0900
00000060: 2a82 4bbe 07d6 0b00 c811 1080 0a52 62be
00000070: b4d8 5fbe 6db1 0f00 664d 0e00 b637 003f
00000080: 9a16 093f e81c 0a3f b9be 5bbe 28d8 61be
00000090: 6ecb 4dbe c0ab 64be 25bf 123f 505c 1280
000000a0: 309e 083f 8f5d 0d00 ed56 62be 01ee 57be
000000b0: cefd 0800 e325 0f3f f806 5fbe 8ab7 1100
000000c0: d3ed 4fbe 29ae 54be 02a6 5cbe 13c5 59be
000000d0: f7b9 5cbe 1ccb 0d3f a14d 1a00 f6a3 65be
000000e0: e4e7 8c3f ce66 5abe 3538 1100 d7b9 2300
000000f0: 1d8f 59be 5276 0b3f 9196 5abe 9201 113f
00000100: bf23 4c3e 2e5a 5c3e 894f 1780 bebb 89bf
00000110: 3622 09bf ff3b 0abf 02a9 0ebf 54fb 1700
00000120: 842f 07bf cfaf 8bbf 78bb 673e 689a 09bf
00000130: 7aac 2280 50dc 09bf eb8a 4e3e 6424 0bbf
00000140: febe 08bf a98e 1400 e14b 1400 10ed 5d3e
00000150: 9744 5c3e 9940 1180 9131 0dbf 7c81 0500
00000160: 7881 4b3e 063e 0d00 b72f 1000 bb48 623e
00000170: ebd7 5f3e 100a 0f80 f392 1880 b337 00bf
00000180: ca16 09bf e91c 0abf 1ab3 5b3e dbdf 613e
00000190: fccf 4d3e 52a1 643e 12bf 12bf 4f6d 1380
000001a0: 2c9e 08bf 1098 0d00 b357 623e 52f0 573e
000001b0: 8042 0900 f425 0fbf 0403 5f3e 20e9 1280
000001c0: 44d4 4f3e 76ac 543e 65d4 5c3e a8c3 593e
000001d0: fede 5c3e 10cb 0dbf 7c44 2080 76a8 653e
000001e0: 0ad9 8cbf 55af 5a3e 94ce 1000 e703 2900
000001f0: af8b 593e 5376 0bbf c899 5a3e 6201 11bf

backbone.output_layer.bias f4 [2]
-0.4143324 0.41433218
00000000: 6023 d4be 5923 d43e

exp_avg f4 [10, 40]
0.00058126147 4.0136932e-08 -1.812911e-08 -1.34945384e-14 5.431792e-09 8.029958e-09 -2.0017458e-05 3.2431064e-05
5.2166175e-05 3.855165e-09 -1.6218976e-09 8.2941085e-11 -1.9349477e-06 4.3556602e-07 1.27743e-05 7.099525e-10
-6.240664e-05 -8.951757e-09 -1.645069e-05 0.00037707595 -2.7978435e-09 8.764518e-06 9.217339e-05 -0.0003025932
9.073798e-09 3.6536452e-09 8.149935e-06 -0.00041858814 -0.0003146263 2.955855e-06 -4.536263e-12 0.00013149715
-8.453801e-08 2.7738088e-05 6.288194e-07 -5.663729e-09 -3.7636835e-10 -9.020171e-06 1.0233157e-10 1.3847302e-05
-1.1646238e-09 1.3285228e-07 9.369428e-05 1.767218e-11 3.6430797e-07 8.0902385e-07 -3.9564196e-07 -0.0002026254
-3.2071127e-11 -3.4300643e-05 1.3371798e-09 -1.3256049e-06 -2.5818747e-10 9.2950075e-05 -1.4358766e-07 -3.5840821e-09
8.2121295e-07 -4.8314123e-06 1.4494921e-06 -1.0811573e-08 -8.5040264e-10 -0.000108601176 -1.993e-42 8.43465e-09
6.295637e-05 -4.151232e-08 1.2014464e-05 4.6585708e-07 -7.2681905e-10 -2.1965289e-07 2.4676046e-06 -1.0345001e-06
-1.5359029e-06 0.000262961 1.8598215e-08 1.3211172e-05 -2.3549208e-05 1.6971732e-07 -9.890302e-05 7.4181855e-11
-1.8197945e-09 4.7225825e-08 5.6745207e-06 -0.000204025 -3.97731e-05 -1.01412725e-05 -4.929384e-09 0.00016982456
-9.629293e-05 2.5821892e-06 6.499217e-10 7.3087813e-06 7.8340545e-06 3.2031807e-07 2.8002152e-05 6.48977e-06
3.4630361e-06 2.340383e-07 1.2679055e-08 7.347297e-05 8.70661e-06 1.9715455e-05 -3.602669e-07 -0.00014304889
5.3967697e-06 4.692189e-06 -3.8837672e-07 -4.686472e-09 4.8987476e-07 -1.169738e-07 -2.1166493e-06 -3.5386718e-05
-4.4549433e-05 2.0861247e-05 1.8027457e-06 -7.329373e-06 6.7868876e-07 -4.1969823e-05 1.0371103e-07 -1.726075e-06
-8.958378e-06 -0.0008112202 -7.077841e-07 9.668944e-11 2.3259357e-10 -7.233246e-09 -3.3192645e-08 -3.4832282e-14
-6.084265e-07 1.9609556e-09 3.9098763e-14 -6.869057e-06 2.6618414e-07 -1.7639961e-07 7.03268e-06 2.3394148e-05
8.214958e-06 1.7979766e-05 -1.2378121e-11 -2.127556e-06 2.4693873e-07 -7.807716e-06 0.00022347242 -3.6618232e-05
-3.197817e-12 4.217212e-05 0.0003230598 -0.00049916457 1.0717101e-05 8.971896e-05 2.2355876e-05 2.6883603e-05
-9.768572e-06 -9.580679e-13 -0.00010674714 -1.6355994e-05 4.8105634e-05 1.202474e-07 6.744934e-06 6.369723e-08
-0.0001445961 -2.472829e-05 -5.216962e-10 -5.4225587e-17 2.845445e-06 9.365678e-05 2.0557734e-06 4.7362465e-09
-1.5934291e-06 1.205535e-05 -2.888465e-07 -1.8940418e-05 -5.8760624e-10 0.00042670892 -7.542532e-05 5.0077206e-06
-6.7520756e-13 -0.00069820357 3.803e-42 -1.1559995e-06 0.00011713392 -3.345252e-07 0.00016157802 -0.0002606822
7.169326e-05 -2.350441e-05 -1.4979723e-05 7.249851e-10 1.8926067e-06 -8.814217e-09 -9.786184e-13 3.1312023e-08
5.483195e-07 2.1745361e-06 0.00026638218 -1.5025511e-06 3.7682843e-10 -0.000110354355 -9.663319e-06 -1.8634261e-06
-1.9512202e-06 0.00067750784 -7.226642e-06 -3.455661e-07 -1.880346e-09 -1.8981976e-11 -1.0621023e-07 -1.7164624e-05
2.9588822e-05 2.3877956e-07 0.00011863363 4.8828913e-10 3.9928253e-07 -2.1511767e-05 -2.8219637e-07 -1.7020861e-06
4.416587e-07 -2.3405826e-07 6.704371e-09 -3.9194456e-06 4.939661e-07 -2.2071421e-05 5.3932225e-10 2.4573274e-05
5.775005e-06 -4.4645367e-06 -5.496378e-08 -7.984786e-08 -4.3308105e-06 1.32474955e-08 -3.59817e-14 -6.611177e-08
1.1095313e-10 1.2261314e-12 1.04153436e-07 0.00016822729 0.00011378296 5.3722647e-07 2.5411256e-11 -0.0003214851
4.3372884e-07 -1.1322632e-06 -9.5660084e-08 -0.00013106393 6.1221836e-09 -1.3157388e-08 8.609603e-06 -2.6143107e-08
-0.00016834759 0.0002346382 -1.0314578e-06 2.4040673e-07 1.05889946e-07 -8.105913e-06 1.9936628e-07 1.5753001e-05
00000000: cc5f 183a 0663 2c33 56ba 9bb2 9318 73a8
00000010: 8ca2 ba31 21f4 0932 2aeb a7b7 9706 0838
00000020: 01cd 5a38 6476 8431 73e9 deb0 ae63 b62e
00000030: 26da 01b6 bdd7 e934 3351 5637 7726 4330
00000040: 4fe0 82b8 3eca 19b2 96ff 89b7 47b2 c539
00000050: 2f44 40b1 510b 1337 364d c138 5fa5 9eb9
00000060: fce2 1b32 9b13 7b31 b4bb 0837 f375 dbb9
00000070: 6df4 a4b9 345d 4636 069b 9fac 7fe2 0939
00000080: 438b b5b3 17af e837 24cc 2835 b09a c2b1
00000090: 23e9 ceaf 5755 17b7 8d07 e12e b651 6837
000000a0: 8f10 a0b0 28a6 0e34 bc7d c438 3672 9b2d
000000b0: 1b96 c334 b22b 5935 9e68 d4b4 d777 54b9
000000c0: e10c 0dae 09de 0fb8 d5c7 b730 70eb b1b5
000000d0: a8f0 8daf 31ee c238 132d 1ab4 d74b 76b1
000000e0: 5371 5c35 841d a2b6 2b8c c235 cdbd 39b2
000000f0: c4c1 69b0 d0c0 e3b8 8e05 0080 fce7 1032
00000100: 7207 8438 474b 32b3 bb91 4937 e91a fa34
00000110: 58c9 47b0 bad9 6bb4 2099 2536 27d9 8ab5
00000120: 3925 ceb5 07de 8939 e8c1 9f32 8da5 5d37
00000130: 8a8b c5b7 8b3b 3634 286a cfb8 ac20 a32e
00000140: 541c fab0 58d5 4a33 c367 be36 8bef 55b9
00000150: 0ad2 26b8 6f24 2ab7 525f a9b1 ef12 3239
00000160: e0f0 c9b8 ac49 2d36 2da6 3230 f43d f536
00000170: 026f 0337 2ef8 ab34 2ae6 ea37 b3c2 d936
00000180: 8266 6836 f54b 7b34 13d3 5932 8015 9a38
00000190: 9b12 1237 9e62 a537 b56a c1b4 65ff 15b9
000001a0: e615 b536 9971 9d36 1782 d0b4 a506 a1b1
000001b0: f07f 0335 0733 fbb3 c20b 0eb6 336c 14b8
000001c0: 97da 3ab8 30ff ae37 dff5 f135 d6ee f5b6
000001d0: 232f 3635 c108 30b8 beb7 de33 7cab e7b5
000001e0: f14b 16b7 11a8 54ba 8efe 3db5 519f d42e
000001f0: 45bd 7f2f 4e88 f8b1 b38f 0eb3 e3de 1ca9
00000200: c052 23b5 7fc1 0631 ce15 3029 c07c e6b6
00000210: 12e8 8e34 5b68 3db4 43fa eb36 8d3e c437
00000220: fad2 0937 41d3 9637 1ac2 59ad 22c7 0eb6
00000230: 0093 8434 e3fd 02b7 ec53 6a39 8796 19b8
00000240: c006 61ac f8e1 3038 5a60 a939 5eda 02ba
00000250: 99cd 3337 8027 bc38 e188 bb37 1984 e137
00000260: b3e3 23b7 09d6 86ab 6fdd dfb8 3b34 89b7
00000270: 08c5 4938 5b1d 0134 8b52 e236 ecc9 8833
00000280: b89e 17b9 996f cfb7 1b67 0fb0 4612 7aa4
00000290: 5ff4 3e36 9a69 c438 ebf5 0936 77bc a231
000002a0: cfdd d5b5 5641 4a37 c312 9bb4 3de2 9eb7
000002b0: 1d85 21b0 e7b7 df39 a92d 9eb8 fe07 a836
000002c0: d50d 3eab a607 37ba 9a0a 0000 d727 9bb5
000002d0: cba5 f538 cb98 b3b4 456d 2939 2cac 88b9
000002e0: 075a 9638 562b c5b7 6c51 7bb7 4b48 4730
000002f0: 7905 fe35 566d 17b2 72ba 89ab ef7b 0633
00000300: 3b30 1335 3fee 1136 36a9 8b39 43ab c9b5
00000310: e329 cf2f 0b6e e7b8 a41f 22b7 d51a fab5
00000320: b5f1 02b6 c89a 313a 627c f2b6 3e86 b9b4
00000330: 6637 01b1 9cf7 a6ad b115 e4b3 c0fc 8fb7
00000340: 8335 f837 9d31 8034 f2ca f838 4b38 0630
00000350: f95c d634 2b74 b4b7 c680 97b4 3c73 e4b5
00000360: 1c1d ed34 7251 7bb4 455c e631 c883 83b6
00000370: 1899 0435 0426 b9b7 6e3f 1430 b422 ce37
00000380: eac6 c136 14ce 95b6 5111 6cb3 d378 abb3
00000390: 6151 91b6 1a97 6332 130c 22a9 54f9 8db3
000003a0: 0ffd f32e 0a90 ac2b f5aa df33 2b66 3039
000003b0: c39e ee38 ec35 1035 1085 df2d 008d a8b9
000003c0: 3ddb e834 44f8 97b5 b06d cdb3 356e 09b9
000003d0: 4c5b d231 ce0a 62b2 f771 1037 4d91 e0b2
000003e0: 7686 30b9 3609 7639 9f70 8ab5 4011 8134
000003f0: 9d65 e333 a2fe 07b7 6311 5634 5025 8437

exp_avg_sq f4 [10, 40]
4.6523346e-06 2.1627989e-06 1.2830484e-06 1.8511603e-06 1.8960587e-06 1.5605764e-06 1.2468665e-06 2.5899599e-06
3.212059e-06 1.9537554e-06 1.5857387e-06 1.8132108e-06 3.813517e-06 2.7601395e-06 1.2888588e-06 1.4702457e-06
1.9709476e-06 1.9469976e-06 1.8391838e-06 4.6211812e-06 1.6957097e-06 2.4241556e-06 3.4916125e-06 5.766164e-06
1.779882e-06 1.3325292e-06 5.364257e-06 2.1371543e-06 1.1983104e-06 2.7771957e-06 1.942991e-06 3.2436324e-06
1.6752294e-06 3.212039e-06 3.292741e-06 1.8176117e-06 1.7711399e-06 2.3917216e-06 2.7753656e-06 4.393187e-06
2.8896088e-06 1.4539298e-06 1.420206e-06 3.4746574e-06 2.8647517e-06 2.0961213e-06 3.1447225e-06 5.614046e-06
1.3816286e-06 3.508849e-06 1.2307358e-06 1.1659553e-06 1.436427e-06 2.0936752e-06 3.0225817e-06 1.3181121e-06
3.8066994e-06 1.5958392e-06 3.7405184e-06 1.2039815e-06 2.980406e-06 2.073015e-06 7e-43 1.419554e-06
2.854279e-06 5.393136e-06 2.7203089e-06 2.948081e-06 1.2639306e-06 3.16603e-06 2.4577198e-06 1.3033657e-06
2.111853e-06 6.3928233e-06 1.482002e-06 1.691465e-06 1.3656257e-06 3.19998e-06 2.0914692e-06 4.623166e-06
2.6607058e-06 3.3099097e-06 5.024651e-06 1.3666523e-06 3.0494703e-06 3.168413e-06 3.3937738e-06 1.232705e-06
7.75784e-06 1.4882958e-06 2.9574064e-06 2.6007594e-06 1.5719072e-06 2.186625e-06 1.5992143e-06 1.7128327e-06
2.7074832e-06 2.0544323e-06 2.825832e-06 1.2253482e-06 2.9410487e-06 1.93572e-06 1.0561575e-06 1.0524334e-06
1.3125104e-06 4.165135e-06 9.662695e-07 2.7257881e-06 2.3937644e-06 3.1713116e-06 1.0551294e-06 5.1648935e-06
2.060321e-06 2.599223e-06 1.3421571e-06 1.9658953e-06 1.4721163e-06 1.2189385e-06 3.711854e-06 3.7961731e-06
1.1552204e-06 5.0609956e-06 2.8681882e-06 1.1037232e-06 1.4452213e-06 1.2659209e-06 1.5048021e-06 1.4772285e-06
1.924257e-06 1.2079267e-06 1.5225763e-06 2.9722878e-06 2.4670796e-06 3.4786567e-06 1.567768e-06 3.927306e-06
1.7911867e-06 5.484204e-06 1.2730756e-06 1.6474119e-06 1.9624858e-06 1.5087697e-06 2.6676425e-06 2.910368e-06
1.2083008e-06 4.551902e-06 2.7525973e-06 1.6244576e-06 1.832575e-06 2.4937312e-06 5.90238e-06 1.1780922e-06
4.241414e-06 1.4555615e-06 3.5966882e-06 1.2143835e-06 6.327501e-06 2.8278132e-06 3.135808e-06 1.4637602e-06
1.8733735e-06 4.6670193e-06 1.4094488e-06 1.3935661e-06 1.2966541e-06 1.7707322e-06 2.1483847e-06 1.934603e-06
3.0775038e-06 1.5190808e-06 2.284043e-06 2.41538e-06 2.7811382e-06 6.122368e-06 4.12652e-06 1.2612554e-06
1.4328092e-06 2.0033463e-06 7e-43 1.5920903e-06 1.2284524e-06 1.9894094e-06 4.212752e-06 3.0382205e-06
2.6991218e-06 4.2068946e-06 3.4212926e-06 3.1499922e-06 1.3970613e-06 2.8882275e-06 1.5471713e-06 2.3074779e-06
1.8285026e-06 1.7221647e-06 2.750958e-06 2.3845296e-06 2.8148045e-06 1.0879234e-06 4.333805e-06 5.883148e-06
1.2826422e-06 3.5733729e-06 3.0827255e-06 1.8341275e-06 2.0665984e-06 2.6898406e-06 4.708541e-06 1.1535576e-06
2.1107576e-06 3.851893e-06 4.2115016e-06 1.7230097e-06 1.3910717e-06 1.2708448e-06 3.3327126e-06 2.385941e-06
3.278976e-06 2.3851264e-06 1.6488821e-06 2.180724e-06 1.4409675e-06 3.881163e-06 2.0443285e-06 1.6916857e-06
3.6191645e-06 2.7415476e-06 1.5005803e-06 1.0514854e-06 5.4982556e-06 1.3965016e-06 1.1355542e-06 1.6290795e-06
1.5859331e-06 1.821679e-06 4.2926195e-06 3.2800806e-06 4.9832647e-06 2.5927268e-06 1.1026535e-06 2.549124e-06
2.0021082e-06 1.7198869e-06 1.9047285e-06 3.88988e-06 1.7404727e-06 1.6233944e-06 1.9901493e-06 1.7674265e-06
1.9639253e-06 1.362356e-06 4.591691e-06 1.7157515e-06 1.6249205e-06 3.7063091e-06 2.3063092e-06 1.4844084e-06
00000000: 401b 9c36 9a24 1136 3535 ac35 6275 f835
00000010: 157c fe35 ff74 d135 025a a735 2ccf 2d36
00000020: c18e 5736 431d 0336 91d5 d435 735d f335
00000030: b9eb 7f36 d63a 3936 dafc ac35 4255 c535
00000040: 9f44 0436 2aa9 0236 e0d9 f635 a50f 9b36
00000050: 2498 e335 adae 2236 7251 6a36 f97a c136
00000060: 48e4 ee35 5bd9 b235 9efe b336 086c 0f36
00000070: a2d5 a035 dc5f 3a36 5564 0236 2ead 5936
00000080: 72d8 e035 698e 5736 dcf8 5c36 aaf4 f335
00000090: e7b7 ed35 7781 2036 6b40 3a36 3069 9336
000000a0: 1aeb 4136 a624 c335 e89d be35 292e 6936
000000b0: 0f40 4036 17ab 0c36 ec09 5336 4a60 bc36
000000c0: 6670 b935 9179 6b36 c32f a535 eb7d 9c35
000000d0: 42cb c035 1181 0c36 8fd7 4a36 fde9 b035
000000e0: 9976 7f36 9e30 d635 9e05 7b36 7d98 a135
000000f0: fc02 4836 201e 0b36 f401 0000 8187 be35
00000100: 248c 3f36 aff6 b436 8d8e 3636 a5d7 4536
00000110: 53a4 a935 fb77 5436 4eef 2436 4eef ae35
00000120: 5cb9 0d36 ef81 d636 33e9 c635 4b06 e335
00000130: 8b4a b735 3dbf 5636 2b5b 0c36 b220 9b36
00000140: 948e 3236 d11f 5e36 6c99 a836 d16d b735
00000150: 80a5 4c36 eca0 5436 97c0 6336 6c73 a535
00000160: ab27 0237 74c1 c735 db77 4636 b588 2e36
00000170: 52fa d235 eebd 1236 96a4 d635 7ce4 e535
00000180: 35b2 3536 e1de 0936 6da3 3d36 a576 a435
00000190: d55e 4536 6be7 0136 4cc1 8d35 5641 8d35
000001a0: 8429 b035 3dc2 8b36 c4b0 8135 afec 3636
000001b0: 8fa4 2036 b8d2 5436 f89d 8d35 194e ad36
000001c0: 0c44 0a36 506e 2e36 2b24 b435 d3ed 0336
000001d0: 8895 c535 689a a335 2b19 7936 c2c1 7e36
000001e0: 120d 9b35 9fd1 a936 197b 4036 a423 9435
000001f0: 6df9 c135 b6e8 a935 9bf8 c935 2f45 c635
00000200: 7c22 0136 0c20 a235 535b cc35 8477 4736
00000210: 1b90 2536 de72 6936 196c d235 4dc7 8336
00000220: b568 f035 f404 b836 8bde aa35 a41c dd35
00000230: 40b3 0336 ef80 ca35 c005 3336 be4f 4336
00000240: e62c a235 8abc 9836 43b9 3836 f007 da35
00000250: ccf6 f535 fa59 2736 0f0d c636 f11e 9e35
00000260: 7851 8e36 b65c c335 a25e 7136 e6fd a235
00000270: d250 d436 76c5 3d36 c570 5236 6b76 c435
00000280: a070 fb35 6499 9c36 4b2c bd35 910a bb35
00000290: b208 ae35 e5a9 ed35 f82c 1036 3ad4 0136
000002a0: 1d87 4e36 38e3 cb35 8f47 1936 ea17 2236
000002b0: 97a3 3a36 be6e cd36 8976 8a36 6848 a935
000002c0: f34e c035 3a71 0636 f401 0000 ceaf d535
000002d0: 4ee1 a435 cb81 0536 445b 8d36 3be4 4b36
000002e0: 8f22 3536 f328 8d36 5c99 6536 7464 5336
000002f0: a982 bb35 5fd3 4136 67a8 cf35 2bda 1a36
00000300: df6a f535 2125 e735 199d 3836 e805 2036
00000310: f9e5 3c36 c304 9235 1a6b 9136 db67 c536
00000320: 4027 ac35 14ce 6f36 d2e0 4e36 242c f635
00000330: e4af 0a36 1c83 3436 0ffe 9d36 f0d3 9a35
00000340: 8aa6 0d36 823f 8136 8650 8d36 2a42 e735
00000350: dcb4 ba35 e591 aa35 91a7 5f36 271e 2036
00000360: 610c 5c36 2910 2036 284f dd35 8e58 1236
00000370: 4467 c135 f03a 8236 4c31 0936 e10d e335
00000380: c6e0 7236 6efb 3736 8c67 c935 c320 8d35
00000390: a87d b836 6e6f bb35 5869 9835 bfa6 da35
000003a0: 3fdc d435 6a80 f435 5209 9036 5b1f 5c36
000003b0: eb35 a736 b5fe 2d36 e3fe 9335 9e11 2b36
000003c0: f55b 0636 ddd6 e635 f9a5 ff35 d185 8236
000003d0: 309a e935 68e3 d935 818e 0536 5038 ed35
000003e0: fbcb 0336 32da b635 5312 9a36 c648 e635
000003f0: d817 da35 e8b9 7836 17c6 1a36 e23b c735

exp_avg f4 [10]
6e-45 -6e-45 4.1143164e-08 6e-45 6e-45 6e-45 3.8872827e-08 3.935579e-08
4.896645e-08 4.1063085e-08
00000000: 0400 0000 0400 0080 63b5 3033 0400 0000
00000010: 0400 0000 0400 0000 20f5 2633 2608 2933
00000020: 2e4f 5233 575d 3033

exp_avg_sq f4 [10]
7e-43 7e-43 6.526348e-14 7e-43 7e-43 7e-43 1.3210281e-13 1.583978e-13
1.0288606e-13 6.5662855e-14
00000000: f401 0000 f401 0000 d6f5 9229 f401 0000
00000010: f401 0000 f401 0000 0bbc 142a 0f57 322a
00000020: c7ad e729 0fdc 9329

exp_avg f4 [5, 10]
-7.84793e-07 5.528535e-05 -2.7825754e-05 -5.969567e-07 -5.936905e-09 -5.431742e-07 -8.8261195e-06 6.547587e-07
1.7687544e-05 -6.3837347e-06 -2.0302879e-10 1.0169114e-06 1.1771899e-05 0.001049297 5.9937494e-10 -1.6141124e-09
8.602237e-06 1.23092495e-05 6.2103595e-06 -3.9296906e-06 1.5874282e-15 -0.0011171175 6.443147e-05 0.00021497667
5.866806e-07 1.9082854e-06 -0.00012356436 -0.000115462455 0.00014837694 0.00063505303 9.7716224e-11 8.3572434e-07
-1.4259966e-06 4.050947e-09 -9.16193e-11 -3.915521e-09 -5.834523e-06 0.0010465835 -9.2177315e-06 -5.595721e-07
7.5168117e-07 -1.01219366e-10 3.578177e-05 4.4073607e-16 8.778814e-06 -8.675811e-06 -0.00029581002 -0.00096627325
-0.0003826888 2.4138877e-05
00000000: 90aa 52b5 31e2 6738 5a6b e9b7 8d3e 20b5
00000010: 92fd cbb1 a6ce 11b5 e513 14b7 adc2 2f35
00000020: b65f 9437 dd33 d6b6 863b 5faf cf7c 8835
00000030: ec7f 4537 9188 893a 43c1 2430 88d7 ddb0
00000040: 5452 1037 d383 4e37 9562 d036 c9db 83b6
00000050: c3c5 e426 3e6c 92ba 621f 8738 5c6b 6139
00000060: 627c 1d35 1810 0036 0e91 01b9 6f24 f2b8
00000070: a295 1b39 b079 263a 58e1 d62e 8a56 6035
00000080: df64 bfb5 8230 8b31 1579 c9ae 4989 86b1
00000090: 2cc6 c3b6 842d 893a dba5 1ab7 8035 16b5
000000a0: 23c7 4935 7095 deae 6214 1638 2a11 fe25
000000b0: b848 1337 538e 11b7 f316 9bb9 804d 7dba
000000c0: 9fa3 c8b9 d87d ca37

exp_avg_sq f4 [5, 10]
3.495041e-06 1.4408887e-05 1.0970558e-05 1.50096075e-05 1.50251535e-05 4.635686e-06 9.473927e-06 8.774122e-06
8.584197e-06 9.723876e-06 7.164118e-06 2.0083702e-05 9.18279e-06 1.3883427e-05 6.772653e-06 4.193697e-06
9.362378e-06 1.0548241e-05 6.123019e-06 1.2717103e-05 4.7669937e-06 1.9238054e-05 8.656459e-06 8.107731e-06
7.489674e-06 5.8866653e-06 1.3885307e-05 1.03689645e-05 1.1261291e-05 1.0478602e-05 8.2016895e-06 2.1404192e-05
8.782667e-06 4.6332552e-06 6.1262203e-06 5.7460697e-06 1.3193426e-05 1.728309e-05 7.551542e-06 7.091631e-06
3.7887717e-06 1.9369327e-06 2.2920032e-05 2.605374e-06 2.031294e-06 1.3208647e-06 2.9542809e-05 4.3791268e-05
2.6984502e-05 2.2974195e-05
00000000: 598c 6a36 b3bd 7137 300e 3837 c6d1 7b37
00000010: 8b14 7c37 3d8c 9b36 35f2 1e37 9134 1337
00000020: d804 1037 bb23 2337 4e63 f036 6c79 a837
00000030: c80f 1a37 ddec 6837 a540 e336 95b7 8c36
00000040: 1b13 1d37 5af8 3037 5574 cd36 8b5b 5537
00000050: 2af4 9f36 6861 a137 353b 1137 7106 0837
00000060: cf4f fb36 1286 c536 f1f4 6837 5df6 2d37
00000070: e0ee 3c37 41cd 2f37 fd99 0937 278d b337
00000080: 4459 1337 5c77 9b36 d58f cd36 5dce c036
00000090: 5559 5d37 27fb 9037 4063 fd36 a5f4 ed36
000000a0: 9a42 7e36 40fc 0136 6544 c037 fcd7 2e36
000000b0: 5d51 0836 9148 b135 b3d2 f737 84ac 3738
000000c0: c75c e237 b5b8 c037

exp_avg f4 [5]
-2.663834e-05 -2.2937138e-05 1.3137296e-05 -1.5779782e-05 -0.0038519911
00000000: 6675 dfb7 2169 c0b7 4268 5c37 d35e 84b7
00000010: b071 7cbb

exp_avg_sq f4 [5]
5.3209936e-07 1.8839054e-07 7.19765e-07 4.366493e-08 0.00041652113
00000000: 97d5 0e35 6648 4a34 e035 4135 198a 3b33
00000010: 8560 da39
